depression (timeseries)/best_gsr.pt (torch_old, 35689 bytes, 12 tensors)

fc1.weight f4 [100, 23]
0	0x3e641c42	0.22276405
1	0x3ea0e230	0.31422567
2	0x3e40fa45	0.1884547
3	0x3cb6ad3e	0.022299405
4	0x3db8e53e	0.090280995
5	0x3ea07f3c	0.31347072
6	0xbe7964d0	-0.24354863
7	0xbe64e1ea	-0.22351804
8	0x3dc04989	0.09389026
9	0x3d465688	0.048422366
10	0xb9637525	-0.00021692047
11	0x3c815210	0.0157862
12	0xbda4c50d	-0.08045397
13	0xbd16ea74	-0.036844686
14	0xbc9c6805	-0.01909257
15	0x3b8b26f2	0.004246586
16	0xbdfdbeaa	-0.12389882
17	0xbe981f70	-0.29711485
18	0xbd45d269	-0.048296366
19	0xbcbcf20b	-0.023064634
20	0x3d5a1b2d	0.053248573
21	0xbd7981d8	-0.060914844
22	0xbe1127e3	-0.14175372
23	0xbd801282	-0.0625353
24	0x3d218006	0.039428733
25	0x3b982b2f	0.0046438198
26	0xbcdb8000	-0.026794434
27	0xbc81ed84	-0.015860327
28	0xbe04d0ea	-0.1297032
29	0xbc2893fe	-0.01028919
30	0x3de9268c	0.11384305
31	0x3d309aa4	0.043116227
32	0xbb128081	-0.0022354426
33	0x399d4911	0.00029999812
34	0xbd43122f	-0.047624763
35	0xb9330f84	-0.0001707655
36	0xbc237951	-0.009977655
37	0x3b192dba	0.0023373202
38	0x3d5d7e75	0.054075677
39	0xbdd14bd8	-0.10219544
40	0x3cd3deb5	0.02586303
41	0xbd04e902	-0.032448776
42	0xbd0882f9	-0.03332803
43	0xbd1aa531	-0.037755195
44	0xbcdddec2	-0.027083758
45	0x3c356438	0.011071257
46	0x3b1ac7f4	0.0023617717
47	0xbc9a7636	-0.018855195
48	0xb9bb8944	-0.0003576969
49	0x3c9a1b52	0.018811855
50	0x357ec1ab	9.49042e-07
51	0xbc2ef002	-0.0106773395
52	0xbd0c3762	-0.034232505
53	0x37785dbe	1.4803778e-05
54	0xb528d1a0	-6.288992e-07
55	0xba7faf3c	-0.000975359
56	0xb54b79e9	-7.5800796e-07
57	0xbac336b1	-0.0014893619
58	0x352f5df2	6.532929e-07
59	0xb67de9d0	-3.7836035e-06
60	0x3cc14191	0.023590835
61	0xbb88c1eb	-0.0041735074
62	0xbd163aa6	-0.036677025
63	0xb8b9cad1	-8.859265e-05
64	0x3c2e868e	0.0106521975
65	0xbcff6bfe	-0.031179424
66	0x3c788d62	0.015170427
67	0x357523f0	9.132191e-07
68	0xbcf99de4	-0.030470796
69	0xbe8b5f7a	-0.2722128
70	0xbe9e516c	-0.30921495
71	0xbec0ea7b	-0.37678894
72	0xbcbcedb6	-0.023062568
73	0x3c7714d5	0.01508065
74	0xbdc32729	-0.095289536
75	0x3ddfb9ec	0.10924134
76	0x3dc907fe	0.098159775
77	0x3e0cb0fa	0.13739386
78	0xbcc71a11	-0.024304422
79	0xba98b818	-0.0011651544
80	0x3d872585	0.06598953
81	0xbd4f747a	-0.05064819
82	0xbd974226	-0.07385664
83	0xbc463e66	-0.012099838
84	0x3ce537bb	0.027980676
85	0x3bec3918	0.0072089545
86	0x3e1d8507	0.15382777
87	0x3c913ecd	0.017730141
88	0x3eab4b44	0.3345586
89	0xbe429fbf	-0.19006251
90	0xbe1357a5	-0.14388902
91	0x3e437ab9	0.19089784
92	0xbcedf23a	-0.029046167
93	0xbe0d229e	-0.13782737
94	0xbdbd3a90	-0.092396855
95	0x3c955b5d	0.018232042
96	0x3c9b79eb	0.018979033
97	0x3caddef5	0.021224478
98	0x3c551b33	0.013006973
99	0xbd72a7e6	-0.05924215
100	0xbda2be1f	-0.07946419
101	0x3d1aaf5b	0.03776489
102	0x3b740556	0.0037234626
103	0xbd8e2be1	-0.06941963
104	0xbba0edd1	-0.0049111624
105	0xbad3083b	-0.0016100475
106	0xbb80c4d8	-0.0039297156
107	0xbd030265	-0.031984705
108	0xbc168cbe	-0.009188829
109	0xbe3a4ba9	-0.18192925
110	0xbde3355e	-0.11094163
111	0x3dca2336	0.09869997
112	0xbc118a70	-0.008883104
113	0xbce1cd93	-0.027563846
114	0xbc85e478	-0.016344294
115	0xbe4789d4	-0.19486171
116	0x3b6a2abe	0.0035731043
117	0x3def62e4	0.11688784
118	0x3e6cc03e	0.2312021
119	0x3d9283fc	0.0715408
120	0xbd0f4550	-0.03497821
121	0x3e089146	0.13336667
122	0xbdf5f666	-0.120098874
123	0xbdb8dabe	-0.09026097
124	0x3d062c00	0.032756805
125	0xbb99e38f	-0.0046963166
126	0x3dcaf1ea	0.09909423
127	0x3cde9d28	0.027174547
128	0x3c4e6ed8	0.012599669
129	0x3d0f4d79	0.034985993
130	0x3b14cb25	0.0022704091
131	0x3e134c1d	0.14384504
132	0xbde5626c	-0.11200413
133	0x3e00ea52	0.12589386
134	0xbd1d2cfa	-0.03837297
135	0x3def0ccf	0.11672365
136	0x3cece95a	0.028919864
137	0xbe05a599	-0.13051452
138	0x3d718bf5	0.058971364
139	0x3e1f46d1	0.15554358
140	0x3e01f0dd	0.12689538
141	0x3e1b2fa1	0.15154888
142	0x3d18fb91	0.037349287
143	0xbd011909	-0.031518016
144	0x3deff18a	0.11715992
145	0x3e0dbf2c	0.13842458
146	0xbdeb4107	-0.11487012
147	0x3c8af270	0.016961306
148	0xbc815250	-0.01578632
149	0xbe0d9f12	-0.13830212
150	0xbcb55f64	-0.022140212
151	0xbd8ebc26	-0.0696948
152	0xbb69d820	-0.00356818
153	0x39a5334d	0.00031509475
154	0x3dbb55d6	0.09147231
155	0xbe2072d3	-0.15668802
156	0x3dfb1f92	0.12261881
157	0x3d8d6b58	0.0690524
158	0xbd2431e8	-0.040086657
159	0xbcfa9ce2	-0.030592386
160	0xbceaefd8	-0.02867882
161	0xbe5e823e	-0.21729371
162	0x3e10e50a	0.14149871
163	0xbe0e7a78	-0.13913906
164	0xbba0495b	-0.004891557
165	0x3c0dd3d0	0.008656457
166	0xbde951e8	-0.113925755
167	0xbba321dc	-0.0049784016
168	0xbd9710c8	-0.07376248
169	0x3e1acf70	0.15118194
170	0x3d06ac20	0.032878995
171	0x3aa0805b	0.0012245284
172	0x3dbe8987	0.09303575
173	0x3d199ade	0.03750121
174	0x3c01d560	0.007924408
175	0x3a776181	0.00094368315
176	0x3ba7a759	0.005116385
177	0xbe6270ab	-0.22113292
178	0x3de0b637	0.10972255
179	0xbda454fd	-0.08024023
180	0x3e120903	0.1426125
181	0x3ab10862	0.0013506527
182	0x3e6318d7	0.22177444
183	0xbd5279fb	-0.05138586
184	0xbded7e34	-0.11596337
185	0xbb83aa48	-0.004018102
186	0x3e491a68	0.1963898
187	0x3e020f65	0.12701185
188	0x3bf7a402	0.007557393
189	0x3e2313c2	0.15925506
190	0xbe0bda8d	-0.1365759
191	0x3d81697c	0.06318948
192	0x3e0abbd2	0.1354821
193	0x3c954d74	0.01822541
194	0x3ac329b8	0.0014889752
195	0xbe1c3e41	-0.15258123
196	0xbe02705b	-0.12738173
197	0xbde609e8	-0.11232358
198	0x3d123b7e	0.035701267
199	0x3bcef4ff	0.006315827
200	0x3e8c731a	0.27431566
201	0xbe1c6f4b	-0.1527683
202	0x3e708f2f	0.2349212
203	0x3e280ce7	0.16411172
204	0x3e155cdf	0.14586209
205	0xbdbe3871	-0.09288109
206	0xbe26fa3f	-0.16306399
207	0x3da466ce	0.08027421
208	0x3e49de02	0.19713596
209	0x3d50c45a	0.050968505
210	0x3de0ab54	0.10970178
211	0x3da84568	0.08216363
212	0x3e0b733f	0.13618182
213	0x3da20329	0.07910759
214	0xbde760cd	-0.1129776
215	0xbda1cb7f	-0.07900142
216	0xbcc1baac	-0.023648582
217	0xbca7c5a4	-0.020479985
218	0x3d098470	0.033573568
219	0xbdde77c7	-0.108626895
220	0xbdbdd31a	-0.0926878
221	0xbb6e3c5e	-0.00363519
222	0xbbe93f9e	-0.0071181795
223	0xbd1c3d39	-0.038144324
224	0xbe9fad3a	-0.3118685
225	0x3eab4927	0.33454248
226	0x3e0232b3	0.12714653
227	0xbd46f09c	-0.048569307
228	0xbd9040ab	-0.070435844
229	0x3e42a67a	0.19008818
230	0xbdfb2148	-0.12262207
231	0xbe3e3bd7	-0.18577515
232	0xbcac4af8	-0.021031842
233	0xbe67b1d4	-0.2262643
234	0xbd996850	-0.07490599
235	0xbcaf08e1	-0.021366538
236	0xbdd74a9c	-0.105122775
237	0x3bf0e60c	0.0073516425
238	0x3d65462d	0.055975128
239	0x3c9d95de	0.019236501
240	0xbb64583c	-0.003484263
241	0x3e17e24f	0.14832424
242	0xbb3e29a2	-0.0029016514
243	0x3dd3f8de	0.10350202
244	0xba8db194	-0.0010810369
245	0xbb734855	-0.003712197
246	0xbe2a4a40	-0.16629887
247	0x3e989733	0.29802856
248	0xbe38c69d	-0.18044515
249	0xbd169347	-0.03676155
250	0xbcd70ec2	-0.026252154
251	0x3e277ea2	0.163569
252	0x3e280af5	0.1641043
253	0x3c5f07fa	0.013612742
254	0x3c13118d	0.008976352
255	0xbc319853	-0.01083954

fc1.bias f4 [100]
0	0x3ad20845	0.0016024193
1	0xbc5b9115	-0.0134012895
2	0x3d0288ee	0.031868868
3	0xbbb0007d	-0.005371152
4	0x3df1944e	0.11795865
5	0x3e01d2b5	0.12678035
6	0x3d428cf2	0.047497697
7	0x3e6100f3	0.21973018
8	0xbdd6743c	-0.10471389
9	0xbd124f0b	-0.035719912
10	0x3e77126d	0.24128123
11	0x3e10c008	0.14135754
12	0xbccf115c	-0.025276832
13	0x3e8657cc	0.2623886
14	0xbe55f0fc	-0.2089271
15	0xb54b70e5	-7.5787676e-07
16	0xbcd9c05f	-0.026580987
17	0x3d44c148	0.04803589
18	0xbccd8170	-0.025086135
19	0xbcb3500f	-0.02188876
20	0xbdcac53f	-0.09900903
21	0x3e583adc	0.21116203
22	0x3ce03e30	0.027373403
23	0x3e9465bc	0.28983867
24	0xbcccddc3	-0.025008088
25	0x3d1407f7	0.03614041
26	0xbe4e94f2	-0.20174006
27	0xbc2f6129	-0.010704317
28	0xbd3699ff	-0.044580456
29	0xbd31bedd	-0.043394912
30	0x3e43d10b	0.19122712
31	0x3e50ae07	0.20378886
32	0xbdb24922	-0.08705355
33	0x3dedf62c	0.11619219
34	0xbe1f2988	-0.15543187
35	0xbe8078ee	-0.25092262
36	0xbd9bf68b	-0.07615384
37	0x3e617123	0.22015814
38	0x3e43cdfb	0.19121544
39	0x3c8870e4	0.016655393
40	0xbe3f727e	-0.18696019
41	0x3d2094c9	0.039204393
42	0xbcc2e4fb	-0.023790827
43	0x3d27a436	0.040928088
44	0xbc11228b	-0.008858333
45	0xbe03a69f	-0.1285653
46	0xbd578dfe	-0.05262565
47	0x3d32f385	0.04368927
48	0xbc9dce86	-0.019263517
49	0xbde137a0	-0.10996938
50	0xbd7a0a03	-0.061044704
51	0x3e467691	0.19381167
52	0x3e460a0d	0.19339772
53	0xbdd3e188	-0.10345751
54	0xbd97d082	-0.074128166
55	0x3e564700	0.20925522
56	0xbdeaff00	-0.11474419
57	0xbd83c916	-0.064348385
58	0xbd82143e	-0.06351517
59	0xb8879171	-6.464392e-05
60	0x3da8e889	0.082474776
61	0x3e95afa5	0.2923557
62	0x3e214918	0.1575054
63	0x3e8a2d3b	0.26987633
64	0x3e1cbed5	0.15307172
65	0xbd090a18	-0.03345689
66	0x3dd24757	0.10267513
67	0x3dc61fff	0.096740715
68	0xbde949a6	-0.113910004
69	0x3da0c843	0.07850697
70	0x3e30827c	0.17237276
71	0x3d94f84e	0.07273923
72	0xbe23316f	-0.15936826
73	0x3e5641b3	0.209235
74	0xbdfa29dd	-0.12215016
75	0xbe3d4a12	-0.18485287
76	0x3d842473	0.06452265
77	0xbd00e3af	-0.031467136
78	0xbd6e7b85	-0.058223266
79	0x3d9af7df	0.07566809
80	0x3e946823	0.289857
81	0x3c935c57	0.017988367
82	0x3e0277e9	0.12741055
83	0x3e81536f	0.25258967
84	0x3e9a0a12	0.30085808
85	0x3e03f182	0.12885097
86	0x3e485dc8	0.19567025
87	0xbe199748	-0.14999115
88	0xbe0ae085	-0.1356221
89	0x3d9cadc6	0.07650332
90	0x3ae08aa2	0.001713116
91	0xbe591625	-0.21199854
92	0x3d3a7339	0.04552004
93	0xbc11d09e	-0.008899836
94	0xb7d68867	-2.5574305e-05
95	0xbd40b928	-0.04705158
96	0x3d93166d	0.07182012
97	0x3dbc59ad	0.09196792
98	0xbd9cbf4d	-0.07653675
99	0x3e2aaf66	0.16668472

fc2.weight f4 [4, 100]
0	0xbe705196	-0.23468623
1	0xbbf56f00	-0.007490039
2	0x360a1ffc	2.058222e-06
3	0xbe9ead57	-0.30991623
4	0xbc2ae43a	-0.01043039
5	0x3be285e3	0.006912933
6	0xbdb91705	-0.09037594
7	0x3be36341	0.006939322
8	0xbe00f5f5	-0.12593825
9	0xbdbea84f	-0.09309446
10	0x3e402766	0.1876503
11	0x3d88337d	0.066504456
12	0x34d0372a	3.8783156e-07
13	0x3e263702	0.16231921
14	0x3d2622a3	0.040560376
15	0xb55069b6	-7.763987e-07
16	0xbe78c3a6	-0.24293384
17	0xbe81a235	-0.25319067
18	0xbdf7579b	-0.12077256
19	0xbe005cb5	-0.12535365
20	0xbe171de3	-0.14757495
21	0x3d9b39b2	0.07579364
22	0x3cac30f5	0.021019438
23	0x3dec2382	0.1153021
24	0x3dd6494d	0.104632
25	0xbcaeac21	-0.021322312
26	0xbe7eb23f	-0.24872683
27	0x3c2b1eb0	0.010444328
28	0xbe789a18	-0.24277532
29	0xb5adde01	-1.2954116e-06
30	0xbd228d89	-0.03968576
31	0x3deddbd3	0.11614194
32	0xbe3e535b	-0.18586485
33	0x3d97d651	0.074139245
34	0xbdd6f08f	-0.10495102
35	0xbdf7d7fb	-0.12101742
36	0xbe50b5ae	-0.20381805
37	0x3e39ad57	0.1813253
38	0x3de28314	0.110601574
39	0xbe201706	-0.15633783
40	0xbe6e39ff	-0.23264311
41	0xbe1bca56	-0.15213904
42	0xbe08af62	-0.13348153
43	0x3e4c152e	0.19929954
44	0x373e58f1	1.1345591e-05
45	0xbc0c9557	-0.008580527
46	0xbc3ed501	-0.011647464
47	0x3d0d434d	0.03448801
48	0x3bbd6e3d	0.0057809637
49	0x3d563451	0.052295987
50	0xbd18f3e6	-0.037341975
51	0xbe5ffd42	-0.21873954
52	0xbeb2625f	-0.34840676
53	0xbdf2b372	-0.11850633
54	0xbd3da333	-0.046298217
55	0x3bbffb57	0.0058588195
56	0xbc226655	-0.009912093
57	0x3da867f3	0.08222952
58	0xbe6962d4	-0.22791606
59	0x39c3ef0e	0.00037371408
60	0xbc52c1cd	-0.0128635885
61	0x3e0124da	0.12611714
62	0x3da5969b	0.08085366
63	0x3e2e4377	0.17017923
64	0x3db255be	0.0870776
65	0x37a96380	2.0192703e-05
66	0x3de55580	0.111979485
67	0x3dfc6d29	0.12325508
68	0x3d4b6eea	0.049666323
69	0xbdb14504	-0.08655742
70	0x3d9cf854	0.07664552
71	0x3e4ff101	0.2030678
72	0xbe995968	-0.29951024
73	0x3e8b3702	0.27190405
74	0xbc1ae5a0	-0.009454161
75	0xbe5b6dd5	-0.21428616
76	0xbec2d683	-0.38054284
77	0x3d90a0df	0.07061934
78	0xbe4bd6d2	-0.19906166
79	0x3cc6d944	0.024273522
80	0x3e3163b0	0.17323184
81	0x3d8555c2	0.06510498
82	0x3dd81777	0.105513506
83	0x3de4c5cf	0.111705415
84	0x3e2de1ec	0.16980714
85	0xbe7ec2a5	-0.24878938
86	0xbe7029fd	-0.23453517
87	0xbd4b0d79	-0.049573395
88	0xbce0d005	-0.027442941
89	0xbd610129	-0.054932747
90	0x37456466	1.1765491e-05
91	0xbe3fbcfb	-0.18724434
92	0xbd67fdd9	-0.056638572
93	0x34a8df93	3.145511e-07
94	0x35a802f8	1.2517839e-06
95	0xbd957f9a	-0.07299729
96	0x3e2a0ee1	0.16607238
97	0x3dc824e6	0.09772663
98	0xbeb04a46	-0.34431666
99	0xbcb0c910	-0.02158025
100	0x3d973bd7	0.073844604
101	0xbcf9a2d9	-0.03047316
102	0x34eb20ad	4.3795936e-07
103	0x3dc6fefa	0.09716602
104	0xbdf5e48c	-0.120064825
105	0xbe124d4e	-0.14287302
106	0x3c09ff7c	0.008422729
107	0xbe267447	-0.16255294
108	0x3cfeb91f	0.031094132
109	0x3d21a2da	0.039461948
110	0xbe00bd7f	-0.12572287
111	0x3cfcab16	0.030843299
112	0x34b4690d	3.3604047e-07
113	0xbdbf1904	-0.09330943
114	0x3de2b344	0.110693485
115	0xb9657350	-0.00021882099
116	0x3e47a057	0.19494759
117	0xbc1ea464	-0.0096827485
118	0xbcbec59b	-0.023287585
119	0x3dd67dbf	0.10473203
120	0xbd5e1dd0	-0.05422765
121	0x3d093427	0.033497002
122	0xbe2a932a	-0.16657701
123	0x3d5b66db	0.053564887
124	0xbce2cc17	-0.027685208
125	0x3d1c85c6	0.038213514
126	0x3d582cb7	0.05277702
127	0x3bd06c5d	0.006360574
128	0x3da2b19b	0.07944032
129	0x32ab0826	1.9910726e-08
130	0xbdc28538	-0.09498066
131	0x3d4815be	0.04884886
132	0xbe431ff9	-0.19055165
133	0xbe298c2f	-0.16557382
134	0x3e5446e9	0.20730175
135	0x3d65ed8f	0.056134757
136	0xbc512725	-0.01276568
137	0x3cfae5c5	0.03062714
138	0xbe5480b4	-0.20752221
139	0x3e799d6d	0.2437646
140	0x3deb557f	0.114909165
141	0xbe3818ff	-0.17978285
142	0x3dc30e15	0.0952417
143	0xbd128bcf	-0.035777863
144	0xba84a369	-0.0010119501
145	0x39ff261f	0.00048665793
146	0x3be2af8f	0.006917901
147	0xbe238039	-0.15966882
148	0xbd56fd00	-0.052487373
149	0xbe8dcc8e	-0.27695125
150	0xbe868ebe	-0.2628078
151	0xbe063dc3	-0.13109498
152	0x3d4747ff	0.048652645
153	0x3d600228	0.054689556
154	0x3d35db21	0.04439843
155	0xbde9187e	-0.11381625
156	0x3cfc753d	0.030817622
157	0xbdfca06c	-0.123352855
158	0x3e05477e	0.13015553
159	0xb46ec08d	-2.2235527e-07
160	0xbe0d11ee	-0.13776371
161	0xbbe487b8	-0.0069741867
162	0x3cd165cd	0.025561238
163	0x3c288e76	0.010287872
164	0x3dd013a9	0.1016
165	0xb9cc8f8c	-0.00039016863
166	0xbd3f4fa6	-0.046706818
167	0xbdf8dacf	-0.121511094
168	0x3e2bbc0e	0.16770956
169	0x3d8e8e2c	0.06960711
170	0x3ca5081c	0.020145468
171	0x3dcdcf40	0.100492954
172	0xbe8f126a	-0.27943736
173	0xbe37dd55	-0.17955525
174	0x3bd4470b	0.0064781955
175	0xbe7f5dd4	-0.24938136
176	0x3e2ca099	0.16858138
177	0xbe74bbef	-0.23899816
178	0xbe0738f3	-0.13205318
179	0x3d9274c1	0.07151175
180	0xbe273e9e	-0.1633248
181	0x3acdd568	0.0015703859
182	0xbe4f601c	-0.20251507
183	0xbd80180f	-0.06254589
184	0xbe04eba6	-0.12980518
185	0xbe5a0540	-0.21291065
186	0x3d0f3d6e	0.034970693
187	0x3df05faf	0.11737
188	0x3dab69e1	0.08369804
189	0x3e0effee	0.13964817
190	0x3688b73e	4.074448e-06
191	0x3e82e603	0.2556611
192	0xbd95b0fc	-0.07309148
193	0x3a8f05f1	0.0010911805
194	0x387e4504	6.0622595e-05
195	0x3d81ed97	0.06344145
196	0xbe0e408d	-0.13891812
197	0xbc6da892	-0.014505522
198	0x3e9df711	0.3085256
199	0x3c80aed6	0.015708368
200	0xbc8d2ed5	-0.017234245
201	0xbd24ec6f	-0.040264543
202	0x3649c130	3.0063784e-06
203	0x3e6316ab	0.22176616
204	0xbca5a229	-0.020218926
205	0xbd175eaf	-0.03695553
206	0xbd842ab0	-0.064534545
207	0x3de27b1c	0.110586375
208	0xbe428191	-0.18994738
209	0xbe640f1c	-0.22271389
210	0x3d94e9d0	0.07271159
211	0x3dbeb7ac	0.093123764
212	0x3a09f845	0.00052631303
213	0x3e3a4d83	0.18193631
214	0x3e7e316f	0.24823545
215	0xb5935611	-1.0977402e-06
216	0x3cdf8043	0.02728284
217	0xbc711b4b	-0.01471598
218	0xbd921a47	-0.07133918
219	0x3d944bca	0.07241018
220	0xbe93a959	-0.2884014
221	0x3d5e545a	0.054279663
222	0x3e3be89f	0.18350457
223	0x3d85d6f1	0.065351374
224	0xbe5e2538	-0.21693885
225	0xbe539693	-0.20662908
226	0xbe7894b9	-0.24275483
227	0xbc96c620	-0.01840502
228	0x3d047619	0.03233919
229	0x360c1020	2.0871012e-06
230	0x3dd93357	0.106054954
231	0x3d32c1d2	0.043641873
232	0x3e7c5842	0.24643043
233	0xbd878d63	-0.06618764
234	0xbdeac877	-0.11464017
235	0xbe198be9	-0.14994778
236	0xbd589613	-0.052877497
237	0x3e2d422f	0.16919778
238	0x3d3c8b7b	0.046031456
239	0xbe7e645a	-0.24842969
240	0x3e6fd357	0.23420464
241	0x3de0dd62	0.109797254
242	0xbc821fcf	-0.015884308
243	0xbe57e90a	-0.21084991
244	0x34b57bf6	3.380407e-07
245	0x3bd1c32e	0.006401441
246	0xbc0acf7b	-0.008472319
247	0x3e1b50a1	0.15167476
248	0x3e7d7644	0.24752146
249	0xbc560250	-0.013062075
250	0xbdb0c941	-0.08632136
251	0x3e3a3981	0.18185998
252	0x3e85d007	0.26135275
253	0xbddf4ac2	-0.10902931
254	0x3ce6ffec	0.028198205
255	0x3e81ac42	0.25326735

fc2.bias f4 [4]
0	0x3e029571	0.1275232
1	0x3d0992a9	0.03358713
2	0xbd1b24af	-0.03787678
3	0xbe6476b3	-0.22310905

exp_avg f4 [100, 23]
0	0xba346849	-0.0006881995
1	0xba95bc84	-0.001142398
2	0xba8739f2	-0.0010316952
3	0xb9b6461d	-0.00034765984
4	0xb670da66	-3.5889911e-06
5	0xba7dcbc8	-0.000968155
6	0x38a15cd5	7.6943696e-05
7	0xb966ba51	-0.00022003918
8	0x39b74298	0.00034954096
9	0xb7fd2b25	-3.0180041e-05
10	0xb6dd493b	-6.5948384e-06
11	0x398b86df	0.00026612633
12	0x35192531	5.705106e-07
13	0x37b201f0	2.1220156e-05
14	0xb7cded14	-2.4548302e-05
15	0xb50bb727	-5.2048057e-07
16	0x3a9d2986	0.0011990524
17	0x3af191d4	0.0018430301
18	0xb8ea8890	-0.00011183426
19	0x3add1b83	0.0016869161
20	0xba085a02	-0.00052014005
21	0x382dda9c	4.145001e-05
22	0xb6059860	-1.9907238e-06
23	0xb86a252b	-5.5824563e-05
24	0x38743438	5.8222766e-05
25	0x37914a06	1.7319817e-05
26	0xb7f2dc90	-2.8951355e-05
27	0xb79b1992	-1.8489347e-05
28	0xb9017239	-0.0001234495
29	0x37071f6b	8.053942e-06
30	0x3912d54c	0.00014003104
31	0x38864138	6.401766e-05
32	0xb58fef4a	-1.0723973e-06
33	0x353c8f3a	7.024388e-07
34	0xb7f181f2	-2.878995e-05
35	0xb202d3a4	-7.615117e-09
36	0xb7473cf5	-1.1875517e-05
37	0x365e6aaa	3.3142665e-06
38	0x3877c249	5.907033e-05
39	0xb8d66913	-0.00010223887
40	0x380b7538	3.324935e-05
41	0xb80f2189	-3.412509e-05
42	0xb8140ce6	-3.5297962e-05
43	0xb80e9582	-3.399468e-05
44	0xb7e27036	-2.6993552e-05
45	0x37c00bf9	2.2893759e-05
46	0x365a8bb2	3.2565845e-06
47	0xb7b74676	-2.1848111e-05
48	0xb52a33a6	-6.3405093e-07
49	0x37b6e1c6	2.1801225e-05
50	0x2feb31ad	4.2781548e-10
51	0xb758198d	-1.2880552e-05
52	0xb8205e4b	-3.823479e-05
53	0x33ad5c24	8.0727006e-08
54	0xb04aebad	-7.382209e-10
55	0xb5c7df56	-1.4891655e-06
56	0x2fb16eba	3.2274788e-10
57	0xb610f105	-2.1597964e-06
58	0x2fd2cfba	3.8346376e-10
59	0x30fd6d86	1.8439301e-09
60	0x37e20321	2.6942756e-05
61	0xb6b6ace1	-5.4441484e-06
62	0xb82b2767	-4.0806273e-05
63	0xb467bd6f	-2.1582467e-07
64	0x3757a115	1.28525035e-05
65	0xb812daa6	-3.5012745e-05
66	0x3795a81f	1.7840472e-05
67	0x30a3ba87	1.1912825e-09
68	0xb80fb5bb	-3.4263106e-05
69	0x3a707cf0	0.00091738906
70	0x3a58485f	0.000825053
71	0x3ac6f87e	0.0015180258
72	0x388910ec	6.535821e-05
73	0x383395ee	4.281656e-05
74	0x3af15266	0.0018411397
75	0xba25ddb8	-0.0006327289
76	0xba11f2b5	-0.0005567477
77	0xb9fc4922	-0.00048119674
78	0x380fe63a	3.4308272e-05
79	0xb3a4c9ef	-7.6735766e-08
80	0xba108e24	-0.00055143447
81	0xb5b71156	-1.3639608e-06
82	0xb7baf322	-2.2286145e-05
83	0xb75e5dae	-1.3254043e-05
84	0x380e678d	3.3951877e-05
85	0xba30e921	-0.0006748606
86	0xbb1e07e4	-0.002411359
87	0x3954059a	0.00020219982
88	0xba9d323a	-0.0011993118
89	0x39d9737b	0.00041475505
90	0x37559f62	1.27328985e-05
91	0x3982a8fb	0.00024921432
92	0xb79d2a96	-1.8735689e-05
93	0xb9176595	-0.00014438324
94	0xb8bd074d	-9.013582e-05
95	0x37918e63	1.7351651e-05
96	0x37b82cde	2.1955402e-05
97	0x37fd620f	3.0205612e-05
98	0x38449613	4.686981e-05
99	0xb809d16a	-3.2858377e-05
100	0xb8610da4	-5.3656884e-05
101	0x382ed0c6	4.1679268e-05
102	0x36a45d01	4.898408e-06
103	0xb834a6b9	-4.3070617e-05
104	0xb6b4e27c	-5.3907843e-06
105	0xb5658fd7	-8.551846e-07
106	0xb6ad5723	-5.165946e-06
107	0xb8168691	-3.588811e-05
108	0x38ec630e	0.00011271807
109	0xb8cdff6f	-9.82274e-05
110	0xb915644e	-0.00014247114
111	0x39017e66	0.00012349486
112	0xb6cf508b	-6.178457e-06
113	0xb7f86f9c	-2.9615876e-05
114	0xb7895d92	-1.6375245e-05
115	0x39067b1f	0.00012825102
116	0xb9c4b2e0	-0.00037517305
117	0xb9f1dada	-0.0004613016
118	0x38ad2a39	8.2571474e-05
119	0x37ccd270	2.4416688e-05
120	0xba24576b	-0.000626913
121	0xb79a4b78	-1.8393373e-05
122	0xb991bc10	-0.00027796673
123	0xb98b5fca	-0.00026583514
124	0x384b92f9	4.853585e-05
125	0xb472c93c	-2.2611215e-07
126	0xb895960c	-7.132822e-05
127	0x38cd3892	9.785699e-05
128	0x38c29b12	9.279525e-05
129	0x38216a86	3.84846e-05
130	0x35b127cc	1.319911e-06
131	0x38c60aa8	9.4433606e-05
132	0x3a961bdb	0.0011452393
133	0x39c9690e	0.0003841598
134	0x3a0b392a	0.00053109473
135	0xb9b1e735	-0.00033932333
136	0xb98e1e3c	-0.00027106877
137	0x38b56a93	8.6506036e-05
138	0x399aa880	0.0002949871
139	0x396aa2ec	0.00022376672
140	0x396fe330	0.0002287745
141	0x381d33e0	3.748003e-05
142	0x35b72564	1.3645445e-06
143	0x386351c2	5.419716e-05
144	0x393cf86a	0.00018021619
145	0x391d4d87	0.00015001568
146	0xb88b52a6	-6.643431e-05
147	0x372cd7b0	1.0302218e-05
148	0xb79b5174	-1.851537e-05
149	0xb8bdfb5c	-9.0590416e-05
150	0x386668b7	5.4933796e-05
151	0xb738d600	-1.101708e-05
152	0xb69b184a	-4.6221876e-06
153	0x346634ec	2.1439672e-07
154	0xb94bf9a8	-0.00019452593
155	0x39e201bd	0.00043107374
156	0xb7ab2ad0	-2.0404725e-05
157	0x3874f67e	5.8403697e-05
158	0xb8b9d6e3	-8.861513e-05
159	0x38475f8c	4.7534282e-05
160	0x39948e0a	0.00028334587
161	0x3930e67a	0.00016870527
162	0x3a0efdc6	0.00054546853
163	0x39d55d3a	0.00040695985
164	0x38aebfa0	8.3326595e-05
165	0x38319373	4.233741e-05
166	0x39e16c4b	0.0004299603
167	0x3908ef37	0.00013059085
168	0x369151a0	4.330839e-06
169	0x3996f114	0.00028789847
170	0x37f8b6fb	2.964911e-05
171	0x35aa9c80	1.2711535e-06
172	0x39718dce	0.00023036377
173	0xb838596d	-4.3952303e-05
174	0xb8656642	-5.469309e-05
175	0xb5eb93c2	-1.7551868e-06
176	0x3574f763	9.125708e-07
177	0x3a97712a	0.0011554111
178	0x3a482f12	0.00076364086
179	0x3a69d2c7	0.0008919653
180	0x3a502ea4	0.00079415203
181	0xb887bfb4	-6.473009e-05
182	0xb79dfafd	-1.8832734e-05
183	0x397b5d69	0.00023972023
184	0x39b23f79	0.00033998096
185	0xba82bbda	-0.0009974197
186	0xb9c57978	-0.0003766527
187	0xb9c50cb4	-0.00037584233
188	0xb8e6b2d9	-0.000110005676
189	0xb9fb1a7b	-0.0004789418
190	0xba1bbf48	-0.0005941284
191	0xba361fbc	-0.0006947478
192	0xb9cc669e	-0.00038986368
193	0xb8413d38	-4.60718e-05
194	0x35579a87	8.031861e-07
195	0xba32beae	-0.00068185746
196	0x37f07b6c	2.8667702e-05
197	0x373effca	1.1384438e-05
198	0x381fdbc2	3.811322e-05
199	0xb55cb5d5	-8.2220987e-07
200	0xb972b5f4	-0.00023146701
201	0x3b051c15	0.0020310928
202	0xba4d20b7	-0.0007825004
203	0xb8cc0d41	-9.729947e-05
204	0xb895ff73	-7.152455e-05
205	0xb85e96e4	-5.3069452e-05
206	0x3a17dfb3	0.00057935267
207	0x3aa48ea4	0.0012554717
208	0x3a9fc102	0.0012188258
209	0x3a26be56	0.000636076
210	0xb894581e	-7.073603e-05
211	0x37902138	1.7181606e-05
212	0x3a39acdd	0.00070829486
213	0x3a43b382	0.00074654084
214	0x3a55a5d3	0.0008150015
215	0x3a23dc69	0.00062508
216	0x380f76e5	3.4204586e-05
217	0xb780dece	-1.536254e-05
218	0x3a425174	0.000741265
219	0x381452fe	3.5363242e-05
220	0x3803bad7	3.1406842e-05
221	0x351a0aa2	5.7384943e-07
222	0x35958c66	1.1142226e-06
223	0xba3f092f	-0.000728744
224	0x3aa285fb	0.0012399548
225	0xbac7c8e9	-0.0015242371
226	0xba2a7410	-0.000650228
227	0x3a02e4bb	0.000499319
228	0x3963073a	0.00021651099
229	0x3a21d95a	0.00061740505
230	0xba2d3602	-0.0006607474
231	0xb9c81d4a	-0.00038168795
232	0xb9be6727	-0.00036316479
233	0xb879ef86	-5.95893e-05
234	0xb834aa0a	-4.3073705e-05
235	0xb9bd8aaa	-0.00036152202
236	0x38b11a56	8.444923e-05
237	0x3a01d0ae	0.0004952055
238	0x39a18dae	0.00030813873
239	0x38b241b6	8.499941e-05
240	0x354e32c6	7.6814865e-07
241	0x39d4007f	0.0004043616
242	0xb940bd1c	-0.00018380996
243	0xb83142a0	-4.2262138e-05
244	0x33dc21ac	1.0250673e-07
245	0xb5837e91	-9.797096e-07
246	0x3aa36856	0.0012467008
247	0xb90e6d39	-0.00013582864
248	0x39d8a86a	0.0004132421
249	0x399b482c	0.00029617676
250	0x37aa9380	2.0334264e-05
251	0xb8cbb5b5	-9.71364e-05
252	0x3a0044d6	0.000489307
253	0xb8113492	-3.4619654e-05
254	0x398732b0	0.00025786972
255	0x398b7ef4	0.00026606733

exp_avg_sq f4 [100, 23]
0	0x3483f43f	2.4578364e-07
1	0x353436dc	6.7135056e-07
2	0x350f3684	5.335098e-07
3	0x33146b04	3.4556265e-08
4	0x2f2c9792	1.5697157e-10
5	0x35078796	5.048872e-07
6	0x344f68d2	1.931651e-07
7	0x3481c841	2.4173826e-07
8	0x3486e9aa	2.5129458e-07
9	0x3070548c	8.743164e-10
10	0x30033d7b	4.774489e-10
11	0x347e045b	2.3657178e-07
12	0x309a5a7e	1.1230694e-09
13	0x30c7f440	1.4548576e-09
14	0x30af36a2	1.2748453e-09
15	0x2cf229e0	6.8827027e-12
16	0x34e8ed05	4.3385822e-07
17	0x357ecb50	9.491823e-07
18	0x347a0cb8	2.3287691e-07
19	0x34c24888	3.618809e-07
20	0x33ddcc8e	1.0328323e-07
21	0x315d0739	3.2163838e-09
22	0x347e3635	2.3675314e-07
23	0x31a6e4c2	4.8572426e-09
24	0x32bf7dba	2.22925e-08
25	0x3229f27f	9.892232e-09
26	0x30ba2180	1.3542802e-09
27	0x3091538c	1.0573884e-09
28	0x3218b920	8.889657e-09
29	0x32ec3ba9	2.7501146e-08
30	0x3382b9ee	6.087417e-08
31	0x331f2538	3.7053923e-08
32	0x2f69f85f	2.1279466e-10
33	0x2f86b5ee	2.4503727e-10
34	0x33007aec	2.991412e-08
35	0x2d842666	1.5023715e-11
36	0x305361af	7.690017e-10
37	0x2fdf637b	4.063415e-10
38	0x31525d69	3.061212e-09
39	0x3238037a	1.0711e-08
40	0x31d01c35	6.0568035e-09
41	0x3116fcd7	2.1971596e-09
42	0x310a223c	2.0101103e-09
43	0x30effdeb	1.7461707e-09
44	0x30d0d72d	1.5195148e-09
45	0x321d7474	9.165081e-09
46	0x2fdacf78	3.9801384e-10
47	0x30a66627	1.2107123e-09
48	0x2f7bd520	2.2904034e-10
49	0x30a61eb7	1.2086819e-09
50	0x2d382269	1.046683e-11
51	0x3063c081	8.2855683e-10
52	0x31067547	1.956623e-09
53	0x2f2b6f23	1.5591843e-10
54	0x2d248593	9.35198e-12
55	0x2fa263ca	2.9538533e-10
56	0x2d54cf2e	1.2096808e-11
57	0x2fb97ca9	3.373988e-10
58	0x2cd4c874	6.047657e-12
59	0x2e99a291	6.986512e-11
60	0x30c52721	1.4344758e-09
61	0x300accd3	5.049518e-10
62	0x310f041c	2.0811575e-09
63	0x2f46c0e9	1.807653e-10
64	0x30636d03	8.2737034e-10
65	0x30f7e35a	1.8036233e-09
66	0x308ec1be	1.0386925e-09
67	0x2d8d2196	1.604476e-11
68	0x30f30f94	1.7685005e-09
69	0x349eb538	2.9561647e-07
70	0x34a0bf6d	2.9941603e-07
71	0x34ec5db1	4.4026595e-07
72	0x31e6902a	6.7102706e-09
73	0x30aa2a55	1.2381159e-09
74	0x35184a99	5.6732966e-07
75	0x34cbcce8	3.7960785e-07
76	0x34de09aa	4.1357754e-07
77	0x34cd3cb8	3.8228404e-07
78	0x3013b524	5.3735705e-10
79	0x2ba968d1	1.2037265e-12
80	0x34cfb6ff	3.8689902e-07
81	0x30575028	7.8330453e-10
82	0x3138ea11	2.6908575e-09
83	0x30737c61	8.857964e-10
84	0x30e3e696	1.658196e-09
85	0x356a664e	8.7320666e-07
86	0x357c9573	9.409479e-07
87	0x3491eba0	2.7179794e-07
88	0x34f2dca2	4.5236544e-07
89	0x33140f12	3.447264e-08
90	0x3086e1e5	9.813986e-10
91	0x34e9b2f0	4.3529826e-07
92	0x3093604f	1.072303e-09
93	0x322ff290	1.0241493e-08
94	0x319a84ab	4.4970725e-09
95	0x30ec15d8	1.7177468e-09
96	0x30a979c4	1.2330976e-09
97	0x320d6d5c	8.232146e-09
98	0x3189cfee	4.0108636e-09
99	0x312906d4	2.4596618e-09
100	0x31601885	3.2610228e-09
101	0x3116335f	2.1857074e-09
102	0x3003debd	4.797405e-10
103	0x313fa3b5	2.7887215e-09
104	0x2fcc915b	3.7210665e-10
105	0x2efea980	1.1580692e-10
106	0x3006cb91	4.90382e-10
107	0x30fcccb6	1.8393596e-09
108	0x33ebaa78	1.0974048e-07
109	0x33b537c3	8.438612e-08
110	0x3245f0cb	1.1521659e-08
111	0x33a51ded	7.688855e-08
112	0x2febd202	4.289547e-10
113	0x30d113ff	1.5212435e-09
114	0x32da822b	2.5437734e-08
115	0x34dc853a	4.1075128e-07
116	0x35515238	7.797821e-07
117	0x3506c02e	5.019855e-07
118	0x3289bded	1.6035267e-08
119	0x2fbb2428	3.4040792e-10
120	0x350e63ba	5.3044243e-07
121	0x344c10ed	1.9005138e-07
122	0x3494cbf4	2.7715544e-07
123	0x3474130c	2.27312e-07
124	0x30b59ba7	1.3213722e-09
125	0x2faf13eb	3.1846467e-10
126	0x34606c45	2.0901014e-07
127	0x319248a2	4.2574166e-09
128	0x318128b1	3.75902e-09
129	0x3105b272	1.9455482e-09
130	0x2c21ddf1	2.3002678e-12
131	0x3530ab27	6.581417e-07
132	0x351e6bd8	5.901652e-07
133	0x34b296c3	3.3264777e-07
134	0x34b01ef9	3.280509e-07
135	0x33cb55eb	9.4685525e-08
136	0x326e8d0b	1.3885493e-08
137	0x34a5d264	3.0886724e-07
138	0x33dc7570	1.026591e-07
139	0x340ed169	1.3300964e-07
140	0x33dbec52	1.02409686e-07
141	0x30cf9ca9	1.5105758e-09
142	0x2e06803d	3.058197e-11
143	0x33d8162a	1.00623154e-07
144	0x33829d3d	6.082198e-08
145	0x3396fae6	7.0305575e-08
146	0x33816bf0	6.026664e-08
147	0x2fd133b5	3.8053619e-10
148	0x3092f4b0	1.0692442e-09
149	0x33849501	6.173833e-08
150	0x309b5179	1.130089e-09
151	0x313e38e2	2.7680973e-09
152	0x30048dbe	4.822275e-10
153	0x2bd7ceb9	1.5334046e-12
154	0x341f6700	1.48455e-07
155	0x3409a669	1.2819659e-07
156	0x336c6dcb	5.5047888e-08
157	0x33952572	6.9451644e-08
158	0x32bff28e	2.2345628e-08
159	0x3068cd7d	8.4693125e-10
160	0x339b2a1d	7.22541e-08
161	0x34322fbc	1.6594907e-07
162	0x34c0baff	3.5898844e-07
163	0x3478a3f2	2.3156443e-07
164	0x318c0d79	4.076068e-09
165	0x30dedc83	1.6215299e-09
166	0x347cbcef	2.3538063e-07
167	0x3431c7c1	1.655708e-07
168	0x347455b1	2.2755445e-07
169	0x34414603	1.7999996e-07
170	0x31115e07	2.1153725e-09
171	0x2cda7963	6.2094093e-12
172	0x34409e1b	1.7938912e-07
173	0x31567533	3.1207719e-09
174	0x318cfa46	4.102989e-09
175	0x2fa64af3	3.024848e-10
176	0x2de4e93a	2.6024172e-11
177	0x34cfe3f3	3.872261e-07
178	0x34c4336d	3.6545262e-07
179	0x348c9925	2.618846e-07
180	0x345945b7	2.0235062e-07
181	0x3356b41e	4.9989573e-08
182	0x311105cf	2.1103579e-09
183	0x344ce583	1.9082476e-07
184	0x34fa8e76	4.6669783e-07
185	0x359b62be	1.1577138e-06
186	0x3540bbb0	7.1798695e-07
187	0x33114a99	3.382829e-08
188	0x31d5d9af	6.2238636e-09
189	0x354a70ff	7.5415295e-07
190	0x34a6adf2	3.104647e-07
191	0x34d78bba	4.0148535e-07
192	0x34bd3c3a	3.5247814e-07
193	0x305be4f7	7.9997114e-10
194	0x2c76705c	3.5021075e-12
195	0x34b46c10	3.3606239e-07
196	0x30c63e52	1.4424109e-09
197	0x3106f6a2	1.963976e-09
198	0x310e643b	2.0720694e-09
199	0x2cdd1156	6.2831225e-12
200	0x35569ed4	7.995234e-07
201	0x359a6326	1.150275e-06
202	0x35356128	6.7569135e-07
203	0x34b8a2ac	3.439103e-07
204	0x3401fb28	1.2105431e-07
205	0x318c92af	4.0912123e-09
206	0x34e8fda3	4.3397912e-07
207	0x349a98de	2.879596e-07
208	0x35162de5	5.594614e-07
209	0x34d2968a	3.922508e-07
210	0x325ad7a8	1.2738305e-08
211	0x308290d7	9.499911e-10
212	0x34d29473	3.922356e-07
213	0x34623ac4	2.1069269e-07
214	0x3493a84c	2.7503336e-07
215	0x346861b3	2.1642226e-07
216	0x30914e4a	1.057239e-09
217	0x308b027a	1.0114285e-09
218	0x34737ec6	2.2677258e-07
219	0x309d06ed	1.1425222e-09
220	0x30a8867b	1.226183e-09
221	0x2b8ceba9	1.0013007e-12
222	0x2def9f42	2.7241879e-11
223	0x35927336	1.0911378e-06
224	0x356013f6	8.347555e-07
225	0x35575985	8.022401e-07
226	0x34b3ad72	3.3467546e-07
227	0x33aac743	7.9524874e-08
228	0x31e0fdea	6.5481247e-09
229	0x34b7c18b	3.4227227e-07
230	0x350102ef	4.8060514e-07
231	0x359012b5	1.073428e-06
232	0x353eaf1f	7.103535e-07
233	0x32817b9c	1.5073788e-08
234	0x2fc4e430	3.581433e-10
235	0x3542e25b	7.260002e-07
236	0x34f78f9e	4.611183e-07
237	0x351cbb0c	5.838672e-07
238	0x3503dbc4	4.9121104e-07
239	0x31bdd06a	5.524318e-09
240	0x2ec06714	8.7494595e-11
241	0x350584dc	4.9739697e-07
242	0x3225cc02	9.65065e-09
243	0x30e2795d	1.6478158e-09
244	0x2f3ff060	1.7456747e-10
245	0x2db07bb7	2.0063824e-11
246	0x35a81881	1.2524107e-06
247	0x359a9640	1.1517623e-06
248	0x353313e1	6.6711624e-07
249	0x351110e7	5.4041305e-07
250	0x340d48f2	1.3158186e-07
251	0x320e7452	8.291936e-09
252	0x3532b721	6.6576655e-07
253	0x339797df	7.0591106e-08
254	0x341b3517	1.4454814e-07
255	0x3409ac52	1.2821809e-07

exp_avg f4 [100]
0	0x3b367c9c	0.002784527
1	0x3719f600	9.176787e-06
2	0x3815e911	3.574143e-05
3	0xba13113a	-0.0005610172
4	0x39550c07	0.00020317743
5	0x3ae496e6	0.0017439991
6	0x3aa80d6d	0.0012821384
7	0xb8b132d8	-8.449488e-05
8	0x3b2fa1c9	0.0026799312
9	0x3b340d40	0.0027473718
10	0xb9c7b78d	-0.00038092994
11	0x371b9eca	9.275691e-06
12	0xb7f12054	-2.8744493e-05
13	0xba4af150	-0.0007741647
14	0x3a5f7f9d	0.0008525791
15	0x307d10ee	9.206492e-10
16	0x3b1cce44	0.0023926655
17	0x3a33b643	0.0006855467
18	0x3a4e7e8f	0.0007877135
19	0x39a73555	0.00031892458
20	0x3b87eea1	0.00414832
21	0xbac60f64	-0.0015110788
22	0xb9ce02f2	-0.00039293576
23	0xba99ec91	-0.0011743476
24	0xb910d3bf	-0.00013811792
25	0x3a6b074a	0.0008965625
26	0x3b5d81ee	0.0033799368
27	0xb80ff437	-3.43213e-05
28	0x3a50c74a	0.00079642667
29	0xb848a8b1	-4.7840822e-05
30	0x3a3a0820	0.00070965476
31	0xb9d4d88d	-0.00040597134
32	0xba994c71	-0.0011695755
33	0x3a1a1dfa	0.00058791006
34	0x3ab48472	0.0013772382
35	0x3b0348c3	0.0020032383
36	0xb8ef366a	-0.000114065435
37	0xbb2c0a23	-0.002625116
38	0x39eab4d4	0.00044766685
39	0x3aac8aa8	0.0013163881
40	0xb8bf55f0	-9.123597e-05
41	0xb918b96a	-0.00014564922
42	0x3b30a12c	0.0026951535
43	0xba65fa68	-0.000877297
44	0xb735e048	-1.084066e-05
45	0xb91c1cd5	-0.0001488806
46	0xb8b717ea	-8.730574e-05
47	0x3aceb81c	0.0015771422
48	0xb7c804b0	-2.384404e-05
49	0x3aa5a180	0.0012636632
50	0xba058cbe	-0.00050945196
51	0x379178c0	1.7341576e-05
52	0xbabea0a0	-0.001454372
53	0x3921cda3	0.00015430762
54	0xb89c38be	-7.449229e-05
55	0xb9cf7d9a	-0.00039575697
56	0x3ae88973	0.0017741158
57	0xba2c24d9	-0.000656677
58	0x3b12b05f	0.0022382957
59	0xb43b18d0	-1.7424759e-07
60	0xb9014e94	-0.00012331671
61	0xbb594a2a	-0.0033155777
62	0xbb037a85	-0.002006204
63	0xb9d73328	-0.0004104611
64	0xba959dce	-0.0011414827
65	0xb81cf0a0	-3.7417398e-05
66	0xbae8ace0	-0.0017751716
67	0xbb12194e	-0.0022292915
68	0x3aaca5b8	0.0013171947
69	0x3a89de1b	0.0010518463
70	0xbaad7158	-0.0013232632
71	0xba1e9d6a	-0.0006050678
72	0x3b769f60	0.0037631616
73	0x3908e1d0	0.00013054092
74	0xb8e3d37a	-0.00010863594
75	0x3ad7eb83	0.0016473386
76	0xbb8f52ad	-0.0043738694
77	0x383577bf	4.3265285e-05
78	0x3a5c48db	0.00084031903
79	0x39bc3e39	0.00035904514
80	0xba928218	-0.0011177687
81	0xb78798a0	-1.6164326e-05
82	0x391d5a28	0.00015006273
83	0xba34d8cd	-0.0006898761
84	0xbaebd9a0	-0.0017993934
85	0x3a19f5ac	0.0005873095
86	0x38dde536	0.00010580795
87	0xba19c04b	-0.00058651407
88	0x3a6d6fb9	0.00090574805
89	0x39f28103	0.00046253958
90	0x36241732	2.4451406e-06
91	0x38b4496c	8.596745e-05
92	0x3a9cd73b	0.0011965999
93	0xb736a951	-1.0887467e-05
94	0xb40c30bb	-1.3056244e-07
95	0x38b53aac	8.641681e-05
96	0xbb59ab5b	-0.0033213708
97	0xb9416060	-0.00018441817
98	0x3b2a51e9	0.0025988764
99	0xbac022c9	-0.0014658804

exp_avg_sq f4 [100]
0	0x36405f98	2.8665872e-06
1	0x3320ee3b	3.7469572e-08
2	0x30fc9a90	1.8379342e-09
3	0x3613ddb6	2.203376e-06
4	0x34d5a1ae	3.979198e-07
5	0x35f9b302	1.8604044e-06
6	0x350383c9	4.8993076e-07
7	0x35a9ada1	1.2642014e-06
8	0x366306da	3.3829624e-06
9	0x3624a066	2.4531269e-06
10	0x369ca20e	4.668028e-06
11	0x34a998d2	3.1589894e-07
12	0x30d0409e	1.5152357e-09
13	0x36b5aca6	5.4143193e-06
14	0x361eb46c	2.3648854e-06
15	0x2dc30084	2.2169162e-11
16	0x3698faf3	4.5591673e-06
17	0x35d5532a	1.5893941e-06
18	0x34e64d5c	4.2897125e-07
19	0x33f1a1fa	1.12519004e-07
20	0x3633f41c	2.681517e-06
21	0x35fe1801	1.8931461e-06
22	0x34d51d8a	3.9695834e-07
23	0x363b38d3	2.7898247e-06
24	0x358c512a	1.0454435e-06
25	0x363d9b11	2.8253455e-06
26	0x3673715b	3.6275803e-06
27	0x3221f077	9.426109e-09
28	0x36577e2e	3.2110943e-06
29	0x312734d2	2.4331723e-09
30	0x35b3f564	1.3407957e-06
31	0x34cffa25	3.873876e-07
32	0x34ba60fd	3.4715768e-07
33	0x36089b04	2.035581e-06
34	0x364536c9	2.9387177e-06
35	0x364689b9	2.9584464e-06
36	0x3580cd3e	9.596477e-07
37	0x3686dc52	4.01916e-06
38	0x368546f4	3.971969e-06
39	0x35c0b726	1.4358418e-06
40	0x3631ca52	2.6492821e-06
41	0x363c3604	2.8045624e-06
42	0x363b15b8	2.7877813e-06
43	0x3608c2bb	2.0378927e-06
44	0x304bf6ec	7.4201867e-10
45	0x32e587f3	2.6720931e-08
46	0x31999d47	4.4707664e-09
47	0x362aa3ba	2.5427275e-06
48	0x34f8eac5	4.6364417e-07
49	0x3590ba4b	1.0783054e-06
50	0x3567292c	8.611412e-07
51	0x3607c89c	2.0233338e-06
52	0x36a47adc	4.9018836e-06
53	0x356b8ad8	8.7746366e-07
54	0x3547a9e0	7.438048e-07
55	0x364099ff	2.8699867e-06
56	0x35c3adda	1.457923e-06
57	0x352be7f7	6.404002e-07
58	0x36db2e33	6.532087e-06
59	0x2f3f7941	1.7414427e-10
60	0x35d35cfc	1.5747787e-06
61	0x362ce3f9	2.5762695e-06
62	0x361f389c	2.3725797e-06
63	0x35899737	1.0251305e-06
64	0x353d1769	7.0442053e-07
65	0x3103c4e0	1.917492e-09
66	0x34ae99c3	3.2521902e-07
67	0x36b08b53	5.261428e-06
68	0x361a8975	2.3027799e-06
69	0x35c9e376	1.5041867e-06
70	0x34cdd9ea	3.834278e-07
71	0x3634b40c	2.6926891e-06
72	0x3658f3be	3.2328385e-06
73	0x36a04456	4.776327e-06
74	0x322e40f8	1.0142905e-08
75	0x35515cfc	7.799388e-07
76	0x36899abf	4.100933e-06
77	0x3600d0ad	1.9194952e-06
78	0x3623c333	2.4402514e-06
79	0x35a51e6d	1.2302313e-06
80	0x3672d20b	3.6183071e-06
81	0x349d7f2c	2.9336059e-07
82	0x36226c95	2.4203084e-06
83	0x35ba539c	1.3882413e-06
84	0x36689ad6	3.466082e-06
85	0x35f6a48f	1.8376321e-06
86	0x35dc05f4	1.639301e-06
87	0x35008533	4.7877546e-07
88	0x3657a528	3.213363e-06
89	0x358caf89	1.04819e-06
90	0x2fc290ff	3.539142e-10
91	0x35f3574e	1.813032e-06
92	0x35aa46b0	1.268656e-06
93	0x304c832d	7.440118e-10
94	0x2eac12f4	7.825021e-11
95	0x3310373c	3.3577848e-08
96	0x369e1fb2	4.7124568e-06
97	0x34beff58	3.5576045e-07
98	0x365552b5	3.1787615e-06
99	0x35b75aff	1.3661046e-06

exp_avg f4 [4, 100]
0	0x3be26b8a	0.0069097923
1	0xb7012937	-7.698595e-06
2	0xb33eda1b	-4.4436188e-08
3	0x3bae1df1	0.005313628
4	0xb92dea9a	-0.00016585962
5	0xb9ab4455	-0.00032666573
6	0xb923b940	-0.00015613902
7	0xba3e0c99	-0.0007249802
8	0x3999ac02	0.0002931059
9	0x3ad9d366	0.0016618788
10	0xba15fdc4	-0.0005721713
11	0xbace3a22	-0.0015733878
12	0xb04b41ae	-7.3944306e-10
13	0xba7a743b	-0.0009554063
14	0xbab714ce	-0.0013967992
15	0x312016b4	2.329597e-09
16	0x3c0e4bb1	0.008685038
17	0x3b40dd32	0.0029428718
18	0xb983e681	-0.00025158006
19	0x3ad4b27d	0.001622751
20	0xb8413b5e	-4.6070076e-05
21	0xba7e2fca	-0.0009696452
22	0xb928c3fd	-0.0001609474
23	0xbb2c9496	-0.0026333681
24	0xbae5f004	-0.0017542844
25	0xbaa9c568	-0.0012952508
26	0x3b4333ec	0.0029785587
27	0xb74d7e90	-1.224842e-05
28	0x3b6bbcce	0.003597069
29	0xb075f40e	-8.9477303e-10
30	0xba6c1085	-0.0009005147
31	0xba2f3ad2	-0.0006684485
32	0x3a05133a	0.00050764123
33	0xbaa9b348	-0.0012947107
34	0x3b26081e	0.0025334428
35	0x3aa5d997	0.0012653348
36	0x3b30b71c	0.002696461
37	0xbafa3170	-0.001908822
38	0xba3585aa	-0.00069245195
39	0x3abae96d	0.001426024
40	0x3b01c8a6	0.0019803434
41	0x396833aa	0.0002214449
42	0x39db5dae	0.00041840732
43	0xbb13546d	-0.0022480742
44	0xb2b8c4fa	-2.1509994e-08
45	0xb70935d6	-8.178371e-06
46	0x3790563c	1.7206294e-05
47	0xba3fc6c8	-0.00073156925
48	0xb957595c	-0.00020537287
49	0xba5aeb0f	-0.00083510665
50	0x3929b63f	0.00016184988
51	0x3b70015c	0.0036621904
52	0x3ba3a092	0.0049935067
53	0x3a3ce8fe	0.00072063494
54	0xb8497367	-4.802961e-05
55	0xb970e3ed	-0.00022973093
56	0x3afaf668	0.0019146921
57	0xbb07fc70	-0.002074983
58	0x3b53918a	0.0032282793
59	0x35307d04	6.574703e-07
60	0xbac02c7d	-0.0014661696
61	0xbb63e2d2	-0.0034772647
62	0xbb03ac64	-0.0020091766
63	0xb9ccb532	-0.00039044913
64	0xbab52066	-0.001381886
65	0x329d1928	1.8288645e-08
66	0xba046449	-0.0005050344
67	0xba05fad5	-0.0005110924
68	0xbac4533c	-0.0014978419
69	0xb71dbd00	-9.401934e-06
70	0x38e25e8e	0.00010794132
71	0xbaa9e62a	-0.0012962271
72	0x3aeec58c	0.0018216833
73	0xbaec6579	-0.0018035612
74	0xb7245916	-9.795904e-06
75	0x39c2fb48	0.00037189783
76	0x3b860032	0.0040893788
77	0xba4c3f4c	-0.00077914144
78	0x3a7a3182	0.00095441204
79	0xba7c72b9	-0.0009630132
80	0xba82a169	-0.0009966317
81	0xb9e86a12	-0.00044329517
82	0x38ea4de2	0.00011172496
83	0x388c1dfc	6.681305e-05
84	0xbac75c1b	-0.0015209945
85	0x3b2e8407	0.0026628987
86	0x3b8a26e4	0.004216062
87	0xba7dc6f1	-0.00096808287
88	0x3a232ef9	0.0006224956
89	0x3a5e3dde	0.0008477847
90	0xb2aeff25	-2.0372292e-08
91	0x3b304f2a	0.0026902654
92	0xba84a884	-0.0010121022
93	0xb008d8c9	-4.978458e-10
94	0x2fd5723c	3.8825643e-10
95	0x3a14dd26	0.00056787056
96	0xbaab302b	-0.001306062
97	0xb924038e	-0.00015641583
98	0x3bcfd5d1	0.0063426276
99	0xbb0659bb	-0.002050026
100	0xba3cd60d	-0.0007203527
101	0xb80301b6	-3.1234427e-05
102	0xb0b006ed	-1.2807654e-09
103	0xba848713	-0.0010111056
104	0xb503f526	-4.915804e-07
105	0xb9dd8d38	-0.0004225762
106	0xb93da27d	-0.00018084976
107	0x399647f7	0.00028663847
108	0x396e5af0	0.00022731326
109	0xba7b4858	-0.000958567
110	0xba5f9bc8	-0.0008529988
111	0x3a006085	0.0004897195
112	0xaee6bfa3	-1.04932306e-10
113	0xb9e0c49a	-0.0004287109
114	0xbae378ce	-0.0017354728
115	0xb4e4852c	-4.2565205e-07
116	0xbb0fae10	-0.0021923818
117	0xb93d45fd	-0.00018050517
118	0xb90d9f7e	-0.00013506223
119	0xbaacf0ef	-0.0013194362
120	0x395a53da	0.00020821337
121	0xb98bea16	-0.00026686554
122	0x39d8a024	0.00041318045
123	0xba02f160	-0.0004995074
124	0xb9d613d3	-0.0004083203
125	0xba945e6b	-0.0011319643
126	0xbaa4de6b	-0.0012578493
127	0x37e2d649	2.7041084e-05
128	0xba3f8bab	-0.0007306884
129	0xacbe5c00	-5.410339e-12
130	0x39ae845b	0.0003328648
131	0x39320d4c	0.00016980356
132	0x3a39a952	0.00070824206
133	0xb983ce67	-0.0002514005
134	0xb9f69679	-0.00047032887
135	0x39175f31	0.00014435944
136	0xba333237	-0.00068357907
137	0xb9b667b2	-0.00034791004
138	0x3843e8e8	4.6708534e-05
139	0xbb425c4e	-0.0029657069
140	0xbb03afb7	-0.0020093748
141	0x3acbae24	0.0015539569
142	0xbb075039	-0.0020647182
143	0x3a26ad02	0.00063581776
144	0xb5ce65ab	-1.5377785e-06
145	0xb67f82b7	-3.8074047e-06
146	0xb7c5d2f1	-2.3582457e-05
147	0x39f80b0a	0.0004731047
148	0x3a15870c	0.00057040225
149	0x3aad9670	0.0013243686
150	0x3a484fb2	0.000764127
151	0x38f681a4	0.000117543415
152	0xba78aed2	-0.00094864995
153	0xba12d47f	-0.00056011224
154	0x383cc0a3	4.50021e-05
155	0x3acf1e65	0.0015801905
156	0xba261f2a	-0.0006337041
157	0x3b1eaeb2	0.0024213013
158	0xb9dc5d1b	-0.0004203104
159	0xae8e71b9	-6.4776136e-11
160	0x3b1d5da0	0.0024012104
161	0xbad1be8a	-0.001600222
162	0xbad32c34	-0.0016111196
163	0xb8994b10	-7.30959e-05
164	0xbae9f2d2	-0.0017848855
165	0xb536eb00	-6.8142253e-07
166	0xb810f879	-3.4563684e-05
167	0xb93fa04a	-0.00018274892
168	0xbab8f92a	-0.0014112343
169	0x3a2f9c31	0.00066989945
170	0xbaa0812d	-0.0012245529
171	0xbae9774a	-0.001781204
172	0x3b0ba4d4	0.0021307962
173	0x39f32a7e	0.0004638023
174	0x36f9629d	7.4322584e-06
175	0x39ce7637	0.0003937946
176	0xbb1212a9	-0.0022288954
177	0x3b0f572f	0.0021872034
178	0x3a617c35	0.0008601577
179	0xbaa354a3	-0.0012461137
180	0x3a49fa53	0.0007704843
181	0x3a99fb84	0.0011747931
182	0x3ac1a9cc	0.0014775335
183	0xb9e4dab5	-0.00043650498
184	0xba206837	-0.0006119045
185	0x3a3c5a39	0.0007185075
186	0xb8e7ef12	-0.00011059469
187	0xbb290d5a	-0.0025795312
188	0xb9a853b2	-0.00032105815
189	0x3a1cc430	0.0005980162
190	0x3379d261	5.816617e-08
191	0xbb86516a	-0.004099061
192	0x38841322	6.297814e-05
193	0x35dc745f	1.6425146e-06
194	0x343375cb	1.6713527e-07
195	0xba5f0a1e	-0.00085082825
196	0x3af315fb	0.0018545979
197	0x3a8ba75c	0.0010654735
198	0xbb638dc9	-0.0034721962
199	0x38dff252	0.00010678604
200	0xbb2b9c38	-0.0026185643
201	0xb82b3560	-4.0819286e-05
202	0x31b2e7ac	5.20682e-09
203	0xbb36c2f7	-0.0027887204
204	0xb8d4db77	-0.00010149826
205	0x3abbe6f0	0.0014335793
206	0x3a38652c	0.0007034119
207	0xbac342a3	-0.0014897179
208	0x3b4cbb09	0.0031239411
209	0x3ac59ad1	0.0015076046
210	0xb9f8724d	-0.00047387407
211	0x39cc07da	0.00038915762
212	0x356b2c4e	8.7608794e-07
213	0xba88a4a3	-0.0010425042
214	0xba4297ec	-0.0007423151
215	0x2fe1100a	4.0938658e-10
216	0xbb6e20ff	-0.0036335585
217	0x3a4b66ca	0.0007759152
218	0x3b18642f	0.0023253073
219	0xba1fbaaa	-0.0006093184
220	0x3b00c85e	0.0019650678
221	0xbac6ad54	-0.0015157857
222	0xbab851c4	-0.0014062454
223	0xba7c41a6	-0.00096228195
224	0x3af36bf0	0.0018571597
225	0x3b7b809e	0.0038376222
226	0x3a758e37	0.00093672
227	0x371a1020	9.18287e-06
228	0xba904264	-0.0011006114
229	0xb1baae50	-5.4331295e-09
230	0x37f9d2b4	2.978123e-05
231	0xba61c1af	-0.000861193
232	0xbacd565d	-0.0015665997
233	0x3a90d01b	0.0011048348
234	0x3b0ecced	0.0021789626
235	0x3a6d22bc	0.00090460083
236	0x3ad10a60	0.0015948527
237	0xbac4dc14	-0.0015019202
238	0x3a9629b1	0.0011456517
239	0x398a1252	0.0002633506
240	0xbb2030d4	-0.0024443166
241	0xba30ea4c	-0.000674878
242	0x3ac99f34	0.0015382529
243	0x3b40b0de	0.0029402296
244	0x3051009e	7.6034634e-10
245	0x3706d307	8.036156e-06
246	0x3675cf64	3.6628562e-06
247	0x3a7a69e8	0.00095525244
248	0xbb82e67c	-0.003994761
249	0x3ae7d136	0.0017686251
250	0xb8c3ae7c	-9.330825e-05
251	0xbb6c2853	-0.0036034777
252	0xbb815938	-0.0039474033
253	0x3adefeb2	0.0017013161
254	0x37ef778d	2.854669e-05
255	0xbb074d9c	-0.0020645624
