depression (timeseries)/best_skintemp.pt (torch_old, 35689 bytes, 12 tensors)

fc1.weight f4 [100, 23]
000000 fc 3d 3b 3e 9d 51 37 3e 7d a9 0e bd f0 77 fa 3d
       0.18285364 0.17902227 -0.034829605 0.122299075
000010 c3 e5 ba 3d d0 5e 6f 3d 1b cb b3 3d 77 45 ee 3d
       0.09125855 0.05844003 0.08778974 0.11634343
000020 77 1b 44 be 63 55 10 be 0e 90 38 3e 42 a3 b6 3d
       -0.19151102 -0.14095072 0.18023703 0.08917858
000030 56 c1 39 bd ce e5 0c be 13 9e 0d bc ac b6 a7 bd
       -0.045350395 -0.13759539 -0.008643645 -0.08189139
000040 49 8c b0 3c d9 c9 19 be 5f 68 03 be cd a4 80 3d
       0.021551268 -0.15018405 -0.12832783 0.06281433
000050 b6 62 69 3d 10 20 b3 bd 80 5b 55 3e d4 93 d8 bd
       0.056978904 -0.0874635 0.20835686 -0.10575071
000060 39 75 09 3e 71 6b ba bd 52 44 bd 3c d6 b1 01 3e
       0.13423623 -0.09102524 0.023103867 0.12665495
000070 2b 57 8c bd 7e 29 73 3d 31 f3 0c 3e b0 1c ac bb
       -0.068525635 0.059365742 0.13764645 -0.0052524433
000080 b2 b7 72 3d 94 76 2b 3e f3 f8 80 3d d1 7a 26 bd
       0.059257217 0.16744453 0.06297483 -0.04064447
000090 b6 9b 22 3e 33 fb 87 bd 9a 11 09 3d ed b4 eb 3c
       0.15879712 -0.06639709 0.03346405 0.028772796
0000a0 14 31 97 3d 82 a4 20 be c0 db a0 bd 49 1d 15 3e
       0.07382408 -0.15687755 -0.07854414 0.14561953
0000b0 e2 da 58 3d 3b d3 f5 bc 78 2a 0d 3d e0 fa 04 3e
       0.052943118 -0.03000795 0.03446433 0.12986326
0000c0 9c cc 00 3e a1 83 83 bc 5a 9c 22 be d2 cf 0f be
       0.12578052 -0.016053976 -0.15879956 -0.14044121
0000d0 f4 44 2e 3e 6a 22 12 3e a8 96 a1 3d 1f bc 2d 3d
       0.17018491 0.1427094 0.078900635 0.042415734
0000e0 9f c3 37 3d 74 cf 9a 3d df cc 47 bc b4 a4 47 bd
       0.044864293 0.075591 -0.012194841 -0.048741058
0000f0 be 01 1b 3e 7d 67 d6 3d 40 5b 80 3d a3 18 3a 3d
       0.15137383 0.104689576 0.062674046 0.04543365
000100 5b e4 2f be 6a fb 47 be ac 1f 83 bd df 06 33 3c
       -0.17176954 -0.195295 -0.06402525 0.010926931
000110 d4 a9 21 3e 14 c3 2d 3e be 87 92 3d ff db cf 3d
       0.1578744 0.16968948 0.07154797 0.10149383
000120 11 aa 81 bd 27 04 92 3b 06 2b 35 3d 98 ae b7 3b
       -0.06331266 0.0044560614 0.044230483 0.00560553
000130 86 3d 2f 3e 7a a1 f5 bd 8e f4 d1 bd 5a fc 19 3e
       0.17113313 -0.1199369 -0.10251723 0.1503767
000140 53 bf de bd c0 75 92 bc 5c c2 67 3d 46 20 0a 3e
       -0.10876336 -0.017878413 0.05658184 0.13488874
000150 03 04 46 bd 42 1b 07 bd b2 19 51 bc c4 83 90 3d
       -0.04834367 -0.03298498 -0.012762474 0.07056382
000160 4a d0 13 3e 0b df 28 be 89 4c f8 bd 5e ac b3 3c
       0.14434925 -0.16491334 -0.12123973 0.021932777
000170 b7 7b b8 bd ed bb d2 3d 74 69 e1 3d ff f9 23 3e
       -0.09007972 0.1028975 0.11006442 0.16013335
000180 b8 6b da bc 9f be 35 3d 47 7e ae 3d 58 a9 f9 bd
       -0.026662692 0.044371244 0.08520179 -0.12190503
000190 c6 bd 3e 3d 79 47 1e be 88 14 95 3d d7 2e 18 3e
       0.0465677 -0.15456952 0.07279307 0.14861618
0001a0 a1 21 bf bd f2 3f 8a bc 41 d1 8c 3b ac d4 09 3d
       -0.09332586 -0.016876195 0.004297406 0.033650085
0001b0 e7 b0 10 bc fd 8b c9 3d 5a d1 25 bc 04 c3 70 bd
       -0.008831239 0.09841154 -0.010120714 -0.05877973
0001c0 7c 1d 2a 3e 3f c3 fd 3d a9 eb 26 3e 2e b1 1f 3d
       0.1661281 0.12390756 0.16300835 0.03898733
0001d0 66 8f 4d 3d 30 97 55 3c dc 43 28 3e 68 bf c3 bc
       0.050185584 0.013036534 0.16432136 -0.02389498
0001e0 ec 25 ca 3d d2 b5 a0 3c 82 60 63 be 90 d9 c7 bd
       0.09870514 0.019617949 -0.22204784 -0.09758294
0001f0 10 0c 6c 3d d3 73 ce 3d 3f 70 96 bd 68 ec b6 3d
       0.05762869 0.100806855 -0.07345628 0.0893181
000200 07 23 a3 3d 9d a8 35 bc 79 ea ef bd 10 d6 b7 bd
       0.07965665 -0.011087564 -0.11714644 -0.08976376
000210 73 75 00 3e 2d 07 c0 bc ed 43 0f 3e e2 38 c6 3d
       0.12544803 -0.023440922 0.13990755 0.09678818
000220 42 7f 24 be 9b e8 22 3c 6a fb 0e be 18 f2 3f be
       -0.1606417 0.009943153 -0.13963094 -0.18744695
000230 bc 49 08 be 72 d7 24 3e 23 4e 23 bd 49 77 33 be
       -0.13309377 0.16097811 -0.03986944 -0.17525972
000240 b0 6f 11 3e 61 a7 40 be e5 ab 25 3e fd 29 89 3d
       0.14202762 -0.1881385 0.16178854 0.06697462
000250 bd 63 22 be 66 37 fe 3d ee 17 0e 3e c7 71 b0 bc
       -0.1585836 0.1241291 0.13876316 -0.021538628
000260 0d c3 d3 3a 65 72 c9 bd 4f 51 0f 3d f1 c9 9d 3d
       0.0016156152 -0.09836272 0.03498965 0.07704533
000270 52 bd fa 3c 75 c5 e6 3d 58 df 21 be e7 b9 a7 3d
       0.030607853 0.11268131 -0.15807855 0.08189755
000280 b9 0b d9 bd 90 73 d2 bd 0b 10 4d bd a9 b2 91 3d
       -0.10597939 -0.10275948 -0.050064128 0.07114155
000290 8e 50 b0 bc 59 fb af ba 39 65 2c 3e 35 34 ac 3d
       -0.021522786 -0.0013426348 0.16835488 0.08408395
0002a0 fa 48 85 bd 78 69 84 3d be 3a 82 3d 62 99 91 3d
       -0.0650806 0.06465429 0.063588604 0.071093336
0002b0 f9 bb 16 3d a2 e7 19 3e 26 7d e0 3d e4 77 b8 bb
       0.03680036 0.15029767 0.1096137 -0.0056295265
0002c0 a0 76 98 3d 31 12 30 be db 15 3d 3d be 67 c2 bd
       0.07444501 -0.1719444 0.04616342 -0.094924435
0002d0 a9 45 9b 3d c4 b4 b7 bd 85 30 41 bd c1 3a 25 bd
       0.07581646 -0.08970025 -0.047165412 -0.040339235
0002e0 37 c0 16 3e 7e 6a 0c be 8a 88 a2 3d 04 ff 25 be
       0.14721762 -0.13712499 0.07936199 -0.16210562
0002f0 2b 5c 02 3e ef b3 4d 3d bc b4 05 be f5 8a 04 bd
       0.12730472 0.050220426 -0.13057226 -0.032359082
000300 ab df b1 3d b9 8d 17 3e 09 e2 9b 3d b5 64 fa bd
       0.086852394 0.14800157 0.07611472 -0.122262396
000310 ab 31 07 bd da 03 15 3e e2 38 6b 3d 2c d1 f6 3d
       -0.03300635 0.1455225 0.057427295 0.12051615
000320 ba 1c 8b bc d5 9b 26 be a7 24 e3 bd cd 58 0e 3c
       -0.016981471 -0.16270383 -0.11090975 0.008688164
000330 a7 78 9f bd 1a 53 cd 3d 79 5d a6 bc 36 3b 7e bd
       -0.077866845 0.10025616 -0.020308243 -0.062068187
000340 3e a7 1e 3e b8 0f d5 bd 67 b8 0a 3e d5 1d 25 3e
       0.15493485 -0.10403389 0.13546906 0.16124661
000350 04 80 a2 3d e6 8a 92 3d 92 d0 52 ba 4e 72 05 be
       0.07934573 0.07155399 -0.00080419437 -0.13031885
000360 91 54 34 3e 02 2d 25 3e 8f bf 12 be 0e de 9d 3b
       0.17610385 0.1613045 -0.14330886 0.0048177307
000370 a4 64 be 3d 62 d0 f8 3d d5 b7 69 3d c7 38 45 3e
       0.092965394 0.12149121 0.05706008 0.1925994
000380 e4 cc 63 3d f9 dd fc bd db 1b b5 3d 7e 04 73 bd
       0.05561532 -0.123470254 0.08843204 -0.059330456
000390 ac ff 95 3c a5 d1 f8 3d 5c 9d c2 bd c2 3e bb bd
       0.01831039 0.121493615 -0.0950267 -0.091428295
0003a0 32 21 55 39 c6 f7 cf 3d 28 6c b2 bd c8 18 f9 3a
       0.00020325629 0.10154681 -0.087120354 0.0019004578
0003b0 1c a1 1a bd 20 34 a8 bd d9 54 77 bd c2 2f 8f b9
       -0.037751302 -0.08213067 -0.06038365 -0.00027310668
0003c0 aa 4b 5f bd 5e c1 65 3d b5 5f c5 bd 44 0b e3 bc
       -0.05451552 0.056092612 -0.09637395 -0.027715333
0003d0 ae 7d 9b 3d 62 19 b0 3d 7a 0e 0a be b5 6d c7 3b
       0.07592331 0.085985914 -0.13482085 0.006086076
0003e0 0c dd 88 3b 2c 3f 80 bd c2 94 14 3e ae 5e 22 3e
       0.0041767415 -0.06262049 0.14509872 0.1585643
0003f0 eb cd f4 3d 04 39 07 be bb eb 80 3b 98 e1 2f be
       0.11953338 -0.13205343 0.0039343513 -0.17175901

fc1.bias f4 [100]
000000 95 48 c5 bd a3 38 01 be 0c cd f4 3d cc d3 ee bc
       -0.096329845 -0.12619261 0.11953172 -0.029153727
000010 e0 54 c5 3d 9c ed 3e be 0a 96 96 bd fd 8a 2f be
       0.09635329 -0.18645328 -0.073528364 -0.17142864
000020 0f 0c e5 bd 7a 8a a8 bb 6e 18 ab bd 34 2e 55 3d
       -0.111839406 -0.005143461 -0.08354269 0.052046016
000030 c7 cc 88 bc d3 a8 cb bd c8 22 03 be b2 f9 0a be
       -0.016699208 -0.0994431 -0.12806237 -0.13571814
000040 b8 56 dd 3d b3 0b 79 3e 75 17 03 3d c2 2f 94 3c
       0.10807556 0.24320869 0.032004792 0.018089179
000050 2e 60 c7 bd b9 a8 1b be be ac 1e 3e c9 d5 e8 3d
       -0.09735142 -0.15201081 0.15495583 0.11368901
000060 2c e6 c3 3d 6a b5 ed 3c 49 14 5a 3e 09 db 6b 3d
       0.09565386 0.029017169 0.212968 0.057581935
000070 03 31 5e be 0f 9b 65 bd 2d 56 59 3d 58 1f 06 3e
       -0.21698384 -0.05605608 0.0530607 0.13097894
000080 3e 05 3e be ed 41 12 be 17 48 24 3e f3 1f f6 3d
       -0.18556687 -0.14282961 0.16043125 0.120178126
000090 31 6f 57 3e 95 8c 09 be d4 cc 1a be 37 a7 1b 3c
       0.2103851 -0.13432534 -0.15117198 0.009500316
0000a0 d7 f5 01 3e 47 b9 31 be f9 07 21 be 40 70 a9 bd
       0.12691437 -0.17355834 -0.15725698 -0.08273363
0000b0 f7 7f 80 bc 8b 34 ca 3d e8 42 98 3d b9 18 9b 3d
       -0.015686018 0.09873303 0.07434636 0.07573075
0000c0 e9 9e e4 3d 5e db 29 3e 02 d4 11 3e 08 15 e8 bd
       0.11163122 0.16587588 0.14241031 -0.113321364
0000d0 44 4e ca 3c 56 45 fe 3d 68 62 35 3e 27 65 98 bd
       0.024695523 0.124155685 0.1771332 -0.07441168
0000e0 1d 41 32 bb 7f d8 7e bd 25 1b 92 bc f6 28 be 3d
       -0.0027199455 -0.062218186 -0.01783521 0.092851564
0000f0 c0 1f 3c 3e 9a 21 18 3e 13 dc 06 3c 84 5b 61 3d
       0.18371487 0.14856568 0.008231181 0.055018917
000100 09 5a 33 3e 6b ba bd 3d 3d 49 e0 3d e2 97 fb bc
       0.17514814 0.09264072 0.10951469 -0.030712072
000110 77 6e d1 3d 1d 4d d0 bc 94 20 bd bd b8 11 34 3e
       0.102261476 -0.025427395 -0.092347294 0.17584884
000120 40 eb 5c bb 2c d3 27 3e 5f 37 14 be 0c 66 a3 bb
       -0.0033709556 0.1638915 -0.14474247 -0.00498653
000130 6f 7b e2 bd 05 cc 17 3e c6 d3 b3 3d 5e ab 8b bc
       -0.11058699 0.14823921 0.08780627 -0.017049488
000140 a3 e5 85 3d 03 7e 35 be f4 0b 42 3e ef 58 c5 bd
       0.0653794 -0.17723851 0.18949872 -0.09636103
000150 bc e5 13 be 35 39 d6 39 54 26 ce bb c8 46 a2 38
       -0.14443105 0.00040859883 -0.00629119 7.737946e-05
000160 e4 0d 09 3e b0 7b 10 3e e6 dc ff 3a 63 01 b6 3d
       0.13384205 0.14109683 0.0019520789 0.08886983
000170 26 80 11 3e cb 21 fd bc 34 a4 28 3e 36 c1 c0 bd
       0.14209041 -0.030899903 0.16468889 -0.09411852
000180 83 b9 8d 3c ef 13 b1 3d e2 f7 8b 3d fa 77 dd bc
       0.017300373 0.0864638 0.06834389 -0.027034748

fc2.weight f4 [4, 100]
000000 c8 d8 a1 ba 00 3c 86 3c 87 05 3a bd 1a 6f 50 bd
       -0.0012347931 0.016386032 -0.045415428 -0.050887205
000010 c4 f8 ba bc 2c d7 83 3d 37 16 a7 bd ec 2e 48 3d
       -0.022823699 0.06437525 -0.08158534 0.048872873
000020 8a de cc 3c d9 ce 62 bc bd d9 d7 ba 1e 58 dc bd
       0.025008459 -0.013843262 -0.0016468089 -0.107589945
000030 15 a8 ad 3c 48 ef f8 ba a0 46 0e 3d ad bb b6 ba
       0.021198312 -0.001899221 0.034735322 -0.001394143
000040 c3 25 b9 3c 4b ea 8f 3d 42 60 43 3b f0 7a 02 be
       0.022601014 0.0702711 0.0029812013 -0.1274221
000050 46 ec d3 bc 58 17 b0 39 30 bd 89 3b a7 89 a8 3d
       -0.0258695 0.00033586728 0.004203461 0.0822938
000060 36 d6 38 3d b6 59 35 bd 2a cf fc 3c af 81 80 bd
       0.045126162 -0.04427501 0.030860502 -0.06274735
000070 1b 3a cf 3d 42 09 a6 bb 72 7d 80 3c 31 b5 8b 3d
       0.101185046 -0.0050670216 0.015684817 0.06821669
000080 8f 50 db 3b 8e e5 87 3d 6c 56 67 bd d6 9a 31 3d
       0.006692953 0.06635581 -0.056478903 0.043360554
000090 7c af 36 bc 99 ee d6 bc 4d 27 d0 3d 8d 94 00 3d
       -0.011150237 -0.02623682 0.10163746 0.03139167
0000a0 9c 07 32 bd 9a d8 04 bb 85 93 23 bd a7 17 79 bd
       -0.043464288 -0.0020270706 -0.039935607 -0.060813572
0000b0 ee 92 2d bd 3c 4c 3e 3d 2c f3 f4 3d 8a 06 d9 3b
       -0.04237645 0.04645942 0.11960444 0.006623094
0000c0 1d 47 2a bd 70 a5 93 bd bc 94 d5 3c f3 9e 89 bd
       -0.041571725 -0.07209289 0.026071899 -0.0671977
0000d0 aa de 88 bd fd c6 e9 bc 55 c2 74 3d 5b 88 be 3c
       -0.06683095 -0.028537268 0.059755642 0.023258379
0000e0 f2 32 ae 3c 2c 07 97 bc ea 4c ff 39 1d 6b 7d 3d
       0.021264527 -0.018436037 0.00048694696 0.06186973
0000f0 bd 58 de 3d f5 45 51 3d 28 de 0c 3d 41 b8 6a 3c
       0.10856769 0.051092107 0.034391552 0.014326156
000100 06 bb 5a 3d d4 03 59 bd 9b 4c 45 bd b6 fc 88 bd
       0.053401016 -0.052982166 -0.04816876 -0.06688826
000110 88 6d b5 3c 53 a7 27 bd bc a3 43 3d 4b 21 8f 3d
       0.022146955 -0.040931057 0.04776357 0.06988772
000120 b6 e6 99 ba f2 ef b5 3d 28 ff a5 3c 67 51 d2 bd
       -0.0011741731 0.088836566 0.02026327 -0.102694325
000130 0b fe cc bc 6e 8c 99 3d 57 bc 90 bd 46 0b dd bb
       -0.02502348 0.07497488 -0.07067173 -0.0067457287
000140 35 2c 9a 3b 21 9e 68 bb 8a 4a d8 3d c0 e5 dc bb
       0.004704977 -0.0035494643 0.10561092 -0.0067412555
000150 78 46 ec bb 62 89 af 3c 93 a7 29 3d af 6e 11 3b
       -0.007210549 0.021427814 0.041419577 0.0022191217
000160 67 55 36 3d fc 29 38 3d 5c a8 28 bd d1 e6 0a 3c
       0.04451504 0.044961914 -0.041176185 0.0084778825
000170 83 1b 75 bb 72 56 d4 3c b7 dd 01 3e c0 3c f1 3b
       -0.0037400431 0.025920127 0.12682234 0.0073619783
000180 7e b9 f0 3c 64 d3 87 bd 8f cb d4 bc 49 8a 7c 3d
       0.029385325 -0.066321164 -0.02597597 0.061655317
000190 c6 ea 06 3e 21 0b 22 3d 13 8d 0d 3b da 64 b6 3d
       0.13175496 0.039561395 0.002159898 0.08905955
0001a0 33 c6 1c 3d 08 b6 20 bd b6 83 e9 3c 12 1c 6b bc
       0.038274955 -0.0392361 0.028505187 -0.014349954
0001b0 65 fa 3a bd 0f 48 ee 3c bf d3 0a 39 91 4b 79 3d
       -0.04564895 0.029087095 0.00013239587 0.06086308
0001c0 2a 67 00 3e 4f a7 e1 bb c2 e5 6d 3d b0 ea 0a bb
       0.12539354 -0.0068864 0.058080442 -0.0021197014
0001d0 47 c6 01 3d 53 03 fc bd 80 3a bf bd ed 36 df 3c
       0.031683233 -0.123053215 -0.0933733 0.02724787
0001e0 f3 b8 57 3c b6 60 d1 3c 88 15 3c bd 2f 42 b2 3d
       0.013166654 0.02555881 -0.04591897 0.0870403
0001f0 11 d1 96 3d 4b 2b 07 3d e1 47 f0 bd b3 92 f3 3d
       0.07364095 0.03300027 -0.1173246 0.11893215
000200 27 b0 d1 3c 95 b8 7f bd 04 31 4a bd 3d 1b e0 3c
       0.025596691 -0.06243189 -0.04936315 0.027356738
000210 36 ff d7 bb 8b 5f 9a 3b 18 1f ae bd 13 89 e9 bb
       -0.006591703 0.0047110966 -0.085020244 -0.007126936
000220 7a d0 55 bd ce 59 8d 3c 19 72 c3 bd 6a 43 9c bd
       -0.052200772 0.017254736 -0.09543247 -0.07630046
000230 cd cf c5 bd f5 7f 48 3d 0f 72 4e bd cc 85 6b bd
       -0.096587755 0.048950154 -0.050401744 -0.057500646
000240 b3 4b 85 bd 3c b8 d3 3d a6 d8 41 3d 16 75 8d 39
       -0.06508579 0.10337874 0.047325753 0.00026980852
000250 ec 5f 03 3a 9b 57 a8 3d 7e 0c ec bc 08 28 c8 bd
       0.0005011547 0.082198344 -0.02881455 -0.0977326
000260 16 43 de 3d f1 2e 53 3d 3d cd 82 3d 8f 46 01 3e
       0.108526394 0.05155844 0.06386802 0.12624572
000270 8a b6 00 be 12 d2 3a bd 44 5b 4a 3d 98 b0 a1 bd
       -0.12569633 -0.045610495 0.049403444 -0.07895011
000280 dd 99 e1 3d 57 81 c4 bd e5 7b 92 bd 30 9f 02 be
       0.11015675 -0.09594982 -0.07152537 -0.12756038
000290 aa f0 66 3c 59 0d 76 3c 37 6d 85 bd f5 5b 48 3d
       0.014095465 0.015017831 -0.06514972 0.048915822
0002a0 5d 2b 12 3c ea cd 9b bd 40 10 eb 39 80 cd de 3c
       0.008921471 -0.07607634 0.000448348 0.0271976
0002b0 f2 46 b9 bc a9 71 f9 bd 2c 3f 91 ba e5 2f 20 3d
       -0.022616837 -0.12179882 -0.0011081449 0.039108176
0002c0 e5 01 f6 bd 8e 07 89 3c f1 18 71 bc fc 8b b4 bc
       -0.1201208 0.016727235 -0.014715419 -0.022039406
0002d0 ad 3c f2 bd 82 5b b5 bc 95 c2 38 bd 4a 5f 01 bc
       -0.11827979 -0.02213836 -0.045107443 -0.007896254
0002e0 b9 1d 19 3c 57 f2 71 b9 7b 4b 0b bd f2 f3 6b 3a
       0.009345465 -0.0002307383 -0.03400753 0.0009000889
0002f0 1e 6e b4 bd 1c 71 ac bc fb 3e cb 3d e2 86 10 bc
       -0.08810066 -0.021050029 0.09924122 -0.008821221
000300 f2 3c a3 bc 61 13 01 3c 73 f3 b9 bc b2 79 42 bd
       -0.019926522 0.007878155 -0.022699093 -0.04747934
000310 42 2b a2 3d cc 41 24 3c 31 9e 2a 3d 90 a9 19 3c
       0.07918407 0.010025453 0.04165477 0.009378806
000320 2d 3b c2 bd af ec c3 3d 38 50 88 3d bf 0e 92 bc
       -0.09483943 0.09566628 0.066559255 -0.017829297
000330 0d 40 11 3c a2 c7 96 bc 84 12 0e 3d cd 4e f8 3c
       0.008865369 -0.01840574 0.034685627 0.030311013
000340 c8 e4 2a 3d 3c c4 f4 3d a8 84 11 bb 88 10 34 bd
       0.04172209 0.11951491 -0.0022204313 -0.043961078
000350 5c 2d 96 bd c7 ec c0 3c e3 cf f6 bc 24 c7 49 3d
       -0.0733287 0.023550404 -0.030128425 0.04926218
000360 08 29 1f bd 85 82 07 3d 9b 73 f8 3d 66 ad ae bc
       -0.03885749 0.033083457 0.12131425 -0.021322917
000370 5e 30 6b 3c b1 e7 fa b9 57 c1 88 3c 9c a3 68 3d
       0.014354793 -0.0004785634 0.016693754 0.056796655
000380 6a 8b 98 bd 27 14 bb bc 8b 76 6a 3d dc ae 00 be
       -0.07448466 -0.022836758 0.057241958 -0.12566704
000390 88 56 c6 bd d7 0e fc 3c 7e b1 ce 3d a2 15 0e be
       -0.09684473 0.030768795 0.10092448 -0.1387544
0003a0 ee d5 8b bc 12 26 be 3d 43 70 a8 3c 7c a8 8c 3c
       -0.017069783 0.09284605 0.020561343 0.017170183
0003b0 29 e6 af 3d ad fd f9 bd de 1c 0f bd 20 15 c5 3d
       0.085888214 -0.12206588 -0.03493964 0.0962317
0003c0 4d db c8 3d ef dd 0f be b5 24 0f bb 5a 11 8b bd
       0.09807453 -0.14049505 -0.0021841947 -0.06790419
0003d0 0d c7 df bc 71 f0 ae bc 50 af 55 bc 15 de c1 3d
       -0.027316594 -0.021354886 -0.013042286 0.09466187
0003e0 dd 6b d3 3d f9 5f 2e bd a1 b6 97 bd 2f 43 d5 3d
       0.10323308 -0.042571995 -0.074078806 0.10413205
0003f0 14 31 7c bd 02 f3 76 3d a2 da 6f bd 1d 1d 04 3d
       -0.061570242 0.060290344 -0.058558114 0.032254327

fc2.bias f4 [4]
000000 94 a0 96 3c a5 cf af bc 7f d4 e7 3d 28 4a aa 3b
       0.018387116 -0.021461317 0.11319827 0.0051968284

exp_avg f4 [100, 23]
000000 2a e2 36 bb d8 3c 27 bb c7 ff 3d bb 67 73 42 39
       -0.00279058 -0.0025518443 -0.0028991567 0.00018544272
000010 f9 84 ca 38 e9 14 37 bb 26 87 8e 3a 21 f5 6c 3a
       9.656879e-05 -0.0027936047 0.0010874018 0.00090392126
000020 8a 17 6a 3a 28 4b 6a 39 ab 27 0b 3a 67 cf 99 3a
       0.0008929899 0.00022343977 0.000530834 0.0011734784
000030 bc 67 00 b8 f8 be d9 b8 2a 37 d1 37 91 3b d5 b7
       -3.061419e-05 -0.00010382937 2.494043e-05 -2.5419316e-05
000040 c1 50 13 3b ae 4e ac b8 08 a3 2f 3a 8e fc ba 39
       0.0022478553 -8.216254e-05 0.0006700014 0.00035664852
000050 34 5a ce ba 2a 9d 37 38 94 aa 49 3a 28 36 24 3a
       -0.0015743435 4.377697e-05 0.00076929596 0.00062641734
000060 60 80 62 3a e5 b2 25 3a 73 47 70 37 0c 71 0b 39
       0.0008640345 0.0006320908 1.432175e-05 0.00013298186
000070 c8 d6 2a 3a 2a 2b 5e 39 9c ee 4c 39 37 82 c0 38
       0.000651699 0.0002118765 0.00019543845 9.179528e-05
000080 20 66 f2 37 3b 22 ac 37 49 a2 27 39 8a 58 4d b8
       2.8896204e-05 2.0519938e-05 0.00015986817 -4.8958267e-05
000090 1f 69 2d 39 b7 a2 a9 b8 2b 75 7d 37 04 55 38 39
       0.00016537726 -8.088856e-05 1.5107255e-05 0.00017579278
0000a0 5d e9 1c 3a 4e 7a a5 38 8f 4e 58 39 7a 72 cc 39
       0.00059857016 7.890594e-05 0.0002062863 0.00038995204
0000b0 e2 73 a1 38 68 23 10 39 c5 87 27 3a f4 91 1c 3a
       7.698663e-05 0.000137461 0.00063907757 0.00059726764
0000c0 64 d3 25 3a 10 9f 23 b8 76 61 2e b9 59 e0 c3 39
       0.000632575 -3.9010367e-05 -0.0001663024 0.0003736045
0000d0 5e 58 59 39 71 c9 1b 38 9d fc d0 38 54 74 79 b9
       0.00020727652 3.7142487e-05 9.965266e-05 -0.00023789826
0000e0 e4 d5 a4 b9 f1 ba c8 38 a2 85 dc b7 4f b2 94 b8
       -0.00031439879 9.571564e-05 -2.6288271e-05 -7.0904025e-05
0000f0 37 2b 0a 39 94 dd 74 38 4e ac 8c b7 e1 23 b3 39
       0.00013176804 5.8380494e-05 -1.6769536e-05 0.00034168272
000100 fc b7 0a 3a a0 3c 7b 36 ed 01 0a 38 ac 1d 96 38
       0.0005291698 3.7437203e-06 3.2903557e-05 7.158084e-05
000110 2a 6e 2d 39 d6 7e 3c ba 20 72 14 ba 1a 4f 1c ba
       0.00016539605 -0.0007190531 -0.0005662758 -0.0005962715
000120 ba 1f 6f 36 99 51 42 37 7c 63 29 ba 87 02 52 3a
       3.5632243e-06 1.15822995e-05 -0.00064616627 0.0008011241
000130 77 f4 1b 3a a8 53 22 3a 2e 4e 65 b8 e5 64 5a 39
       0.0005949209 0.00061922753 -5.4670665e-05 0.00020827686
000140 64 44 25 3a 07 26 07 37 de 90 e0 38 47 a8 1c 39
       0.00063044415 8.055481e-06 0.00010708136 0.00014940008
000150 c2 20 2d b8 fe 93 43 39 7e 53 d1 ba 2b 73 ab ba
       -4.1276922e-05 0.0001865178 -0.0015970317 -0.0013080587
000160 7a 17 d7 ba 0c b0 11 ba f5 eb 67 b9 42 2f 30 3a
       -0.0016410195 -0.0005557544 -0.00022117778 0.0006720909
000170 c0 49 e7 b9 9c d8 23 b9 60 70 2b b9 f4 39 4d 39
       -0.000441147 -0.00015625585 -0.00016349694 0.00019571913
000180 f0 77 0d b8 60 d7 6a b9 c6 01 c8 39 38 54 fa b7
       -3.372872e-05 -0.00022396212 0.00038148294 -2.984154e-05
000190 58 78 96 39 1e c4 6a b9 00 ef 5b b6 4a d5 cb 39
       0.00028699893 -0.00022389038 -3.277266e-06 0.0003887809
0001a0 67 83 c4 b8 e3 2d 03 b6 a1 80 8e b6 cc bf f4 37
       -9.370484e-05 -1.954723e-06 -4.246904e-06 2.9176379e-05
0001b0 35 56 04 38 a0 3e 2b ba e5 39 36 ba db 81 66 ba
       3.155154e-05 -0.0006532464 -0.0006951376 -0.00087931537
0001c0 fa 3d ea 37 d5 ec c3 38 52 57 da 39 b6 f8 14 3a
       2.7923834e-05 9.342438e-05 0.0004164526 0.0005682813
0001d0 33 f6 65 3a 9b ea 32 3a db dd 7c 39 40 a7 e4 b7
       0.0008772343 0.000682512 0.0002411524 -2.72576e-05
0001e0 3c 05 4a 3a 08 f7 ef 39 19 09 03 39 d2 ce af 39
       0.00077064685 0.00045769685 0.00012496523 0.00033532694
0001f0 6d 2b 8d 39 7c a7 8a 39 d9 93 bc 39 8a f9 e0 38
       0.0002692597 0.00026446197 0.0003596831 0.000107276326
000200 a6 13 e2 38 54 c9 11 37 0e 60 c4 b8 8f 6e 36 3a
       0.000107801796 8.689549e-06 -9.3639e-05 0.00069592235
000210 45 30 6d 3a 3f 8a c5 39 88 a8 a1 3a d1 2a b7 39
       0.0009048025 0.0003767777 0.0012333551 0.0003493638
000220 0d 8d 3d b9 11 9b fa 38 43 a3 9d 37 95 20 f8 38
       -0.0001807699 0.00011949812 1.8791883e-05 0.000118316304
000230 91 15 93 38 14 1a 5a 39 c8 91 3c b8 68 ae 0f 38
       7.013523e-05 0.00020799815 -4.4958462e-05 3.4256285e-05
000240 96 79 00 38 cb 2d 84 b9 8e c3 54 38 94 47 c0 38
       3.0630814e-05 -0.0002521112 5.0726863e-05 9.168606e-05
000250 fa aa 2d b9 8e 4f 5b 37 e4 e7 1e 39 e3 ec 9e b7
       -0.0001656226 1.307194e-05 0.0001515444 -1.8945377e-05
000260 1d b9 15 35 8d 93 dd b8 5a ef e4 b8 d2 3a bd b9
       5.57762e-07 -0.00010565585 -0.0001091647 -0.00036092714
000270 30 7d 08 ba 98 d2 0d b9 7a d7 b6 b8 bb 1c ce 38
       -0.00052066427 -0.0001352526 -8.718572e-05 9.828197e-05
000280 11 2e 86 b9 d9 8d 77 b8 e2 1d d1 b7 f5 35 d8 38
       -0.00025592794 -5.9021495e-05 -2.4928657e-05 0.00010309733
000290 27 73 09 b8 85 82 17 b6 16 7f 51 39 42 e8 9b b7
       -3.277059e-05 -2.2576726e-06 0.00019979136 -1.8585593e-05
0002a0 f7 35 10 b9 fc c3 49 b8 fb 81 54 38 c0 23 8d 38
       -0.00013753014 -4.810466e-05 5.0665793e-05 6.730063e-05
0002b0 1b d9 9f b8 6b fd 25 39 54 8a f7 38 72 a2 36 b7
       -7.62215e-05 0.00015830032 0.000118036434 -1.0885868e-05
0002c0 f0 d3 a8 38 95 bb 0f b9 10 4e e8 38 5c 58 f7 b8
       8.050341e-05 -0.00013707422 0.00011077162 -0.00011794336
0002d0 e2 e0 88 38 38 6a 98 b8 1b 16 65 b8 b8 90 82 b8
       6.526873e-05 -7.2677096e-05 -5.4618442e-05 -6.225839e-05
0002e0 c6 fc 27 39 66 19 04 b9 a4 85 bb 38 01 ab 30 b9
       0.00016020527 -0.00012597963 8.9417474e-05 -0.00016848372
0002f0 31 b5 0d 39 e3 db 79 38 7b 67 00 b9 e6 73 7d b7
       0.00013514307 5.957101e-05 -0.00012245581 -1.510696e-05
000300 dd cd ee 38 b4 f1 32 39 fd 69 d5 38 84 e0 e2 b8
       0.000113870694 0.00017065444 0.00010176373 -0.00010818339
000310 b5 ef 27 b8 27 c0 21 39 71 e0 8b 38 f7 02 0a 39
       -4.0039147e-05 0.00015425739 6.669842e-05 0.0001316181
000320 8a 5f c6 37 ec 4f 19 b9 40 10 b3 b8 1e 2f 5f 38
       2.3647928e-05 -0.0001462099 -8.538412e-05 5.3211224e-05
000330 ed d3 c7 b8 93 0c bb 38 06 cc 0f b8 40 c5 2a 3a
       -9.528534e-05 8.919197e-05 -3.428387e-05 0.0006514378
000340 a5 3a 2f 3a 33 17 06 3a 19 5e eb 38 ea 1c 31 39
       0.0006684459 0.0005115151 0.000112232 0.00016890807
000350 11 f8 37 3a ff 86 be 37 7c d5 8a b9 4a 00 86 b9
       0.0007017861 2.2712627e-05 -0.0002648047 -0.00025558687
000360 e0 74 8d b9 be 0b ab b9 18 47 8d b9 fa 41 44 36
       -0.00026980694 -0.0003262441 -0.00026946585 2.924468e-06
000370 c6 bf be 38 2d fb bd 38 b8 d4 a1 b7 4f 2f 0f 38
       9.0956266e-05 9.0590074e-05 -1.929175e-05 3.4137916e-05
000380 9c 44 aa 39 63 2f 45 3a 32 59 ce 37 c5 f6 0f 39
       0.00032476045 0.0007522015 2.4598648e-05 0.00013729472
000390 f7 df 85 37 91 4a ad 39 2b d9 d7 b8 b4 50 d0 b8
       1.5959127e-05 0.00033052688 -0.000102924496 -9.933245e-05
0003a0 0a e1 86 b6 6b 7d e5 38 d3 4a c7 b8 57 db e7 36
       -4.019709e-06 0.00010942932 -9.5029965e-05 6.909871e-06
0003b0 a1 5b 3e b8 96 d5 bc b8 05 22 8f b8 a3 5c 83 36
       -4.5384866e-05 -9.004322e-05 -6.825108e-05 3.9148886e-06
0003c0 8d c0 82 b8 12 15 86 38 f8 aa da b8 0f 45 13 b8
       -6.2347484e-05 6.3935426e-05 -0.000104268955 -3.5111847e-05
0003d0 e6 cf af 38 4e ea c4 38 41 7f 15 b9 fe e9 48 37
       8.3833744e-05 9.389651e-05 -0.00014257153 1.19754095e-05
0003e0 03 41 23 37 72 d8 93 b8 d8 37 20 39 02 42 2e 39
       9.730694e-06 -7.049822e-05 0.00015279592 0.00016618523
0003f0 4d 8a 05 39 1f 46 97 b7 71 3f ed 39 26 f3 23 39
       0.0001273539 -1.8033255e-05 0.0004525143 0.00015635471

exp_avg_sq f4 [100, 23]
000000 51 ad 2b 35 20 8f 3f 35 f5 8a 49 35 c0 cc c0 30
       6.395467e-07 7.136132e-07 7.5080544e-07 1.4028032e-09
000010 d2 8b 10 30 4d fc 40 35 1c e1 0d 34 0c e0 8b 33
       5.258559e-10 7.189272e-07 1.3213543e-07 6.513446e-08
000020 ae 42 0a 34 ec e6 bb 32 50 d5 bd 32 fd 6b 09 34
       1.287651e-07 2.1874676e-08 2.20995e-08 1.2798405e-07
000030 1c 77 48 2f 7c 33 93 30 57 8f 30 2f 6e ae 5a 30
       1.823221e-10 1.071029e-09 1.6058031e-10 7.955582e-10
000040 f0 c7 81 34 fd 56 f0 33 58 49 02 33 f4 99 0f 34
       2.4173596e-07 1.1191694e-07 3.033469e-08 1.337392e-07
000050 de 81 42 34 d0 01 92 2f 6b a6 e6 32 58 61 d1 32
       1.8114903e-07 2.6558533e-10 2.6851202e-08 2.4375069e-08
000060 9c d4 08 33 97 32 e7 32 11 40 17 2e ef 51 84 30
       3.1858335e-08 2.6914945e-08 3.4390327e-11 9.627551e-10
000070 d0 dc e6 32 be f1 5b 32 87 38 43 32 cc 5c 95 32
       2.6875938e-08 1.28024435e-08 1.1363347e-08 1.7388082e-08
000080 c5 df 05 32 8c 00 aa 31 5b 7a 8c 32 d9 32 45 2f
       7.792498e-09 4.9477134e-09 1.6353786e-08 1.793511e-10
000090 ae 13 c0 30 fe 25 1b 30 b4 36 47 2f 8f ee 23 32
       1.3975432e-09 5.644266e-10 1.8118379e-10 9.542091e-09
0000a0 c3 bf 41 32 c0 a7 1f 31 a1 54 fa 31 4b bf b6 31
       1.127768e-08 2.32329e-09 7.285579e-09 5.3186446e-09
0000b0 38 6b a8 2f 21 39 06 31 42 4a 9c 33 4e c5 c0 33
       3.0635205e-10 1.953204e-09 7.2778235e-08 8.976586e-08
0000c0 79 d8 af 33 33 3e 82 2f 4f cc c5 30 78 8d 8c 33
       8.188449e-08 2.3691057e-10 1.4391704e-09 6.544991e-08
0000d0 bb 7a 80 33 6a 41 bd 32 9e df 64 33 79 2e 2d 32
       5.982789e-08 2.2032243e-08 5.3288765e-08 1.0080492e-08
0000e0 90 9c 48 32 86 80 64 33 77 48 94 2e bf 3d aa 2f
       1.167713e-08 5.3202278e-08 6.743133e-11 3.0966693e-10
0000f0 3b 7d 7f 30 2e cb af 2f 5f 35 33 33 83 fe d9 32
       9.2946423e-10 3.1976682e-10 4.1725226e-08 2.5377863e-08
000100 29 88 cd 32 64 59 07 33 ca 35 26 32 d2 fb 66 2f
       2.392706e-08 3.1513437e-08 9.674702e-09 2.1007843e-10
000110 b5 81 66 32 a9 df a0 33 51 24 c9 33 be bc ac 33
       1.3417254e-08 7.491264e-08 9.366398e-08 8.043706e-08
000120 0c ce b1 2f 98 aa d5 2d d3 bb b4 33 d3 44 8b 33
       3.2342518e-10 2.4291055e-11 8.416068e-08 6.485211e-08
000130 45 54 f6 32 11 75 67 33 04 bf 26 32 a1 9e bd 31
       2.867649e-08 5.389035e-08 9.705904e-09 5.518658e-09
000140 0a 21 69 33 96 41 24 2d a9 b4 11 30 4d 15 90 30
       5.427959e-08 9.336884e-12 5.3007426e-10 1.0483433e-09
000150 f3 43 fe 2f ab d4 7d 33 2f 3d 14 34 ca 26 a1 33
       4.6250612e-10 5.9099573e-08 1.3805833e-07 7.5042024e-08
000160 ca 36 1d 34 8c 93 be 32 ef e4 1a 31 95 98 b8 32
       1.4641697e-07 2.2186008e-08 2.2540083e-09 2.1489805e-08
000170 9d 9f 3b 33 76 d3 1a 33 52 65 0a 33 53 f1 0d 31
       4.3684498e-08 3.604824e-08 3.222278e-08 2.0655377e-09
000180 c3 c6 d5 2e 17 3d 15 33 39 6d ee 32 fd c2 af 31
       9.721426e-11 3.4747327e-08 2.7756515e-08 5.115338e-09
000190 5f 3d b7 32 0f 45 01 32 d2 13 1c 31 f9 64 dd 32
       2.1331912e-08 7.52449e-09 2.2712254e-09 2.5773703e-08
0001a0 67 09 0b 30 a9 4c 1f 2d f0 32 46 2e 7f 5e 9f 2e
       5.0581267e-10 9.055126e-12 4.506523e-11 7.247269e-11
0001b0 75 9f 91 32 27 b3 27 33 5f 2f f1 32 22 61 72 33
       1.6952734e-08 3.9045656e-08 2.8077634e-08 5.6433358e-08
0001c0 61 be a7 31 30 24 25 30 f2 e2 5c 32 99 7d 43 34
       4.8819833e-09 6.0078076e-10 1.2857287e-08 1.8206482e-07
0001d0 48 11 a5 34 4c 82 77 34 41 37 ae 31 de 1d 7d 2e
       3.074622e-07 2.305107e-07 5.070348e-09 5.7552067e-11
0001e0 66 12 84 34 67 dd 08 34 e4 80 28 33 56 27 df 33
       2.4600303e-07 1.2746533e-07 3.9232773e-08 1.0391402e-07
0001f0 a2 fc 79 32 9d 38 34 32 67 75 e4 33 96 0a 4c 30
       1.455115e-08 1.0490251e-08 1.0638433e-07 7.422981e-10
000200 bc bd 6a 30 f3 0a bb 2e 7d 56 02 30 ee fb 29 34
       8.5398333e-10 8.5057204e-11 4.741663e-10 1.5831003e-07
000210 f1 11 57 34 d5 9a 62 33 1c 49 c7 34 23 e9 47 33
       2.0029962e-07 5.2760544e-08 3.7119833e-07 4.6545335e-08
000220 4a 9c ca 30 42 64 47 32 e2 03 6c 31 29 d1 6f 32
       1.4741854e-09 1.16061205e-08 3.4344727e-09 1.39591885e-08
000230 70 2c 09 32 aa d6 4b 31 7b d6 20 2f fc 17 01 32
       7.9845535e-09 2.966241e-09 1.4628114e-10 7.514242e-09
000240 d9 6e 3c 33 48 41 0f 32 6a a3 1b 33 88 76 32 30
       4.3872976e-08 8.338539e-09 3.6237374e-08 6.4924466e-10
000250 17 b8 db 30 9c 6a 14 33 76 19 b4 30 cf 08 df 2d
       1.5986669e-09 3.4555896e-08 1.310396e-09 2.5356077e-11
000260 6c 85 86 2c 29 9f 2a 30 f6 d5 62 33 68 a1 d6 32
       3.823322e-12 6.207182e-10 5.2814322e-08 2.4986278e-08
000270 f1 16 78 32 a4 f7 3e 33 0d e9 51 30 75 cb 12 30
       1.4440716e-08 4.446305e-08 7.636494e-10 5.340362e-10
000280 26 87 e8 31 44 7e 47 33 f3 53 87 33 80 84 88 33
       6.7674533e-09 4.6448136e-08 6.301698e-08 6.357095e-08
000290 00 63 8e 2e 6c 88 8f 2c 29 0f 98 33 8a 0e 42 32
       6.474998e-11 4.0794503e-12 7.080809e-08 1.1295592e-08
0002a0 f5 5c 95 31 c7 1c 36 32 03 d9 11 31 e3 91 08 31
       4.3470387e-09 1.06003375e-08 2.1223634e-09 1.9873532e-09
0002b0 76 43 30 32 5b 34 bf 30 2a 45 75 30 fc e2 53 2d
       1.0259887e-08 1.3911959e-09 8.922877e-10 1.2044362e-11
0002c0 46 62 17 30 9c 02 ba 31 ea 8c 61 32 c9 d2 c6 30
       5.5073135e-10 5.413609e-09 1.3128764e-08 1.4466305e-09
0002d0 9c 47 2b 32 f4 a5 5c 32 cf c5 e6 2f 74 90 48 30
       9.969792e-09 1.2843419e-08 4.1977308e-10 7.2964856e-10
0002e0 05 10 81 31 d0 fb 4c 31 9b 69 4c 31 1d f8 c9 30
       3.7562153e-09 2.9829046e-09 2.9745937e-09 1.4695193e-09
0002f0 a5 74 87 30 f9 4a 37 31 06 74 7f 30 4c ed 7c 30
       9.855695e-10 2.6672622e-09 9.293334e-10 9.2014285e-10
000300 32 54 83 30 87 53 77 31 38 9f 05 31 67 e7 78 30
       9.555434e-10 3.599071e-09 1.9444553e-09 9.0550717e-10
000310 e8 de 0b 2f 2a 61 ac 30 c9 d4 a6 2f 03 9d 8a 30
       1.2721169e-10 1.2542263e-09 3.0346417e-10 1.0085447e-09
000320 34 0f 40 30 ee eb dd 30 3d 83 28 30 02 f7 e8 2f
       6.98708e-10 1.6146922e-09 6.1304545e-10 4.2376064e-10
000330 c7 31 46 30 a3 6d 1d 30 dc 5d 4e 2f 4e a1 28 33
       7.210272e-10 5.727207e-10 1.8768936e-10 3.9262254e-08
000340 0f 01 69 33 04 7b 49 33 90 82 43 30 f0 bc c9 30
       5.4250503e-08 4.691084e-08 7.1126127e-10 1.4678374e-09
000350 c4 bb 4a 33 0c f9 1a 33 77 d6 a9 32 59 3f 31 33
       4.7202562e-08 3.6082426e-08 1.9771717e-08 4.126864e-08
000360 db e5 12 32 0b 99 12 32 85 eb 33 33 69 94 4e 2d
       8.550582e-09 8.533116e-09 4.189089e-08 1.1742698e-11
000370 d6 7b 05 30 00 d8 17 30 41 98 31 2f 92 83 51 33
       4.85611e-10 5.5240434e-10 1.6152148e-10 4.8781267e-08
000380 92 0d 05 33 25 ac a0 33 25 4e 01 33 f6 93 45 32
       3.0978818e-08 7.4818935e-08 3.0106225e-08 1.1500552e-08
000390 59 55 d8 2e 49 2d 58 32 72 f7 25 30 4b db 1b 30
       9.8377036e-11 1.2583151e-08 6.037829e-10 5.6700306e-10
0003a0 76 e4 53 2d 56 15 39 30 44 2a 10 30 fd f6 96 2d
       1.204469e-11 6.733293e-10 5.244696e-10 1.716271e-11
0003b0 76 d7 28 2f 35 2f 03 30 68 47 a3 2f aa d2 50 2d
       1.5356058e-10 4.772461e-10 2.9700264e-10 1.1870208e-11
0003c0 2e 75 8c 2f 74 6d 92 2f 19 d5 29 30 17 69 e5 2e
       2.5549113e-10 2.6635016e-10 6.178467e-10 1.0432382e-10
0003d0 b4 c0 e7 2f 32 29 0d 30 6c 54 95 30 5b ee f3 2d
       4.215558e-10 5.1354043e-10 1.0865171e-09 2.7731753e-11
0003e0 da 6c c8 2d 87 6a ac 2f 1e 94 a9 30 b0 0a c6 30
       2.2785707e-11 3.136231e-10 1.2338466e-09 1.4409434e-09
0003f0 c7 26 73 30 37 7a e6 30 c0 5d 1e 32 53 b2 43 31
       8.845799e-10 1.6769438e-09 9.218127e-09 2.84776e-09

exp_avg f4 [100]
000000 1e 25 8f 3a 42 94 1b 3a 96 d7 34 ba 80 70 c5 3a
       0.0010921096 0.0005934873 -0.000689858 0.0015063435
000010 cc 68 3f 3a a8 74 87 3a 39 61 1c b9 68 07 71 b9
       0.0007301688 0.0010334449 -0.00014913538 -0.0002298631
000020 db 8f d5 b8 7c fb 45 ba 6c cb bf b8 88 e6 5c 38
       -0.00010183427 -0.00075524277 -9.14548e-05 5.2666786e-05
000030 6b f7 be ba a8 82 e1 b8 b9 6c 05 3a e8 6e 16 b9
       -0.0014569586 -0.00010753173 0.00050897483 -0.0001434643
000040 67 53 c7 3a 18 5d 04 bb ce 76 78 ba fa 6f 8d 39
       0.0015207351 -0.002019709 -0.00094781525 0.00026977045
000050 47 67 10 bb 02 6d 27 b9 1e 2f 91 ba 88 31 87 ba
       -0.0022034214 -0.0001596697 -0.0011076664 -0.0010314444
000060 72 0c bf 3a 84 4f ce 3a 90 f9 fd ba 3f ae 5e 3b
       0.0014575853 0.001574025 -0.0019376744 0.003397837
000070 d3 98 60 3a b0 6f 11 38 05 6a 42 bb 50 34 2e ba
       0.00085676945 3.467471e-05 -0.0029665243 -0.00066453684
000080 64 97 40 b9 30 41 ac b9 a2 4b 94 39 78 6f a6 b7
       -0.00018366944 -0.00032854965 0.0002828511 -1.9840649e-05
000090 b6 2c d3 b9 c2 7a 9d 3a 84 6a 94 38 23 f2 25 bb
       -0.00040278368 0.0012014734 7.07703e-05 -0.0025321327
0000a0 f9 78 ae ba 10 99 84 3a 23 e5 2c b9 c4 9b a1 36
       -0.0013311199 0.0010116417 -0.00016488558 4.8163074e-06
0000b0 a5 67 8b ba ef 53 65 3a 05 4c a6 b9 45 a7 6f b7
       -0.0010635747 0.0008748164 -0.00031718626 -1.4284456e-05
0000c0 79 0d af 39 60 45 a1 3a 19 ca 6e 3a 84 22 2e bb
       0.0003338864 0.0012304 0.00091090944 -0.0026570866
0000d0 e7 bc 8d b9 18 62 88 39 b4 6c fe 39 42 25 3c ba
       -0.0002703436 0.00026013027 0.00048527645 -0.00071771827
0000e0 20 13 35 b7 39 ef 3f ba 68 32 d0 b7 24 b5 54 ba
       -1.0792894e-05 -0.0007321719 -2.4819004e-05 -0.000811415
0000f0 0a 83 06 bb 16 c5 9b 39 c4 a5 99 b9 85 05 a8 bb
       -0.0020524883 0.00029710744 -0.0002930594 -0.005127611
000100 38 96 8d 39 8f 7d 94 3a 62 87 4b 39 d4 19 21 3a
       0.00027005537 0.0011328923 0.00019410023 0.0006145511
000110 43 80 ad ba c8 ab 6c 39 3b 20 e7 b8 9e 84 d5 3a
       -0.0013237078 0.00022570707 -0.00011020942 0.0016290133
000120 88 ff e1 b8 c2 4d db ba 4a 5e fa b9 8f 80 07 3b
       -0.000107764325 -0.0016731548 -0.00047753967 0.0020675992
000130 85 2e 48 bb e2 37 c0 38 0d 49 17 ba cc c9 7b b8
       -0.0030545306 9.1656824e-05 -0.0005771078 -6.0031e-05
000140 94 cf 9a b9 1e 09 2e ba 9a bb 7b 39 95 a3 d5 39
       -0.00029527827 -0.0006638932 0.00024007112 0.00040748404
000150 42 e0 92 b8 f4 26 a2 35 3f e2 4c b7 da 25 8d b6
       -7.003594e-05 1.2081277e-06 -1.2212025e-05 -4.206534e-06
000160 ba 43 28 ba 7e ef 43 b9 ff d0 d2 39 57 79 06 ba
       -0.00064187835 -0.00018685867 0.00040210036 -0.00051297754
000170 6c b1 4f ba 98 00 21 b8 16 94 9d ba e9 e1 7e b9
       -0.0007922861 -3.8385944e-05 -0.0012022282 -0.00024307486
000180 35 9d 98 ba 49 04 81 3a 98 4d b5 3a 2e 30 95 ba
       -0.0011643531 0.0009843196 0.0013832329 -0.0011382157

exp_avg_sq f4 [100]
000000 dd 8d 1d 35 fe 62 3e 33 8f 7e 31 34 80 cc 7f 34
       5.8693496e-07 4.4327855e-08 1.6530451e-07 2.3823122e-07
000010 eb 85 9e 33 a5 31 19 35 75 9b 42 34 cd 4d 0c 33
       7.381808e-08 5.7069184e-07 1.8124213e-07 3.266705e-08
000020 b7 1c 40 31 85 4d 39 34 f5 cb 06 30 a3 12 0a 34
       2.7956e-09 1.7257669e-07 4.9038756e-10 1.2859032e-07
000030 54 53 ac 34 c5 66 e6 2f 4a 7f c0 33 f0 0b 97 30
       3.2098126e-07 4.1909778e-10 8.9638505e-08 1.0990089e-09
000040 85 e7 ba 34 b2 a4 31 35 6a 3a f0 33 92 c2 60 35
       3.4813652e-07 6.61773e-07 1.1186496e-07 8.372964e-07
000050 11 a4 e3 34 45 ea b7 30 4b 7b b9 33 52 ef a0 34
       4.240142e-07 1.3381586e-09 8.637161e-08 2.997645e-07
000060 07 03 a5 34 40 78 90 34 49 9a 6c 35 6d e5 17 35
       3.0735848e-07 2.6909584e-07 8.8141365e-07 5.658574e-07
000070 77 8b 02 34 9f 81 25 35 2d 94 27 35 86 a5 8b 33
       1.215793e-07 6.1655913e-07 6.242797e-07 6.5028004e-08
000080 b7 9f 0d 31 2a 2a 2e 33 17 44 1b 33 15 e9 9f 33
       2.0608988e-09 4.055088e-08 3.6150677e-08 7.446412e-08
000090 21 82 7e 34 51 4f da 34 c7 3b 20 34 63 b7 94 34
       2.3702934e-07 4.0663375e-07 1.4922908e-07 2.770058e-07
0000a0 6f 12 31 35 e0 90 c8 34 a3 2e c3 30 e3 97 5f 33
       6.596446e-07 3.7358313e-07 1.4201372e-09 5.2059374e-08
0000b0 9d e4 84 34 51 8e c6 33 69 d8 f5 31 78 66 f9 32
       2.4753254e-07 9.245981e-08 7.1550414e-09 2.9034013e-08
0000c0 39 4e ed 32 1f 2a 0b 35 09 c5 68 34 b1 a0 dc 34
       2.7626003e-08 5.184283e-07 2.1678365e-07 4.1095112e-07
0000d0 81 85 08 34 25 33 39 32 f6 68 37 35 2a 89 f9 32
       1.2714555e-07 1.0780046e-08 6.832555e-07 2.904979e-08
0000e0 5d ca 2f 33 30 ba 13 33 19 a7 8d 2e ee d6 4b 33
       4.092941e-08 3.439544e-08 6.44162e-11 4.7460098e-08
0000f0 58 70 0e 35 c8 9b c2 34 cd dd be 33 36 b6 99 35
       5.3062604e-07 3.6248662e-07 8.88791e-08 1.1452419e-06
000100 15 1d 03 33 da cc 17 34 97 bf e1 31 48 5f ea 34
       3.0527264e-08 1.4137495e-07 6.570143e-09 4.3655223e-07
000110 04 90 b8 33 5e 47 66 34 a4 f0 84 30 8b fc b1 34
       8.594364e-08 2.1446382e-07 9.672658e-10 3.3152568e-07
000120 56 ff 8c 2f d0 c2 2f 35 fa 0b aa 32 8c a3 69 35
       2.564728e-10 6.547607e-07 1.9796051e-08 8.7037256e-07
000130 f1 cc 82 34 d2 b6 69 34 8f 82 b4 33 74 c4 19 30
       2.4363501e-07 2.1766326e-07 8.4056516e-08 5.594025e-10
000140 b3 e3 5a 34 ab 09 ff 33 40 d9 93 34 d5 58 da 33
       2.0385669e-07 1.18761214e-07 2.7538954e-07 1.01675745e-07
000150 0d d9 05 32 16 29 f7 2b 53 bc f8 2d 16 65 59 2d
       7.7909705e-09 1.7561809e-12 2.8277969e-11 1.23574675e-11
000160 29 54 d2 34 52 21 06 33 da db 89 34 ad 38 11 32
       3.9176783e-07 3.122961e-08 2.5678202e-07 8.452997e-09
000170 c0 f7 53 33 e1 d5 02 2f 40 65 be 34 0a b6 57 31
       4.9352593e-08 1.1899416e-10 3.5463927e-07 3.1390095e-09
000180 ca 3d 1b 34 da 92 44 34 54 dc d6 34 6d c2 48 33
       1.4457979e-07 1.8307347e-07 4.0020916e-07 4.6742958e-08

exp_avg f4 [4, 100]
000000 65 87 a1 ba 4e 52 bc 39 6d b1 3f bb b4 08 31 3b
       -0.0012323676 0.00035919476 -0.002925004 0.0027013244
000010 6a 1f 1d bb 0c 2e 4b 3a 42 66 21 3b 66 bb d1 38
       -0.0023975023 0.0007750697 0.00246276 0.00010000802
000020 b5 9a 80 b9 54 7a 48 3b 08 61 d1 35 16 00 91 3a
       -0.00024529328 0.0030590491 1.5599953e-06 0.0011062648
000030 7e ec eb ba 4e 1b 87 37 0c 9c 37 bb 8a 3e b8 b5
       -0.0017999557 1.6105969e-05 -0.0028016595 -1.372727e-06
000040 cd 06 32 bb 72 94 1f bb a9 c2 89 ba 92 47 51 3b
       -0.0027164698 -0.0024349955 -0.0010510284 0.0031933528
000050 e4 ff ea b9 b1 d4 58 b5 9d a6 08 3a 7f eb 05 bb
       -0.0004482261 -8.077578e-07 0.00052128156 -0.0020434556
000060 20 89 1a 3a 24 81 11 bb 35 81 a3 38 b1 3c c5 39
       0.0005895067 -0.0022202218 7.796512e-05 0.00037619987
000070 aa a7 93 b9 35 63 33 3a 4c 99 6a bb ad c8 16 ba
       -0.00028162944 0.0006843091 -0.0035796938 -0.0005751949
000080 71 7e 39 37 7e 50 83 b9 76 24 19 b9 f5 28 f8 39
       1.1056299e-05 -0.00025046238 -0.000146048 0.00047332761
000090 40 3e 65 3b e3 57 09 3b 54 37 07 ba 4e 03 a2 ba
       0.003497973 0.0020956926 -0.0005158086 -0.0012360604
0000a0 99 d3 dc ba ba f2 4e b9 99 ac 47 b8 46 7e 61 b8
       -0.0016847729 -0.00019736114 -4.760604e-05 -5.376178e-05
0000b0 f3 08 2a 3b ce 5f fe 3a 13 0d f2 b9 1f 29 66 ba
       0.0025945276 0.0019407214 -0.00046167578 -0.0008779931
0000c0 7f 01 43 39 71 29 b2 39 4a cf f3 ba 11 39 8c 3a
       0.00018597207 0.00033981682 -0.0018601206 0.001069816
0000d0 f6 77 0e 3b 6f 9a 2f b7 ba fe e9 b7 46 e0 97 b9
       0.0021738983 -1.046677e-05 -2.789438e-05 -0.0002896806
0000e0 be cb fe 38 f2 88 7c 3b 28 44 d1 34 ce 74 f7 38
       0.00012149614 0.0038533774 3.8978874e-07 0.000117996344
0000f0 7c d1 91 bb b6 d4 93 3b 33 53 92 39 80 39 e7 36
       -0.0044500213 0.004511441 0.00027909278 6.8910304e-06
000100 ac 97 2a ba 1d 57 e8 ba 8d cc 94 b7 4b 47 57 3a
       -0.0006507586 -0.0017726157 -1.7738226e-05 0.00082122226
000110 03 41 93 3a 6b c0 55 3b 09 a9 3e b9 68 e7 19 3b
       0.0011234585 0.003261591 -0.00018182783 0.0023483876
000120 30 97 41 38 32 df 84 b9 c3 9b d6 39 0a bf d5 3b
       4.615559e-05 -0.00025343295 0.00040933312 0.006523018
000130 6a 13 7e 3b 7a c9 15 3b e4 fa d7 3a 08 58 bc b7
       0.0038768896 0.0022855685 0.001647797 -2.245234e-05
000140 c1 37 38 3a 57 0f 0e 3b 8a 97 6b bb df f0 9a 38
       0.0007027351 0.0021676624 -0.0035948479 7.388158e-05
000150 46 2c 05 39 9d d7 ef 37 6e fe 4d 38 67 31 92 34
       0.00012700362 2.8591423e-05 4.9112765e-05 2.7230564e-07
000160 af 6b 10 3b 40 50 33 bb 5d 14 d2 3b 3d aa a5 39
       0.002203684 -0.0027361065 0.006411119 0.0003159809
000170 bf 03 8f ba 35 7f 0b 38 b0 13 0c bb e0 f6 87 39
       -0.0010911151 3.3258653e-05 -0.002137404 0.00025933143
000180 28 ee f0 3a 09 f1 cf 3a ce 43 68 3a ae c0 73 3a
       0.0018381523 0.0015864681 0.00088602013 0.0009298426
000190 0b 08 97 bb ba 63 3f 39 30 5d d1 ba 0d e0 75 bb
       -0.004609113 0.0001825233 -0.0015973207 -0.0037517578
0001a0 e2 ff bb b9 5e 0b 15 ba 24 69 5f ba 59 94 e8 b7
       -0.00035858067 -0.0005685593 -0.0008522442 -2.7725635e-05
0001b0 b2 8e 55 38 b8 6b ba 3a 98 02 b9 31 31 36 fc 39
       5.0916053e-05 0.0014222777 5.3845035e-09 0.0004810556
0001c0 fb cf 6d bb 67 f8 16 37 da b4 c0 ba 96 38 73 b5
       -0.0036287296 8.998532e-06 -0.0014702335 -9.06069e-07
0001d0 4c 12 9a 3b e3 db 91 3b b7 b7 8f 3a 89 d8 10 3b
       0.004701888 0.0044512614 0.0010964785 0.0022101721
0001e0 20 52 46 bb eb ed 09 38 a8 7c 34 3b b2 ed ed bb
       -0.0030261353 3.2884924e-05 0.0027540121 -0.0072610015
0001f0 62 70 e8 bb 57 58 23 3b 1b f6 c0 3b dd 1b f6 ba
       -0.007093475 0.002492448 0.005888713 -0.0018776614
000200 c0 9a ab bb 65 10 88 b9 55 09 89 3b 59 ba 49 39
       -0.0052369535 -0.00025952156 0.0041820207 0.00019238274
000210 e8 f6 5b b6 d0 73 88 3a dc 82 4b 38 4d 75 57 3a
       -3.2777261e-06 0.0010410491 4.8520844e-05 0.00082190783
000220 0a ff ad 39 18 73 ee ba c9 54 cc 39 d2 47 a5 3b
       0.0003318715 -0.001819226 0.00038973082 0.005043962
000230 e3 68 a5 3b 89 2e 4f bb 14 1c 74 b8 54 82 23 b8
       0.005047904 -0.003161343 -5.8200283e-05 -3.8983606e-05
000240 5c 49 c9 3b 43 21 27 bc c6 9d 94 b8 f2 83 9f 3a
       0.0061427783 -0.010200801 -7.0865775e-05 0.001217006
000250 7e bd 29 3a 94 89 cb bb 9f 30 dc bb 48 9b b1 3b
       0.0006475075 -0.006211469 -0.0067196633 0.0054201223
000260 e1 dd 70 bb 18 12 07 39 7f 64 c9 3a 6c 6a c0 b9
       -0.0036753344 0.00012881344 0.0015365033 -0.00036700384
000270 a7 58 85 39 32 a6 0e 3b 22 e2 6f 38 23 5a 89 39
       0.00025433788 0.002176654 5.7192643e-05 0.00026197833
000280 f6 6c 2f bb ce 1b 23 3b 63 63 c3 3b 75 82 cd 3a
       -0.0026767827 0.00248884 0.0059627756 0.0015679138
000290 57 35 3b 3a 1c 14 dd 3a de 85 e7 35 38 94 1c b7
       0.0007141432 0.0016866955 1.7249802e-06 -9.332834e-06
0002a0 f7 4c c8 3b 82 04 97 3a 0c ef d0 38 b6 8d e6 3a
       0.0061126905 0.0011521729 9.962739e-05 0.001758984
0002b0 06 9d ea 36 1e d1 fe 3b f9 c0 af 39 f4 98 26 3b
       6.9920234e-06 0.0077763936 0.00033522377 0.0025420757
0002c0 e1 e0 fc 3a e2 dc 3e bc 5f 68 40 3b 72 a2 36 b7
       0.0019293093 -0.011649342 0.0029359085 -1.0885868e-05
0002d0 26 19 24 3b 46 d6 c0 ba 86 b8 82 bb 0e 9a 8d 38
       0.0025039404 -0.0014712296 -0.003989282 6.752099e-05
0002e0 27 78 2b b7 5f 71 95 34 69 58 2e b8 9a 76 2e 34
       -1.0220369e-05 2.78359e-07 -4.156717e-05 1.624816e-07
0002f0 3d 79 86 3a 70 30 96 3b ac 52 c0 bb 72 30 93 39
       0.001025952 0.004583411 -0.0058692303 0.0002807412
000300 63 8e 25 3a c2 35 6b 37 00 fb 8b 39 48 5f 05 39
       0.0006315468 1.4019608e-05 0.00026699156 0.00012719363
000310 ea 36 f0 bb 73 46 9e 3b 36 a1 56 3b ba 26 64 3a
       -0.007330765 0.0048301755 0.0032749898 0.00087032805
000320 32 52 8a 3b dd 53 90 ba c5 40 93 ba aa 20 34 3b
       0.004221224 -0.0011011321 -0.0011234513 0.002748529
000330 64 d7 6e 3a 2f 0e cd 3a e8 29 f1 b7 e1 4d e4 b8
       0.0009111075 0.0015644486 -2.8748953e-05 -0.00010886393
000340 c4 13 16 39 10 d4 da ba be f6 a0 b4 ea 05 d5 38
       0.00014312478 -0.001669528 -2.998185e-07 0.00010157733
000350 13 df 90 3b 79 15 44 38 d2 69 7f 3b fb 48 6f 38
       0.004421124 4.675004e-05 0.0038972986 5.705001e-05
000360 11 23 6e bb ec 31 8a bb 40 e6 3b ba 8f 81 47 bb
       -0.003633682 -0.004217377 -0.0007167794 -0.0030442213
000370 2a 04 b4 3a 1a 0b ca 33 16 8b bc ba 37 99 86 3b
       0.0013734151 9.4083774e-08 -0.0014384713 0.00410762
000380 a1 88 ec 3b 31 8b ca 3a 16 5b 4d bb 0b e4 25 3b
       0.007218436 0.0015452859 -0.003133481 0.0025312926
000390 1d 6f e0 3b 29 14 9a 3a fb cd 93 bb 12 c9 8f 3a
       0.0068491832 0.0011755276 -0.004510639 0.0010969958
0003a0 e7 16 80 b7 4f 37 72 b9 c1 61 a9 b8 db 70 2a 39
       -1.5269454e-05 -0.00023099523 -8.076756e-05 0.00016254505
0003b0 9f 4b 09 3a 70 75 6a 3b d9 17 76 3a fd 1a 15 bb
       0.00052374037 0.0035775565 0.0009387709 -0.0022751682
0003c0 94 bd 53 bb 47 9a af 3b 10 54 e7 32 d8 59 ef b8
       -0.0032309042 0.0053589675 2.6930167e-08 -0.00011413143
0003d0 09 0b 13 ba 50 97 29 3b 5f ab 88 3a b9 2a 53 ba
       -0.00056092493 0.0025877543 0.0010427049 -0.00080553774
0003e0 7c 57 08 ba a5 55 76 3b a8 11 04 3b ca 4f 99 bb
       -0.00052010245 0.003758767 0.0020152126 -0.004678701
0003f0 65 06 e5 39 ea 7e 9b b8 2a b6 84 ba 3e cc 45 3a
       0.00043683048 -7.4146155e-05 -0.001012509 0.0007545388
