depression (timeseries)/best_pupil.pt (torch_old, 54889 bytes, 12 tensors)

fc1.weight f4 [100, 39]
00000000: 6e26 c1bd ad8a aabd 8d64 d2bc a6c9 4bbc
00000010: 433f 2cbb 895d 6f3c 5428 e5b9 56e1 beba
00000020: 7459 afbd 9a3a ab3c 85bb d83c 430c a9bb
00000030: f430 b53d 2c7d 2dbd 3231 f53d fb9d 82bd
00000040: db13 bd3c 7126 db3b 6ebd 0d3c 7160 dabc
00000050: 8be6 643b ae70 98bd cddd 82bd 129d 323d
00000060: d491 c2bc 74f7 703d 65d5 31bd d913 c13c
00000070: 7772 3b3d 4723 1d3c 02cb 823b d6de a73d
00000080: 8184 3b3c 7826 0eba c5b0 95bd b681 2b3c
00000090: e0a9 29b9 3c78 c3bb c806 603b e75d 483e
000000a0: 8127 003c 3063 ba3d 8a76 a2bd 4008 38b8
000000b0: 09bf 5a3d b029 7cbc 8247 b5bc 9f33 d13d
000000c0: 18b7 b83d 2473 9f3d fbcd ee3d 4d0a 3dbd
000000d0: f38a 01be d15b ccbd 7946 23bd c2d2 0cbe
000000e0: 2700 01bd b5ae efbc 1efa 2ebc 5deb 7abc
000000f0: dd86 443e e595 e73d 0d3f ccbc a7ed 893d
00000100: 7b56 ecbc 962a e83d 2d06 8cbd b48d f23d
00000110: 6d6c 86bd ac2f 38bc b17b 08be bd50 7b3c
00000120: f2ce 8bbc 1881 debd 943b 493e 91b8 91bc
00000130: 35b5 423d 19c8 c3bd 5cc5 19bd f35f bd3c
00000140: 9827 853d f818 6f3d 8f92 7b3c 0a68 893d
00000150: 9252 be3b f456 23bd e9f6 253e d713 243c
00000160: db8a 1cbd 7851 cbbd 27bc 3dbd 8e99 04bd
00000170: 815e ea3c f80a df3c b904 393d aa0a 0c3c
00000180: 37cc 98bb 0449 5dbc 2e13 d7ba be6d dbbd
00000190: 5824 393d 182e ae3d 3e11 70bd 47ab 2a3d
000001a0: b8fe d73c cfc1 3ebd 3c2f cc3d 1ad2 71bc
000001b0: 5ab6 5f3c aed5 45bc 83ae 1b3b d502 3fbd
000001c0: 17ae 403e 1096 e0bd 7596 d3bc 2802 92bd
000001d0: 6f8d 073e 946a cdbd ba63 083e 8e04 cfbc
000001e0: 0a21 7dbd 48b1 98bc 52f4 d93d 2ec0 f73b
000001f0: 0d61 43bc 8507 de3c ce57 f33d 5e85 f4bd
00000200: 41ba bbbb 05d7 d8bd dffa 8bbc a0e2 37be
00000210: 5ca0 f23d d332 1f3c 04e6 c6bc e2ff bc3d
00000220: ec28 08bc b651 753b a658 153e 9172 e03d
00000230: 4b34 bfbb cd08 7dbc b286 fbbc 79f0 9c3c
00000240: 198c 20be fc24 293d 48d6 633c 0f29 cfba
00000250: 2b4f bc3b 403d d4bb 4ed9 3cbc 1855 8e3d
00000260: a183 553e 015a 90bd 5ea3 16bd 0079 0fbe
00000270: 5052 693e 26bf e63d 3751 063e db93 e3bd
00000280: 420b 55bc 65cd d43c c30f e2bb e89a 63bc
00000290: 4130 85bc e2d4 c03d 5366 d2ba 4ac3 503e
000002a0: 4c4b 26be 7226 c4bd 0f7d 28bd 0e48 853d
000002b0: ec95 973d 9e98 04ba 6f7e 65bd 7229 63bb
000002c0: cf77 86bc 6f2b 7ebc 0967 913d 0169 413d
000002d0: a1f9 823d 89f8 e83c da1b 203e 8554 9ebd
000002e0: 1641 09bd c37e 90bd 390c 77bc 85e6 4dbd
000002f0: 7bc1 b9bc 567e 36bc 82ba 963d 8945 603e
00000300: 7cae 073b 27a3 003d 098e 5fbe ba1b 3e3d
00000310: 1226 f93d 14c3 943c 0c1e 84bd 2f38 28bd
00000320: d90a 113e 85ae 1cbd 6a81 d63c b8ba 26be
00000330: 87a8 08be 2e36 023e 4667 5e3b 653e 2c3e
00000340: 250b fbbd 432e b63d 3717 28bd 85a8 dc3c
00000350: e2d5 3c3d b5e8 76bc 1c72 ee3c b1f8 8bbb
00000360: 35ef fbbd c244 803d fae1 863d 0c98 5cbc
00000370: 01d4 da3d e6cc 0cbd b10a 6b3c 25c7 d5bd
00000380: d75d 243e 2311 803c 58cc c13c cbb8 2c3c
00000390: fc92 5ebc ec7c 35bd 8f80 47be 186b 353e
000003a0: a838 efbb cb02 523e efce 573d f74e 883d
000003b0: f41d b7bd c489 863d f558 af3c 91e2 3cbd
000003c0: 26c3 153c 87d9 263d c011 54bc 6868 003e
000003d0: e5c8 293d f2cb 86bd 40d5 a8bd dd8f 2fbe
000003e0: c518 34bc c489 b93d c47d d63d b901 8e3c
000003f0: 3ba1 6ebc 8c61 6d3c 1985 b13c 5a24 1abe
-0.09431158 -0.083272316 -0.025682712 -0.012438213 -0.0026282824 0.014609703 -0.0004370833 -0.0014563005
-0.08561984 0.020901967 0.026456604 -0.0051589324 0.08847228 -0.0423557 0.11972274 -0.06377789
0.023080757 0.006687932 0.008651121 -0.026657315 0.0034927453 -0.07443367 -0.063899614 0.043606825
-0.023751177 0.05882974 -0.0434164 0.023569034 0.04576346 0.00959093 0.0039914856 0.081967995
0.011445166 -0.00054226024 -0.07309107 0.010467937 -0.0001618038 -0.005965261 0.003418373 0.19567071
0.007821918 0.0910095 -0.07932766 -4.3876702e-05 0.05340484 -0.015390798 -0.022128824 0.10214924
0.09019297 0.07785633 0.116603814 -0.0461524 -0.12650661 -0.0997845 -0.03986213 -0.13752273
-0.031494286 -0.029258111 -0.01067975 -0.015314904 0.19192071 0.11307887 -0.024932409 0.06734782
-0.02884983 0.113362476 -0.068371154 0.11843434 -0.06563649 -0.011241835 -0.13328435 0.015339074
-0.017066453 -0.108644664 0.19651634 -0.017788203 0.047536094 -0.0955965 -0.037541732 0.023117041
0.065016925 0.05837342 0.0153547665 0.06709297 0.005808183 -0.039877847 0.1620747 0.010014496
-0.03821836 -0.09927648 -0.046322014 -0.032373004 0.028609516 0.02722691 0.04517052 0.008547464
-0.004663016 -0.013506178 -0.0016408914 -0.10714291 0.045200676 0.085048854 -0.058610193 0.04166725
0.026366577 -0.04657155 0.09969947 -0.014759565 0.013654316 -0.012074871 0.002375514 -0.04663356
0.1881641 -0.10966122 -0.02582858 -0.071293175 0.13237546 -0.10030094 0.13319293 -0.025270727
-0.061799087 -0.018639222 0.106423035 0.0075607514 -0.011924994 0.027103195 0.11881982 -0.119395
-0.0057289903 -0.10587887 -0.017087398 -0.17957544 0.118469924 0.009716707 -0.024279602 0.09228493
-0.008310538 0.0037432737 0.14584598 0.10959352 -0.005835091 -0.015443993 -0.030703876 0.019157635
-0.15678443 0.041295037 0.013906069 -0.0015805083 0.0057467422 -0.006477028 -0.011526419 0.06949824
0.20850994 -0.07048417 -0.036776893 -0.14011002 0.22785306 0.112669274 0.13116919 -0.111121856
-0.013003172 0.025976846 -0.0068988516 -0.013891913 -0.01625836 0.09415604 -0.0016052224 0.20386997
-0.16239661 -0.09577645 -0.04113489 0.06507884 0.07401642 -0.0005058142 -0.05602878 -0.0034662155
-0.016414551 -0.015513285 0.070997305 0.04721928 0.06395269 0.028438823 0.15635625 -0.077309646
-0.033509336 -0.07055428 -0.015078598 -0.05026867 -0.022675266 -0.011138519 0.07359792 0.21901526
0.0020703366 0.031405594 -0.21831526 0.04641316 0.121654645 0.018159427 -0.064510435 -0.041069206
0.14164294 -0.038252372 0.026184756 -0.16282165 -0.13345538 0.1271598 0.0033936067 0.16820677
-0.12257985 0.088955425 -0.041037764 0.026935825 0.046102412 -0.01507013 0.029107146 -0.0042715897
-0.123014845 0.062631145 0.0658607 -0.013463985 0.10684968 -0.034375094 0.014345811 -0.104383744
0.16051422 0.015633171 0.023657009 0.010542105 -0.0135848485 -0.044308588 -0.19482635 0.17716634
-0.007300455 0.20508878 0.05268758 0.06655686 -0.0894126 0.065692455 0.021404723 -0.046114508
0.009140765 0.040734794 -0.012943685 0.12539828 0.041451354 -0.06581868 -0.08243799 -0.17144723
-0.010992234 0.0905948 0.10473207 0.017334806 -0.0145648075 0.014488589 0.021669911 -0.1505293

fc1.bias f4 [100]
00000000: ff3b a8bd 1e21 d93c 37f7 1bbd aefc 2b3d
00000010: cecf d93d a67c ef3d 4487 393d 6346 fa3d
00000020: 1ecb 67bd f816 48bd 18aa 31bd 520d 2cbd
00000030: 6e5e c63b c7a8 273c 6087 38bd 007d b63d
00000040: 2fc8 94bd 1c18 5abb e464 9b3d f4d0 3c3b
00000050: d549 40bd d509 f2bc 26bb 903b b818 bfbc
00000060: 674e abbc 1662 3b3e feab dd3d 9de0 21be
00000070: 61f7 1a3d 0642 983b a4b3 ca3c a3f3 183e
00000080: 69c4 2c3d 62d9 7cbd 7f69 013d d7a1 d5bd
00000090: b0ae dfbb d913 56b8 85f1 8fba 43bd 65bd
000000a0: c17b 42ba d08f 5739 70e3 65bd abdf 1b3d
000000b0: cf18 55bd 5403 ec3d e839 5e37 e6fb d83d
000000c0: 87c9 973d 0ff4 4e3c 4f8a 113e 908d 0a3e
000000d0: 07f6 31bd c14d c1bb 7d88 933c 552e a6bb
000000e0: b9a8 1a3c 4d52 02bd 905d 48b7 fd5e b8bb
000000f0: 0794 0fbd 6585 ba3d be02 c13d 9d33 173e
00000100: 2b9e 853b a2d8 5fbd e919 c23d 4553 0c3b
00000110: 23f1 b73d 3d83 053e 6501 453d deb9 67bd
00000120: 98e1 86bc 64fb efbb 7d67 55bd 50a2 4d3a
00000130: 88cd b13d e360 97bd c256 02bd f72e 863c
00000140: 416c c0bd 4484 9bbb 5c93 6b3d 1dd9 f73d
00000150: e71a a5bd 282a 193e d5ff 98bc 24fa ea3c
00000160: 4a0a d9bc d9b2 3fbc 1401 913d dc29 a8bb
00000170: 5b7b 093e cf88 863d 96da 25be 142a 3b3d
00000180: d914 623c 56f4 7dbb 7516 6bbd 3d11 95bc
-0.08214568 0.02650505 -0.03807756 0.04198902 0.10635339 0.11693697 0.045295015 0.122204565
-0.056590192 -0.04885003 -0.043375105 -0.04200489 0.0060537374 0.010233111 -0.04505098 0.089105606
-0.072647445 -0.003327853 0.07587603 0.002881107 -0.04694541 -0.029545704 0.004416841 -0.023327217
-0.020911409 0.18299136 0.108238205 -0.1580834 0.037833575 0.0046465425 0.024743862 0.1493669
0.0421795 -0.06173075 0.03159475 -0.10431259 -0.0068262443 -5.104006e-05 -0.0010982013 -0.056088697
-0.00074189535 0.00020557572 -0.056125104 0.038055103 -0.052025612 0.11524072 1.32457135e-05 0.10594921
0.07411485 0.01263143 0.14212917 0.13530564 -0.04344752 -0.0058991616 0.018009419 -0.005071441
0.009439641 -0.03181677 -1.1942713e-05 -0.005626558 -0.03505328 0.09107474 0.09424351 0.14765783
0.004077693 -0.054649957 0.09477598 0.0021411937 0.0898154 0.13038345 0.048097033 -0.05657374
-0.016464993 -0.0073236693 -0.052100647 0.0007844316 0.0868178 -0.073915266 -0.03182102 0.016379816
-0.09395648 -0.004745992 0.05751358 0.12101958 -0.08061772 0.14957488 -0.018676678 0.02868373
-0.026494164 -0.011700355 0.07080284 -0.005131943 0.13425963 0.06569063 -0.16196665 0.045694426
0.013798916 -0.0038750372 -0.057394464 -0.018196696

fc2.weight f4 [4, 100]
00000000: d2e7 c4bd 5475 35be 9399 863d f644 c43c
00000010: 8bd6 1cbe 088b 1c3d cd2b 5bbd 1cb7 13be
00000020: 1aa9 9cbd 716a 413c 3121 cbbd 2b6b 553d
00000030: 2efe 74b6 164f f3b9 5135 153e cae5 4abe
00000040: 1c63 693c cbef 72bb 1b7f a53d 8858 21be
00000050: 9040 6739 6661 9fbc 65b1 9f3d 5898 a83d
00000060: 675b 0b3d bb85 2c3d a313 bb3b 8a74 c23d
00000070: e268 79bb 7d03 a8bd 21f4 d63d c8ca 073e
00000080: b19d 763d a370 a5bb c58b 7a3d df28 193e
00000090: 4f85 843c 8647 cdb7 2f08 e13a f918 263e
000000a0: ad5d ad39 024c 21b7 5cd8 0abe 2688 833d
000000b0: 0ed5 5fb6 4601 953c 46a1 4338 4ae5 7d3c
000000c0: 7887 14bd 23cb 92bd fa4c 2c3d 97bf cbbd
000000d0: 7bfa 4239 5a92 0eb8 0e0c 893d a6c0 7dba
000000e0: 9985 193e 5c5c debc 42bc 4dbc e4a0 7f3b
000000f0: e26a 263b e069 cc3d c552 edbd 7b9e ff3c
00000100: 5cc3 893d 1df2 4db8 74c5 8d3d 2af4 a7b9
00000110: 345d bcbc 1290 ba3d e126 2ebe 4402 9c3c
00000120: 7329 1a3b b2f2 8dbc 14bc cbbd c591 93bd
00000130: 22fd 8fbd 4241 883b a1b2 303c 00d5 9e3d
00000140: 8952 04be 3e87 4c3a 06c6 06be 0267 bebc
00000150: a6c0 24bc 1f7d 8ebd a7f9 053d a302 263c
00000160: c660 133a ebe1 fc3d 29e8 9d3d b971 143c
00000170: 9fb9 b83c 388f 0abe 5fdd 1a3e 7dd1 243e
00000180: 88c1 6bb8 b55f 103e 5a86 7b3c cd21 04be
00000190: 7880 963d 00e1 c4bc 93b2 013e d93f 513b
000001a0: 75bd 00bd e63a 72bd ee26 973d 4cd3 233d
000001b0: c1e2 09be 6dbf 193c 1982 043e 8ee8 fabd
000001c0: 95cb 4336 c8f9 f93d e8f3 45bd 381c 923a
000001d0: 464c b83d a64f f5b8 b861 08be 4e35 ab3d
000001e0: b86b 2c35 c64d bbbd fd48 febc e276 02bd
000001f0: c517 643c 753e 05be 0f3f 7e3d e242 1dbd
00000200: 66a2 913b 84f8 833c 8027 1bbd 6b17 4cbd
00000210: ffe4 05bc 73f1 a33d bbac 1a3a b77d 00be
00000220: c2bf 0ebe 75c3 3eb8 625c 4fbb 0f70 47bd
00000230: 859c 03b9 3d9d 47b9 3826 e33d d083 613c
00000240: f67a b337 188e eebc a04d a037 ff46 463d
00000250: 6668 f93d bff5 fdbd e313 553d eae4 3cbd
00000260: 55f9 e7ba 7f0b c83a 4fc7 b13d e8fe 04b9
00000270: 8e46 a5bd b3e4 a23d fc2f 88b8 72ac 783b
00000280: bd79 6fbb d775 b6bd ebce d13d 5deb 84be
00000290: 2c93 92bd 0f90 55bc 1cf8 1abe 10f4 8037
000002a0: 2ed6 1d3d 67a8 65be d3dd 63bd 65f7 1bbe
000002b0: 4a0f 92b8 631e 573d 0f30 9c3d 3a69 3a3e
000002c0: 6a48 6abc 3d6f 023e 9062 dabb b8fa 533d
000002d0: 7d21 293e d3b4 b1b8 b2f9 8f3d 26ed 16bd
000002e0: 9105 80bc c520 953d 2bc3 2cbc 9658 c8bd
000002f0: 4465 02b7 6408 1f3d 3a0e 1fbd 52bb 14bc
00000300: e053 b3bd 7489 c1bd 16cf 40be 206d d13d
00000310: 06a9 27b9 0cde cf3c 5e28 cbbb a8b7 a33d
00000320: cb28 233d 77d0 9ebd 9136 02be 24c2 b3bd
00000330: 976f 243d c223 313e f898 013e 2611 a23d
00000340: 7b98 d5bd e828 02b7 56ae 1bbe 024f 4e3e
00000350: b02b 0938 79d0 d9bd b328 3dbc bf1e 2f3e
00000360: c1bd 34be 6cad b138 10d2 003e 55fa fe3b
00000370: 66b3 003b 2d31 f63d 5dca d13c db2b 9fbd
00000380: 9816 d43c 1d26 423e 94ff 713d f97d 3cbe
00000390: 99a9 34b9 ece6 25be 37a1 1a3d deb9 ec3d
000003a0: 7e34 ac3d 5c0a b4bd 705c ca3d b9ce f93d
000003b0: b971 6bbc 70c6 22b7 e52f 3cbb 99e3 55be
000003c0: 9859 b6bb 989d 36b8 ca4b 39bc ee94 fe3c
000003d0: 4671 0db9 ae91 89bc c74f 1e3c 6a2f 73bd
000003e0: 9a04 c1bd ae9f 2c3e 5032 623d 6e32 363e
000003f0: 5cb6 6fb6 acb8 0836 09a7 1dbd 014c 413a
-0.09614529 -0.17720538 0.06572261 0.023958664 -0.15316217 0.038218528 -0.05350857 -0.1442532
-0.07649441 0.011805163 -0.0991844 0.052104156 -3.6506785e-06 -0.00046407495 0.1457112 -0.1981422
0.014244821 -0.0037069197 0.08080884 -0.15756428 0.00022053928 -0.019455623 0.07797507 0.08232182
0.034022715 0.042119723 0.005709128 0.09494884 -0.00380569 -0.0820379 0.10495783 0.13260949
0.06020898 -0.0050488277 0.06116845 0.14956997 0.016176848 -2.447121e-05 0.0017168577 0.16220464
0.00033066925 -9.614045e-06 -0.13559097 0.06422453 -3.3353604e-06 0.018189084 4.664182e-05 0.015496561
-0.036262006 -0.071676515 0.042065598 -0.09948652 0.00018594593 -3.399174e-05 0.066917524 -0.0009679891
0.1499237 -0.02714365 -0.012557091 0.003900581 0.0025393297 0.099811316 -0.11588053 0.031203499
0.06726715 -4.9101294e-05 0.06922427 -0.0003203464 -0.022993661 0.091095105 -0.17007019 0.01904405
0.002352324 -0.01732764 -0.099479824 -0.07205538 -0.07030703 0.00415817 0.010784776 0.0775547
-0.1292211 0.0007802135 -0.13161477 -0.023242477 -0.010055697 -0.06957459 0.03270879 0.010132465
0.00056220253 0.12347778 0.07710297 0.009060317 0.022549449 -0.13531196 0.15123509 0.16095538
-5.6208606e-05 0.1409901 0.015351856 -0.12903519 0.07348722 -0.02403307 0.12665777 0.0031928925
-0.03143068 -0.0591382 0.07380472 0.03999643 -0.13465406 0.009384018 0.12940253 -0.122513875
2.9175765e-06 0.12205845 -0.04832831 0.0011147326 0.08998923 -0.00011697346 -0.13318527 0.083597764
6.4231745e-07 -0.091456935 -0.031040663 -0.031851657 0.013921683 -0.13012107 0.062071856 -0.038393863
0.004444408 0.016109712 -0.037879467 -0.04982702 -0.008172273 0.08005037 0.00059003726 -0.12547956
-0.13940337 -4.5481564e-05 -0.0031640758 -0.04869085 -0.00012551442 -0.00019036695 0.11091274 0.013764337
2.1395721e-05 -0.02912049 1.9109633e-05 0.04840755 0.121781155 -0.12400388 0.05202092 -0.046116747
-0.0017698208 0.0015262215 0.08680593 -0.00012683461 -0.08070098 0.07953777 -6.493923e-05 0.0037944582
-0.0036541068 -0.08909195 0.102445446 -0.25960818 -0.07156977 -0.0130348345 -0.15133709 1.537244e-05
0.038534336 -0.22427522 -0.05563147 -0.15231092 -6.96467e-05 0.052519213 0.07626354 0.18204203
-0.014299491 0.12737747 -0.0066645816 0.051752776 0.16516681 -8.473699e-05 0.070300475 -0.036847256
-0.015627654 0.07281641 -0.010544579 -0.097825214 -7.772182e-06 0.03882636 -0.038831927 -0.009077864
-0.08756232 -0.09450045 -0.18828997 0.10225892 -0.00015989327 0.025374435 -0.0061998805 0.07994014
0.039833825 -0.07754605 -0.12716128 -0.08777264 0.040145483 0.17298797 0.12656009 0.07913427
-0.10429474 -7.758128e-06 -0.15203223 0.20147327 3.2704032e-05 -0.10635466 -0.011545348 0.17101572
-0.1765051 8.47232e-05 0.12580132 0.0077813067 0.001963818 0.12021098 0.02560919 -0.07772037
0.02588968 0.18959852 0.05908163 -0.1840743 -0.00017229318 -0.16201371 0.037751403 0.11558889
0.084084496 -0.087910384 0.09880912 0.12197632 -0.014370375 -9.702155e-06 -0.002871507 -0.20887603
-0.0055648796 -4.3538952e-05 -0.011309573 0.031076875 -0.00013489006 -0.016793098 0.009662575 -0.05937139
-0.09424706 0.16857788 0.055223763 0.17792675 -3.5719922e-06 2.0373072e-06 -0.038489375 0.0007373691

fc2.bias f4 [4]
00000000: 12d8 da3d 9e69 99bd b1ee 903d 2f84 6bba
0.106857434 -0.07490848 0.07076777 -0.00089842355

exp_avg f4 [100, 39]
00000000: ca35 0bb8 ba25 f7b8 8e0d 48b8 3e3c 9836
00000010: 6b2b 6b35 d04d 3bb6 c698 cb34 80c6 5734
00000020: 9026 2cb8 0a0c 9637 80a5 48b5 782b bc36
00000030: 443b 6c38 36e1 da37 ce5b 6538 6aec d4b8
00000040: e0e0 b9b4 a0ba 8236 18cd 05b8 2c83 03b8
00000050: 0fa3 b736 1028 3db8 dd55 8db8 3c01 5938
00000060: 50c9 9536 8754 84b8 0074 e735 a5ef 9eb8
00000070: 6872 a337 b249 f636 615d be36 0216 6b38
00000080: ef9c 7c37 58ad 0ab3 a8a4 37b8 c625 58b8
00000090: b05a ac36 c7a0 5f37 4ad4 7537 e859 06ba
000000a0: 4ce4 3cba 258b 5d39 b7f2 4938 6743 d837
000000b0: bd39 5f39 e0c3 95b6 a65f 5936 2a4f b2b9
000000c0: da0e 89ba e0b3 b536 3770 54b9 8884 393a
000000d0: f807 16b9 8013 b739 e431 00b8 d058 3738
000000e0: f3ed 9fb6 9cf7 ef37 c509 fc34 9e75 7f35
000000f0: 2e39 acba 4785 a0ba 007a f637 a527 97b7
00000100: 80a7 fa39 e4a3 d7b7 51ab fa38 d0aa 4039
00000110: 480b 9938 1245 1537 9a2d 14b8 b670 f437
00000120: 9ac6 0d36 e697 0239 2304 dcba 4b37 42b9
00000130: ed89 9eb8 404d 8e3a 7586 a538 b432 3738
00000140: f0a5 76b8 a00d 4cb8 8821 11b6 8422 c8b8
00000150: 950c 86b5 e9be 7bb8 061b 95ba c440 03ba
00000160: c990 163a 14d0 2539 3320 bfb9 cc41 7238
00000170: 15cd 39b9 8334 b1b8 3cfc 2c38 18a1 0338
00000180: bbdd 02b9 b5c1 86b7 0374 1536 8c53 5839
00000190: 5d5b 5ab9 955e 1939 491c d337 4772 de39
000001a0: a81d 5739 acdf 8eb9 f829 93b7 e5fd 14b9
000001b0: 7c3f 40b5 29d2 2cb9 2cc0 a034 aa80 7bb8
000001c0: 9bac 62ba 4dcc 8d3a bb6a f739 9b87 3238
000001d0: 3926 69ba 3d8d 30b9 18d8 29ba 6714 8cb9
000001e0: 6275 deb8 11c8 01b8 3691 0eb9 b420 8637
000001f0: 0933 65b6 d723 89b9 115d 82b9 7298 3fb9
00000200: 10b2 dab8 2963 b238 d783 0cba 7c94 2b39
00000210: da4f 3eb9 49f5 0e39 d556 85b6 1906 38b9
00000220: 898a abb5 7a0e b537 3337 8cba 1bf0 25ba
00000230: f823 27b9 0820 b0b8 2062 e9b8 20b8 74b8
00000240: 9307 5db9 f6d7 70b9 9c1e 2638 331c c3b6
00000250: f813 87b9 50d6 f0b5 9be9 77b6 d765 97b9
00000260: a7d5 43ba 774b 53b9 fabb 0ab9 d24e 1539
00000270: 6293 40b9 27b6 073a d6cd 0d3a df97 aa38
00000280: ce0c 4237 c2d0 003a 75f0 0b37 571e 6a37
00000290: aac0 3c3a 7e0f 3139 9378 9bb9 73ae 1fb8
000002a0: f30f 383a 0227 e739 e75a 963a c75d 413a
000002b0: 6ab0 6b39 9795 5836 d2d9 283a f6f9 a736
000002c0: dc32 cdb6 c28f b639 2b1c 5939 5fc7 e938
000002d0: 796d 1c38 f529 593a a069 7539 1c90 803a
000002e0: a5ca 043a 16ff 3339 4252 6f37 bd1f 0e3a
000002f0: 9742 93b7 9c01 0a37 4b14 ae3a 5edc 2dba
00000300: 4b2c 8db9 09c0 4fb7 e096 a43a ba50 f239
00000310: de6e d03a 6240 4a39 ea8b 1e39 bf10 4237
00000320: 8f70 c439 563e 69b8 e82e 0637 60d5 ce39
00000330: a45c bf39 3f7a 4838 54d0 7438 55b9 d6b8
00000340: 7730 fc39 373a 89b9 1174 f539 9a71 12b9
00000350: 8c63 4437 a0d6 e639 f4c6 9d37 a8d4 0bb8
00000360: 2bbd 1c3a c88e 9d3a 36ed 3138 6071 8137
00000370: f342 58ba b0e9 2239 ba3d e3b8 069d 7839
00000380: 8849 8e38 586d dd36 78b4 b339 7b82 d035
00000390: 7645 1cb8 ec0d 0939 ba26 163a 1930 7139
000003a0: 60a5 9f37 7e26 78b9 0aa4 4cba 3ecb ba39
000003b0: a439 32ba 0810 3c39 e823 9938 f47c 1aba
000003c0: bf4d bcb5 3080 d137 f293 3bba dcce c4ba
000003d0: 9438 8138 a40e 20b7 e2e2 b7b9 6afd 3739
000003e0: be2c ccba caa7 a3b8 3259 7ab8 59c0 8a36
000003f0: bd78 6ab9 0208 0e36 057d a7b6 7ebe 43b9
-3.3190277e-05 -0.00011784905 -4.769634e-05 4.536966e-06 8.7607503e-07 -2.7910464e-06 3.7922854e-07 2.0095649e-07
-4.104391e-05 1.7887e-05 -7.474664e-07 5.607897e-06 5.632198e-05 2.6092497e-05 5.4683354e-05 -0.00010152983
-3.4622553e-07 3.896028e-06 -3.190068e-05 -3.1354997e-05 5.4728075e-06 -4.5098423e-05 -6.739397e-05 5.173798e-05
4.463982e-06 -6.309995e-05 1.7244602e-06 -7.5786644e-05 1.9484389e-05 7.3399506e-06 5.673312e-06 5.6048862e-05
1.5056909e-05 -3.2288284e-08 -4.3783948e-05 -5.1533592e-05 5.136557e-06 1.332927e-05 1.4652565e-05 -0.00051250914
-0.000720565 0.00021128038 4.814818e-05 2.5780593e-05 0.00021288446 -4.463349e-06 3.2391195e-06 -0.00034009787
-0.0010456697 5.4151606e-06 -0.00020259699 0.00070769386 -0.00014308083 0.0003491901 -3.0564042e-05 4.3713313e-05
-4.76627e-06 2.8606322e-05 4.6945766e-07 9.516606e-07 -0.00131396 -0.0012246751 2.9382296e-05 -1.8019064e-05
0.00047808513 -2.5706315e-05 0.00011952839 0.0001837418 7.29771e-05 8.897174e-06 -3.532842e-05 2.9139552e-05
2.1126239e-06 0.00012454353 -0.0016785901 -0.0001852188 -7.559718e-05 0.0010856763 7.892858e-05 4.367782e-05
-5.880551e-05 -4.865008e-05 -2.1626201e-06 -9.543172e-05 -9.98744e-07 -6.0020862e-05 -0.0011375851 -0.0005006904
0.00057436206 0.00015813141 -0.0003645435 5.7758574e-05 -0.00017719374 -8.449799e-05 4.1242907e-05 3.1382864e-05
-0.00012480367 -1.6064247e-05 2.2270258e-06 0.00020630489 -0.00020824136 0.00014626452 2.5166331e-05 0.00042428283
0.00020515046 -0.00027251 -1.7543309e-05 -0.00014208963 -7.1617956e-07 -0.00016481489 2.9942146e-07 -5.996289e-05
-0.0008646936 0.0010818333 0.00047191032 4.25648e-05 -0.000889394 -0.00016837283 -0.0006479039 -0.00026718082
-0.00010607649 -3.0942323e-05 -0.0001359627 1.5989273e-05 -3.4153366e-06 -0.0002615738 -0.00024864872 -0.0001827197
-0.00010428217 8.5061714e-05 -0.0005360222 0.00016363146 -0.00018149559 0.00013633551 -3.9738175e-06 -0.00017549879
-1.2780812e-06 2.1583623e-05 -0.0010697603 -0.0006330029 -0.0001593976 -8.3983e-05 -0.00011128583 -5.8345613e-05
-0.00021079024 -0.00022968635 3.960599e-05 -5.8147357e-06 -0.00025764084 -1.7943767e-06 -3.6941844e-06 -0.0002887684
-0.00074704963 -0.00020150641 -0.00013230732 0.0001423911 -0.00018365451 0.0005176984 0.0005409395 8.13452e-05
1.1566282e-05 0.000491392 8.341031e-06 1.3954551e-05 0.000720034 0.00016885807 -0.0002965374 -3.8071023e-05
0.00070214196 0.00044088817 0.0011471183 0.00073763396 0.00022477066 3.227358e-06 0.0006441149 5.006087e-06
-6.115397e-06 0.00034820853 0.00020705226 0.000111474415 3.7295253e-05 0.0008284145 0.00023404369 0.0009808573
0.0005065597 0.00017165797 1.4264662e-05 0.00054215995 -1.7554774e-05 8.225816e-06 0.0013281194 -0.00066322635
-0.00026926617 -1.2382873e-05 0.0012557171 0.00046217983 0.0015902182 0.00019288206 0.00015120176 1.15672e-05
0.00037467896 -5.5609584e-05 7.997944e-06 0.0003945036 0.00036499382 4.7797566e-05 5.8368154e-05 -0.00010238836
0.00048101295 -0.0002617405 0.00046816518 -0.00013965965 1.1705688e-05 0.00044028927 1.8808503e-05 -3.3338234e-05
0.0005979116 0.0012020702 4.242101e-05 1.5430793e-05 -0.00082497223 0.0001553658 -0.00010835701 0.00023709619
6.784784e-05 6.5990425e-06 0.00034276 1.5535182e-06 -3.725799e-05 0.00013070524 0.00057278166 0.00023001469
1.9031286e-05 -0.00023665463 -0.0007806426 0.00035628112 -0.000679875 0.00017935049 7.3022966e-05 -0.0005893253
-1.4029719e-06 2.4974433e-05 -0.00071555295 -0.0015015262 6.161738e-05 -9.540152e-06 -0.0003507352 0.00017546644
-0.0015577299 -7.803699e-05 -5.9687714e-05 4.1351127e-06 -0.00022360958 2.116431e-06 -4.991542e-06 -0.00018667613

exp_avg_sq f4 [100, 39]
00000000: fa97 0b31 5638 7d32 ec36 f731 18a4 8f2f
00000010: 18fd 762e 7992 0a32 4178 162e e165 912b
00000020: 44e2 eb30 102d 7131 aa0d 9530 de9c 0e2f
00000030: 3287 cb31 f65b b930 f87a ed32 c744 1932
00000040: d5c3 3530 fc62 5f2f ae10 2032 3248 2930
00000050: 199d 3b2f 9b8f 3731 8adb ac31 1dc9 4731
00000060: ead1 a12d a629 c231 b657 d830 9c75 9632
00000070: a777 1b32 c573 1430 3750 562f 585a 3632
00000080: 0445 b02f 6558 7d2b f7cd 2231 082c 3631
00000090: 76fa fd30 7ca8 2c2f 779d 6131 1f33 c033
000000a0: 6377 6235 aa06 9434 5a22 3132 d80b 1a30
000000b0: 49d2 9934 4d12 622f 2d31 ce2e 4366 cc34
000000c0: 00df 5435 247f ed32 2d5b ac31 2310 a334
000000d0: 6e1d d733 fed1 7c35 20e1 d734 046f 6032
000000e0: fed1 4e2f c240 e034 50db bd2d 2d8b 392f
000000f0: 0b30 0235 ff09 5035 c8a9 ec32 2f4e f12f
00000100: d358 a434 48d7 d133 d248 4735 df57 b434
00000110: 179a 3532 1916 a92f 599e b534 e597 1230
00000120: 89bf 522e 515b ba34 5e97 5235 a697 1133
00000130: d5ea 7430 1c6e bc34 e136 0133 7e5b 9f34
00000140: 86cf 0634 4462 8c31 1590 352e 0348 0b34
00000150: bdd9 572e 5790 9b30 aad7 1f34 e354 0a34
00000160: 5d5e b432 c169 c130 5782 c433 8c75 1f33
00000170: 172c db34 6081 3334 e0da aa31 828d c92f
00000180: 4517 3b34 1955 d12f 5199 0c2e 308b 0f34
00000190: 3566 2334 9f8c 3e32 5b1a 1c30 8996 ac33
000001a0: 0df0 4a33 c08c a634 3907 1934 34fd bd31
000001b0: 5a4f 452e eb60 2234 5730 a92d 30a0 a830
000001c0: 755a 1b34 c7ae 3034 6161 a332 8e69 eb2f
000001d0: 4e86 f833 208e b232 904e 7d34 078c c533
000001e0: 2b1f a031 c5e9 3e30 5ee1 d833 8dd1 b72f
000001f0: 05da 272e e2bd 0934 0574 1434 cfd3 3932
00000200: 0809 9530 54d2 9533 3582 0e33 fe26 ae34
00000210: 9fdb 0334 579e 1732 28e6 842e 1bca 0834
00000220: 62a1 9b2e 1730 ec2f c104 5534 8022 4634
00000230: 0eff 2332 8b2c b230 b6a5 d033 d987 fb32
00000240: dd97 7d34 12aa e133 3308 a431 1443 cd2d
00000250: 0f9d e533 a410 132e d833 c22d a218 f533
00000260: e2e0 1d34 1505 2b32 dbf7 0431 4e8d 9b33
00000270: 30f5 8133 be0b f534 a94d 2f34 7777 e631
00000280: 361e a22e ed2d 3534 0ef4 e52e 6441 fe2e
00000290: 5af8 7b34 fe56 a134 7d5d 0633 8300 2330
000002a0: e23f 0834 d808 8233 e3bd 1035 b805 7b34
000002b0: dfa1 2732 586f 3d2f 37e8 7b34 2770 792e
000002c0: bc06 d82f 3cca 9b34 74f4 aa34 7662 8232
000002d0: 4d79 1430 8e2d 1b34 4a33 7b33 3b79 e534
000002e0: 5017 4b34 0495 cb31 1b36 ba2e 1392 5134
000002f0: 4a0e 0330 a9a5 052e 9cd5 9234 aa35 aa34
00000300: 6c76 0033 522c a530 813b 2b34 21a7 9f33
00000310: 0b88 7d35 3d79 be34 859b 5832 556c cd2f
00000320: 3777 be34 f2aa 9c30 7c68 992f 35df f534
00000330: 6597 1235 7bb4 3b33 5d95 9630 4785 9934
00000340: 2c52 d033 47f1 b035 4d6b ff34 eac4 e632
00000350: 5df0 802f 37c8 0435 96fa ce2f b0ef 5530
00000360: a32a be34 c4f7 4f35 7308 0633 8146 ee2f
00000370: d398 0435 c899 0034 9351 8235 59c4 df34
00000380: e982 3832 5843 c52e 67a2 df34 8b76 ca2d
00000390: fdec 5530 7e99 be34 cb91 fc34 7016 1433
000003a0: 799f 1830 d353 9e34 ca28 5133 52af f934
000003b0: b2a8 3734 560c 1432 35e8 8e30 2d7d 3934
000003c0: 9b02 fd2e b07e 3430 a923 3334 ac9e 8b34
000003d0: d9c7 a132 4854 0930 0d52 df33 9653 5533
000003e0: d951 2735 1eec 5334 2475 0932 ebec 082f
000003f0: 50f9 5a34 0d34 482f 237c 9b2e f625 7f34
2.031355e-09 1.47393475e-08 7.19489e-09 2.6128144e-10 5.6158717e-11 8.065961e-09 3.4212858e-11 1.0331147e-12
1.7162809e-09 3.509573e-09 1.084506e-09 1.2970555e-10 5.9234475e-09 1.3486658e-09 2.7646351e-08 8.92141e-09
6.612571e-10 2.0316898e-10 9.317018e-09 6.158444e-10 1.7063363e-10 2.6711635e-09 5.0308175e-09 2.907263e-09
1.8396801e-11 5.650878e-09 1.5740997e-09 1.751578e-08 9.049393e-09 5.4006605e-10 1.9491685e-10 1.0614336e-08
3.2063252e-10 9.000633e-13 2.369118e-09 2.6509515e-09 1.8479358e-09 1.5703167e-10 3.2831318e-09 8.9499956e-08
8.436529e-07 2.7571997e-07 1.0310567e-08 5.6041705e-10 2.8651473e-07 2.0561082e-10 9.376531e-11 3.8072366e-07
7.930066e-07 2.7648248e-08 5.0162243e-09 3.0372857e-07 1.0017071e-07 9.4182894e-07 4.021067e-07 1.3063758e-08
1.8810195e-10 4.177037e-07 2.1584207e-11 1.6875097e-10 4.8498686e-07 7.7500584e-07 2.7551224e-08 4.3893197e-10
3.0612009e-07 9.77148e-08 7.4239244e-07 3.3591547e-07 1.0570623e-08 3.0756622e-10 3.382909e-07 5.3330346e-10
4.791859e-11 3.471164e-07 7.8451365e-07 3.3898367e-08 8.91004e-10 3.5097844e-07 3.0085065e-08 2.9682627e-07
1.2555219e-07 4.0857078e-09 4.1282606e-11 1.2971581e-07 4.907873e-11 1.1318758e-09 1.4886487e-07 1.2883133e-07
2.099767e-08 1.4072655e-09 9.15067e-08 3.712698e-08 4.0824008e-07 1.671774e-07 4.9725344e-09 3.6662234e-10
1.7424198e-07 3.8077344e-10 3.1968487e-11 1.3368549e-07 1.521774e-07 1.1091429e-08 5.678992e-10 8.036756e-08
4.7250115e-08 3.102232e-07 1.4251863e-07 5.52941e-09 4.4863092e-11 1.5122684e-07 1.9234543e-11 1.2269137e-09
1.4468408e-07 1.6454861e-07 1.901998e-08 4.2821252e-10 1.157283e-07 2.0786558e-08 2.3591042e-07 9.198998e-08
4.6601563e-09 6.9453804e-10 1.0099278e-07 3.34364e-10 3.8165044e-11 1.2828198e-07 1.3825782e-07 1.0816577e-08
1.0843744e-09 6.9766116e-08 3.3180374e-08 3.2438396e-07 1.2280223e-07 8.825359e-09 6.043549e-11 1.2739513e-07
7.077251e-11 4.296232e-10 1.98389e-07 1.8452738e-07 9.5458415e-09 1.2963864e-09 9.7158974e-08 2.9282022e-08
2.3617709e-07 1.05083146e-07 4.7739603e-09 2.333559e-11 1.0692212e-07 3.343871e-11 2.207827e-11 1.1413182e-07
1.4703576e-07 9.9546655e-09 1.9349418e-09 7.243453e-08 6.05163e-08 4.564335e-07 1.6326398e-07 6.7074626e-09
7.3722736e-11 1.6873646e-07 1.0457067e-10 1.15621984e-10 2.3466546e-07 3.0051882e-07 3.1284333e-08 5.929978e-10
1.2689227e-07 6.0552054e-08 5.39205e-07 2.3378277e-07 9.757485e-09 1.7229007e-10 2.3460676e-07 5.6715656e-11
3.9294956e-10 2.9018145e-07 3.184283e-07 1.5178767e-08 5.4014465e-10 1.4452073e-07 5.848714e-08 4.274278e-07
1.891433e-07 5.9250187e-09 8.467912e-11 1.9517783e-07 4.767783e-10 3.0387835e-11 2.735004e-07 3.1704013e-07
2.9910026e-08 1.2017927e-09 1.5947263e-07 7.434415e-08 9.4447813e-07 3.547847e-07 1.2608216e-08 3.7366257e-10
3.5476998e-07 1.139908e-09 2.7904778e-10 4.579721e-07 5.4609546e-07 4.3703476e-08 1.0956388e-09 2.8595443e-07
9.700702e-08 1.3183243e-06 4.7575523e-07 2.686507e-08 2.3453853e-10 4.9465183e-07 3.7649234e-10 7.7829565e-10
3.542128e-07 7.7474056e-07 3.120699e-08 4.3342044e-10 4.939622e-07 1.1976874e-07 9.709496e-07 4.1679849e-07
1.0739975e-08 8.9704855e-11 4.165515e-07 2.3017385e-11 7.782573e-10 3.5501938e-07 4.7044736e-07 3.4479342e-08
5.55239e-10 2.9490784e-07 4.8698702e-08 4.6507427e-07 1.7104574e-07 8.617539e-09 1.0397857e-09 1.7275006e-07
1.1505571e-10 6.566365e-10 1.6683647e-07 2.6006217e-07 1.8833747e-08 4.996008e-10 1.0399172e-07 4.9668948e-08
6.233145e-07 1.9736805e-07 8.001084e-09 1.2453298e-10 2.0393531e-07 1.8208386e-10 7.070635e-11 2.3762536e-07

exp_avg f4 [100]
00000000: 83d0 61b9 20df 193a b016 58b8 a8d8 8939
00000010: 389e c83a 7eb0 efb9 ea35 efba 7cea 9538
00000020: e020 293a 3fdc 65b8 c7fa 413b 3c6b d7b9
00000030: b2e4 0f37 7cb3 5c3a f8b1 b438 664a 79ba
00000040: 9e1b 7a3a 9c58 afb6 0134 16ba 9f32 0b39
00000050: 828e 5db8 9c57 543a 3840 0fb9 c48f 2b39
00000060: 3678 ff38 561b ec39 50b6 e538 171c 1a3a
00000070: 39a0 3538 a698 d83a ef37 5fba 39ab d9ba
00000080: 4b41 0839 ea6b aa38 f171 c4b9 5e7e 1e39
00000090: ecfc 013a 8103 40b4 185d 16b6 9653 103a
000000a0: b11c e6b5 b1c0 6034 bc77 73ba b1d7 02b8
000000b0: 6dad 73b8 cb3e f538 183d 5732 e457 8739
000000c0: 109c 30b9 cb71 a3ba 2c26 4ab9 a6a7 e2ba
000000d0: 5c45 4eb8 2dc9 0cb7 b836 d5b8 861c 82b6
000000e0: 212f 0439 7d1e 363a cc07 8631 4b49 07b7
000000f0: d7b3 06b8 b194 23ba 2330 1eba 2976 89ba
00000100: 480b 88ba 8312 7fb8 ecc0 94ba 8a22 7736
00000110: 463f 4038 d84a 60ba 842e a2b9 981d 5eb9
00000120: 4e61 abb7 86af c3b8 7647 88ba 6ca3 fdb9
00000130: 7640 b838 4fe3 b8ba 5af0 22b8 b4f7 21ba
00000140: aa3b deb9 4fac eab6 3c4f 263b 142b a139
00000150: c432 9d39 f702 ed39 97ed 3838 9a8e 2db9
00000160: d245 03b8 e011 d3b9 281b 113a 0feb 5fb9
00000170: ed94 313a 50df a13a 58e9 e7b8 4255 253a
00000180: 99a5 ac37 1186 ecb9 335a 78b8 e86b 4f3a
-0.00021535349 0.0005869735 -5.1519542e-05 0.00026292098 0.0015305942 -0.0004571713 -0.001825032 7.14855e-05
0.0006451737 -5.4802975e-05 0.0029598938 -0.0004108789 8.5767115e-06 0.0008419079 8.616218e-05 -0.00095096824
0.00095408584 -5.225722e-06 -0.0005729795 0.00013274931 -5.2823227e-05 0.0008100213 -0.00013661466 0.00016361388
0.000121817386 0.00045033795 0.00010953529 0.00058788195 4.330298e-05 0.0016524985 -0.00085151097 -0.0016606814
0.00012994294 8.126332e-05 -0.00037468926 0.0001511513 0.0004958648 -1.7882668e-07 -2.240593e-06 0.00055056193
-1.7144686e-06 2.0931726e-07 -0.0009287556 -3.1195294e-05 -5.809723e-05 0.000116942065 1.2528538e-08 0.0002581469
-0.00016842806 -0.0012469826 -0.00019278441 -0.0017292395 -4.9178823e-05 -8.39149e-06 -0.000101668236 -3.8776225e-06
0.00012606058 0.0006947292 3.9007997e-09 -8.063692e-06 -3.211558e-05 -0.0006240113 -0.00060343946 -0.0010487485
-0.0010379339 -6.0813978e-05 -0.0011348999 3.6825973e-06 4.5835295e-05 -0.00085560745 -0.00030933705 -0.00021182594
-2.04301e-05 -9.3310184e-05 -0.0010397274 -0.0004837768 8.7858105e-05 -0.0014105829 -3.8847655e-05 -0.0006178573
-0.00042387593 -6.993803e-06 0.0025376817 0.0003074041 0.00029983197 0.00045206372 4.409029e-05 -0.00016551689
-3.129786e-05 -0.00040258374 0.00055353576 -0.00021354503 0.0006774206 0.0012349878 -0.00011058402 0.0006306955
2.058111e-05 -0.00045113315 -5.9211812e-05 0.00079125026

exp_avg_sq f4 [100]
00000000: d56c f732 7119 e535 4b45 2635 8fd3 1e35
00000010: b5ce 8335 9565 1636 79da 8235 581c 9935
00000020: 1a6f 0e35 3cad 9c30 b63c 1236 5dc8 d735
00000030: 56ab 6e2f 4106 4435 d65f a034 2c99 1b35
00000040: 01ac 7c35 3437 342f b1d0 8735 5161 8e35
00000050: 14ea 9530 8d54 2e35 0a96 3c32 4cfa c033
00000060: cff9 6a33 de96 1736 e760 ad33 6fc9 7035
00000070: eb43 6e30 4907 2635 a29b 1e34 9496 ba35
00000080: b1ef 8834 09b2 2235 f042 7e35 6273 b734
00000090: bbd9 8c34 f97a 0f2e b153 f92e fd33 8235
000000a0: cf70 e32e 5d8d 4f2e 0c5f 6d35 39af a932
000000b0: af34 a830 f00c 2334 59ea c12b 7f0a 1f35
000000c0: 2d66 4933 e2d6 ba35 d47f 0035 53ff a935
000000d0: bbca 8930 c974 6b2f 45be 8434 298c 4c2f
000000e0: db73 6735 779d 4635 3429 252b 60c5 652f
000000f0: 65ed f431 e4f1 6b35 e50c 2634 b9c8 6d35
00000100: a54f 0d34 79f9 b130 fd19 2835 c15f 182f
00000110: 1403 0334 74ba e835 bf63 4c35 f4cf 0536
00000120: c68d e22f e652 f930 987f d735 888c 8135
00000130: b665 b433 2349 be35 fe33 5d30 4a70 1935
00000140: 816c c035 1332 532f fc1c 0936 fe13 6934
00000150: 25d9 4735 09b5 7735 31ec 1232 c62f 6034
00000160: d6ba 2830 14f0 9f35 ba67 0835 7fe0 8034
00000170: d33c 9835 a97f aa35 b55e ec34 b2c9 3c35
00000180: 5a85 ef2f 3afc 0135 c62d 5032 a59d 9335
2.8804076e-08 1.7069234e-06 6.1940653e-07 5.9167445e-07 9.82042e-07 2.241087e-06 9.749339e-07 1.1407637e-06
5.3060796e-07 1.139973e-09 2.1791034e-06 1.6077062e-06 2.1706845e-10 7.302479e-07 2.9872052e-07 5.7964894e-07
9.4127614e-07 1.6390517e-10 1.0119021e-06 1.0608147e-06 1.0907706e-09 6.494309e-07 1.0977155e-08 8.9862255e-08
5.470957e-08 2.258857e-06 8.073567e-08 8.970009e-07 8.6680413e-10 6.185042e-07 1.4771516e-07 1.3901904e-06
2.5506372e-07 6.060878e-07 9.471978e-07 3.4170358e-07 2.6235452e-07 3.2623657e-11 1.13380756e-10 9.700885e-07
1.0342804e-10 4.7191907e-11 8.842769e-07 1.9753871e-08 1.2238582e-09 1.5185265e-07 1.3778519e-12 5.924739e-07
4.6891888e-08 1.3920619e-06 4.786973e-07 1.266579e-06 1.0025681e-09 2.1414616e-10 2.4725355e-07 1.8603487e-10
8.62228e-07 7.398989e-07 5.8676957e-13 2.089755e-10 7.1283233e-09 8.789632e-07 1.5464646e-07 8.858147e-07
1.3160623e-07 1.2949349e-09 6.2622695e-07 1.3858338e-10 1.2201446e-07 1.7339612e-06 7.614107e-07 1.993959e-06
4.1209897e-10 1.8140696e-09 1.6055883e-06 9.652149e-07 8.400404e-08 1.4177389e-06 8.0473217e-10 5.7160344e-07
1.4336694e-06 1.9208128e-10 2.0431462e-06 2.1707089e-07 7.4449264e-07 9.227811e-07 8.552022e-09 2.0879006e-07
6.1383554e-10 1.1916295e-06 5.081489e-07 2.40052e-07 1.1342585e-06 1.2703141e-06 4.4027334e-07 7.0328963e-07
4.35686e-10 4.842328e-07 1.2117601e-08 1.0998234e-06

exp_avg f4 [4, 100]
00000000: a07b b338 c5ee 1c3b 3150 bdba 3776 f939
00000010: 59e5 093b b4a9 05b9 5c30 6a3a e0ae f23a
00000020: d43f 6e3a 63a1 7f37 343e 5e3a 01c4 89ba
00000030: 53ca abb2 9282 47ba 122d 42bb 6f3d 0b3a
00000040: d006 113a ae6c bfb6 0e64 73ba 2c87 123b
00000050: b9ae 0234 301f bf39 6c0b 1db9 320f 9aba
00000060: f842 9b39 3123 2eb8 cbd4 cc36 3f8f 81ba
00000070: b295 c3b6 3c8e 47ba f9dc 13ba c394 9cba
00000080: 1339 98b9 a391 9a3a da7d 31ba d902 0cba
00000090: be44 98b9 7c35 d433 e2a4 5036 d645 1cbb
000000a0: 3a0d 8f35 00e5 aa2e cc93 df3a 885f d4b8
000000b0: d792 e8b0 debd 9c37 0ad2 1735 dec4 6139
000000c0: 445a 0638 8ccf bf3a b8a6 5eb8 148e 033b
000000d0: ec27 2eb3 f058 17b3 105d 26bb aa7e ff35
000000e0: cee8 81ba 5289 e33a e1eb 86b7 2a92 c736
000000f0: 3a20 3636 b48e 3bbb 8884 023a 2e0d 8bba
00000100: 9d18 0dba 45f5 5eb2 1856 23bb a4bf 8cb5
00000110: dd28 173b 437e 13bb 1909 3a3a 0e70 5839
00000120: 9af9 8436 c798 f436 5e4b 4c3b 5c80 043b
00000130: 5d00 99b8 b072 9b39 1d04 a2b8 6dd7 f3ba
00000140: c640 de3a dadf ed35 418a 1dba f4ea e8ba
00000150: 4b66 723b ee86 bb3a d82c d8b9 040b 3e3a
00000160: 9005 c135 b72f 36bb 06b5 f7ba 5e92 23ba
00000170: 5221 a33a 9de7 9e3a 524c 4fba 4073 8fba
00000180: fbc7 ecb4 01b3 0cbb d554 9e37 eae1 863a
00000190: cda9 81b8 6776 373a d3ea e8ba c830 0e3a
000001a0: 0e46 01ba 7104 d5ba dab1 d6b9 635e 97b9
000001b0: c696 503b b158 5137 50ce 0339 f617 af3a
000001c0: 5632 8330 5886 b7b8 1a69 123b 8d84 35b9
000001d0: 9a13 e939 e279 7134 527e 353b 4e5c b0b9
000001e0: bbbb d030 ffb1 9f3a d65a 4f39 2abe 4b39
000001f0: 528c 033a a52e 323b 4886 8838 ea5a a2b8
00000200: 0f3b de36 7daf 813a e8f9 c638 fa70 873a
00000210: 0956 f438 3a68 8eba 4c1f a8ba f9a3 d439
00000220: 8194 a03a a129 e4b2 0257 a8b6 ca52 7939
00000230: 066f 71b4 e2f8 70b4 f8c7 8dba 6d23 d238
00000240: 3d91 2bb3 b00d f8b7 3460 35b3 3d11 c13a
00000250: f70a 56b9 ec91 313b b737 ddba f01c f7b7
00000260: ef80 55b6 7600 3f36 65fa b83a 9617 3cb5
00000270: 907d a73a d125 3e3a c564 9eb3 bc1c c336
00000280: 6603 9ab6 4c17 b83a 20ef 2db9 9a21 203b
00000290: cc82 c439 526b 8bb7 670c 143b 0e82 44b3
000002a0: 2673 4abb de4c 923b a55f 843a 193c 533b
000002b0: bda6 4fb4 6301 62b8 8d1e b4ba f0d9 7cbb
000002c0: 2220 73b7 46c2 39bb b8a4 19b6 c175 2cba
000002d0: f017 0abb 5a87 12b3 d709 bf3a 202c 7738
000002e0: f41c 2e38 68b3 dbba d352 4839 607f 3c3a
000002f0: 2166 5a30 1564 243a 29e1 ca3a 5b38 6bba
00000300: 830d 94ba 539a 293b 53fd 5a3a 3328 1dba
00000310: 40b9 28b4 dc95 3fba 885c fcb6 aa9f afba
00000320: c947 93b8 ee4a ac3a 37f4 063b 79f8 493b
00000330: 482a 9d3a 2e06 3dba 08cc d0ba d719 b4b9
00000340: 0817 693a ab9f 13b4 f055 e439 4cbe f5ba
00000350: c120 1d32 852b 143b a76a c73a 0434 6dba
00000360: 1a9b ab3a bc89 1033 0bb3 ccba e32b 6ab9
00000370: f329 6736 1514 cbba ae74 50b8 2db1 7e3a
00000380: 9c2c 7d3a 8660 0fbb be08 7d38 9824 df3a
00000390: 782b b033 6138 763b ec2a c0b8 8867 19bb
000003a0: 2ccd a436 428d 603b 17a5 473a c0bb 0fb9
000003b0: e21a 8b39 256a 1b32 7cb9 9bb6 1390 4e3b
000003c0: da09 06b7 921d fab2 b874 21ba f156 17b9
000003d0: bdcc 74b4 5fc3 90b7 a1b7 5637 c806 0b3a
000003e0: 4ff3 1a38 6175 36ba 669c a438 8c45 dfba
000003f0: 7083 b831 7953 4cb2 6b2c 463b 967f 73b6
8.558412e-05 0.0023946029 -0.0014443455 0.00047581058 0.0021041243 -0.00012747088 0.0008933598 0.0018515252
0.00090884906 1.523676e-05 0.0008477897 -0.0010510684 -1.9999026e-08 -0.0007610704 -0.0029628915 0.00053115835
0.0005532326 -5.7048956e-06 -0.00092846237 0.00223584 1.2170757e-07 0.00036453595 -0.00014976942 -0.0011753796
0.000296138 -4.1517607e-05 6.104446e-06 -0.000988461 -5.8288797e-06 -0.0007612442 -0.00056405325 -0.001194619
-0.00029034223 0.0011792671 -0.00067707675 -0.00053410005 -0.00029042916 9.881748e-08 3.109039e-06 -0.0023845336
1.065818e-06 7.7713835e-11 0.0017057597 -0.00010126742 -1.6921956e-09 1.8685063e-05 5.655753e-07 0.00021531011
3.2032156e-05 0.0014633997 -5.3084193e-05 0.0020073699 -4.054884e-08 -3.5238315e-08 -0.002538506 1.9035845e-06
-0.00099113 0.001735965 -1.6083884e-05 5.947678e-06 2.7138872e-06 -0.0028618993 0.0004978855 -0.0010608786
-0.0005382391 -1.2977869e-08 -0.0024923142 -1.0486588e-06 0.0023065128 -0.0022505678 0.00070966926 0.00020641109
3.962964e-06 7.2895523e-06 0.0031172852 0.002021811 -7.295676e-05 0.00029649353 -7.725528e-05 -0.0018603631
0.001695656 1.7723025e-06 -0.0006009676 -0.0017770217 0.003698724 0.001430718 -0.00041232142 0.0007249566
1.438124e-06 -0.0027799436 -0.0018898554 -0.0006239767 0.0012445843 0.001212347 -0.0007907796 -0.0010944381
-4.410393e-07 -0.0021469 1.887457e-05 0.0010290716 -6.182827e-05 0.00069985393 -0.0017770178 0.0005424139
-0.00049313984 -0.0016251934 -0.0004094977 -0.00028871288 0.003182815 1.2478021e-05 0.00012569991 0.0013358581
9.545811e-10 -8.7511435e-05 0.0022340477 -0.00017310884 0.00044455827 2.2489215e-07 0.00276937 -0.00033638108
1.5187348e-09 0.0012183784 0.00019774897 0.0001943043 0.0005018163 0.0027188447 6.509997e-05 -7.741696e-05
6.622991e-06 0.0009894219 9.4879244e-05 0.0010333352 0.00011650852 -0.0010864802 -0.001282671 0.0004055796
0.0012251289 -2.6561624e-08 -5.016919e-06 0.00023777332 -2.2485264e-07 -2.2442285e-07 -0.0010817042 0.00010020179
-3.9946134e-08 -2.9570278e-05 -4.2229843e-08 0.0014729869 -0.00020412715 0.0027095033 -0.0016877566 -2.945817e-05
-3.1814523e-06 2.8461486e-06 0.0014112709 -7.006978e-07 0.0012778509 0.000725356 -7.375778e-08 5.814798e-06
-4.5899533e-06 0.0014045029 -0.00016587647 0.002443409 0.00037481484 -1.6620066e-05 0.00225904 -4.575309e-08
-0.0030891388 0.0044647297 0.0010099305 0.0032231866 -1.9339036e-07 -5.388389e-05 -0.0013742015 -0.003858205
-1.449141e-05 -0.0028344556 -2.2894656e-06 -0.0006578826 -0.0021071397 -3.4116376e-08 0.0014575076 5.8930484e-05
4.1511797e-05 -0.0016761841 0.00019104341 0.0007190611 7.945307e-10 0.0006271017 0.001547848 -0.0008972936
-0.0011295531 0.0025879338 0.0008353788 -0.0005995065 -1.5713613e-07 -0.00073084026 -7.5209573e-06 -0.0013399024
-7.022877e-05 0.0013144889 0.002059234 0.0030818267 0.001199075 -0.00072106987 -0.0015929947 -0.00034351528
0.00088916766 -1.3748529e-07 0.00043551577 -0.001874873 9.14605e-09 0.0022608947 0.001521428 -0.00090485835
0.0013092489 3.365288e-08 -0.0015617324 -0.00022332328 3.44461e-06 -0.0015493656 -4.969973e-05 0.00097157323
0.00096578314 -0.00218776 6.0328042e-05 0.0017024456 8.2035456e-08 0.0037570226 -9.163268e-05 -0.0023407657
4.911466e-06 0.0034263884 0.0007615848 -0.00013707485 0.00026532175 9.046322e-09 -4.640953e-06 0.003151898
-7.989316e-06 -2.9117277e-08 -0.0006159055 -0.0001443287 -2.2798754e-07 -1.7257114e-05 1.2798148e-05 0.00053034397
3.694306e-05 -0.000696024 7.849261e-05 -0.0017034276 5.3700475e-09 -1.1893342e-08 0.0030238878 -3.6284086e-06

exp_avg_sq f4 [4, 100]
00000000: 67e2 b430 a2a1 cc35 e29c bf34 d3d8 3336
00000010: f480 2b36 30f0 d035 f247 4834 cd86 0136
00000020: 6aa9 3235 0225 b22f 9803 c735 ee3e 1b35
00000030: 4807 292c 03d1 8236 47af 9935 29ab 9032
00000040: ad68 bc35 27ac 3c2f 4fd2 1235 9dc5 9034
00000050: e6a0 6e2e 4ca7 9f35 8891 8c30 1d40 8633
00000060: 0811 4735 9f05 cd35 dd97 4831 4333 0835
00000070: ebd9 3e2f adbe ad35 5a05 8132 a73e 0c36
00000080: 2a60 e933 b283 4936 a75c 5b36 8dcd 6232
00000090: 700f e333 1d0f ef2d 2fa3 0d2f e431 9635
000000a0: 2f0d c62e 2d06 6e2a 7f34 1b35 bca2 4531
000000b0: fcab c429 884c da32 5c01 ac2e 4bd4 9835
000000c0: 2107 9130 77b7 8f35 2afd f535 f643 9935
000000d0: 7743 882e b03f d92c fee0 2636 b0bb ff2d
000000e0: e106 d535 73e3 df35 63dc b92f 9bef 402f
000000f0: e627 3e31 e266 4836 f667 c832 7cc7 5234
00000100: 98d1 7633 a8c0 072d 3669 f134 8c38 c52e
00000110: 6c5c eb36 0659 7b35 388e 4433 41b5 8135
00000120: fe86 1d2f c4a2 962f bb81 0536 f3cf d135
00000130: 118e 1532 cb49 eb35 d60d f22f f520 c935
00000140: dd49 8835 fce9 e52e 9bd4 3836 198c 9836
00000150: 6f2b 1836 5a60 0f36 5d34 a031 6764 4634
00000160: 2455 d72e 6f1d c235 1ceb 3935 2512 3535
00000170: bc94 0336 1ec2 0736 c054 6533 caba 1d35
00000180: 8aad a32e 65f5 af35 1bab f02f c1f7 e235
00000190: 180c 0631 152c 5c35 ddfa 3635 adfa 2236
000001a0: faea a335 9ac8 c535 f7c9 6f34 61c6 ac35
000001b0: 47e5 9d35 9a70 992f 08cb e935 8e6c 0535
000001c0: 514e 5229 79e3 9436 8ffe 5735 59f0 db31
000001d0: 444e c535 7f9f 962e 4c6e 7935 a1a5 9e34
000001e0: d27c 8729 77f3 bc35 deb7 c430 93d3 b932
000001f0: 84c7 9735 bda3 1736 1778 bb31 f408 bb34
00000200: 5cbd 4c2f ebbf ce35 234f d631 3cb4 2936
00000210: 7550 8b33 db13 8036 553c 0436 6d51 e631
00000220: 9fa5 5734 c559 f42c 7182 302f 166a ab34
00000230: 58fa 272e 78ef 442e 9421 3c35 570d 6531
00000240: 5697 352d ff35 1833 12e0 372d 88d4 c635
00000250: 8a63 ac31 f20c 8b35 3375 0d36 ed17 2735
00000260: 8102 0f2f 679b 082f 42a8 2936 1264 ab2e
00000270: 2b16 9c35 2eb2 a335 e1e9 882d 999a 3e2f
00000280: fadd cc2f a67b 1836 11a3 4632 e590 a734
00000290: 61f1 4f33 7fc7 be2f 3c58 9434 2188 3b2d
000002a0: 548f 3b37 1a34 ca35 00f2 e333 2db8 a035
000002b0: 8849 152e a461 412f 5561 0a36 a6ad 0736
000002c0: afdf b333 076f 3136 e25e 852e 6001 4135
000002d0: 7888 1b36 5d23 ab2d 6021 3336 f4ee ec36
000002e0: 8fcb b535 6017 2436 c88b c231 73aa 7d34
000002f0: 0b54 242a ccc4 6335 c97b 4b35 e6b0 8b35
00000300: 3e14 d035 92ef e635 0ceb 8633 3cd1 0135
00000310: 6a05 be2c c116 a535 41da 0330 72e2 c535
00000320: 22c1 0f32 8630 8635 67da 0635 6d9a 5936
00000330: fc4a 9135 1548 2a36 48fb b634 1940 9535
00000340: 73d8 5135 2f10 022e f015 0a36 1883 9635
00000350: df33 682c 0e9c 9b36 0f55 1835 a31f 8933
00000360: 410b f835 ff6a ab2d 3458 5b35 d2eb 2934
00000370: 3ff4 132f 7d74 0636 78c1 5c2f fd74 4933
00000380: 62bc 5135 924c 6236 7d5f e332 34d2 0e35
00000390: 96c8 8b2e 454b a936 b410 3a31 2ab9 8436
000003a0: 3384 6133 c79a e036 acdd 1236 49c7 9a31
000003b0: 07d3 0f34 251b 9b2b fccb 292f 2943 7e35
000003c0: 207b 642f 0e0d ee2c eaf2 6d35 732f fd30
000003d0: 7173 2b2e b12d 9933 b346 9c2f 2c34 bb35
000003e0: 990a 0331 d169 9635 e57f 0836 1749 b035
000003f0: d7fd dc2a adaf a72b 878b 3136 4e85 b62e
1.3161071e-09 1.5246226e-06 3.569067e-07 2.6799287e-06 2.5556046e-06 1.5567111e-06 1.8652625e-07 1.9300962e-06
6.65567e-07 3.2404307e-10 1.4827701e-06 5.7833574e-07 2.4020386e-12 3.898634e-06 1.1450401e-06 1.6841641e-08
1.4037556e-06 1.7159661e-10 5.469528e-07 2.6965873e-07 5.425784e-11 1.1895113e-06 1.0227703e-09 6.2515234e-08
7.415806e-07 1.5275326e-06 2.9190155e-09 5.0738544e-07 1.735782e-10 1.2944998e-06 1.502001e-08 2.0898094e-06
1.08674e-07 3.002799e-06 3.2687474e-06 1.3201668e-08 1.0573319e-07 2.7177866e-11 1.288185e-10 1.1190391e-06
9.0063394e-11 2.1140789e-13 5.781839e-07 2.8759777e-09 8.733983e-14 2.5413343e-08 7.821896e-11 1.1386668e-06
1.0552165e-09 1.0707726e-06 1.8327603e-06 1.1419168e-06 6.196548e-11 6.1745817e-12 2.486689e-06 2.9073494e-11
1.5871739e-06 1.6680991e-06 3.3807898e-10 1.7547423e-10 2.7671319e-09 2.9862208e-06 2.333034e-08 1.9630346e-07
5.7466963e-08 7.71664e-12 4.49663e-07 8.9685676e-11 7.014305e-06 9.363433e-07 4.5764153e-08 9.664001e-07
1.4327026e-10 2.7400493e-10 1.9894057e-06 1.5632235e-06 8.705244e-09 1.7530341e-06 4.4029375e-10 1.4985259e-06
1.0154287e-06 1.0455278e-10 2.754189e-06 4.5462625e-06 2.2675047e-06 2.1364744e-06 4.662566e-09 1.8476713e-07
9.792192e-11 1.4462693e-06 6.926e-07 6.745416e-07 1.9607096e-06 2.0229559e-06 5.3395297e-08 5.875887e-07
7.4432085e-11 1.3109935e-06 4.3777323e-10 1.6910418e-06 1.950644e-09 8.2020534e-07 6.816534e-07 2.4285794e-06
1.2212834e-06 1.4736027e-06 2.2332084e-07 1.2872734e-06 1.176414e-06 2.7910546e-10 1.7418943e-06 4.970433e-07
4.6697296e-14 4.437225e-06 8.0464173e-07 6.4010632e-09 1.4700422e-06 6.8495425e-11 9.292023e-07 2.9550304e-07
6.016857e-14 1.4077949e-06 1.4313135e-09 2.1633047e-08 1.1308443e-06 2.2596062e-06 5.456069e-09 3.4837979e-07
1.8620966e-10 1.5404052e-06 6.2372165e-09 2.5287873e-06 6.487327e-08 3.8170087e-06 1.970465e-06 6.703138e-09
2.0083688e-07 6.9448635e-12 1.6053449e-10 3.192842e-07 3.8193754e-11 4.477793e-11 7.008432e-07 3.3331469e-09
1.0322262e-11 3.5439367e-08 1.0452099e-11 1.4814004e-06 5.017175e-09 1.0360075e-06 2.1078856e-06 6.2247165e-07
1.3006664e-10 1.2424338e-10 2.5280901e-06 7.793956e-11 1.1629357e-06 1.2196303e-06 1.5565273e-11 1.7335323e-10
3.7265108e-10 2.2721738e-06 1.1562194e-08 3.12116e-07 4.8415476e-08 3.470255e-10 2.7631347e-07 1.0659946e-11
1.117944e-05 1.5065336e-06 1.0614531e-07 1.1974531e-06 3.3943987e-11 1.7587937e-10 2.0620257e-06 2.0217644e-06
8.376025e-08 2.6439682e-06 6.064994e-11 7.1900104e-07 2.3176235e-06 1.9456154e-11 2.6692505e-06 7.061166e-06
1.3544794e-06 2.445151e-06 5.6620344e-09 2.362447e-07 1.4595284e-13 8.4850467e-07 7.5803524e-07 1.0407791e-06
1.5503099e-06 1.720606e-06 6.282616e-08 4.836072e-07 5.400726e-12 1.230008e-06 4.796768e-10 1.4743548e-06
8.367609e-09 9.9979e-07 5.023671e-07 3.2425407e-06 1.0825165e-06 2.5373931e-06 3.4082973e-07 1.112002e-06
7.817354e-07 2.957295e-11 2.0576372e-06 1.1214024e-06 3.2997977e-12 4.637527e-06 5.674819e-07 6.385314e-08
1.8480715e-06 1.9487965e-11 8.171221e-07 1.5825142e-07 1.3456346e-10 2.003536e-06 2.0077617e-10 4.690536e-08
7.81327e-07 3.3721194e-06 2.6469701e-08 5.320501e-07 6.3566194e-11 5.045355e-06 2.7076057e-09 3.9554625e-06
5.250713e-08 6.6937387e-06 2.1884725e-06 4.504646e-09 1.3394684e-07 1.1020947e-12 1.544293e-10 9.4720104e-07
2.0780222e-10 6.765816e-12 8.8642867e-07 1.8421659e-09 3.898343e-11 7.132929e-08 2.842647e-10 1.394777e-06
1.9069033e-09 1.1206668e-06 2.0340024e-06 1.3134294e-06 3.9255987e-13 1.1914824e-12 2.645627e-06 8.3000815e-11

exp_avg f4 [4]
00000000: 3352 28ba 7644 893a c5b0 64ba 4dba 143a
-0.000642094 0.0010472673 -0.00087238505 0.0005673513

exp_avg_sq f4 [4]
00000000: c93d 3c36 ed39 f536 c0ee 9735 1ac6 0536
2.8050147e-06 7.3083124e-06 1.1319862e-06 1.9933855e-06
