depression (timeseries)/best_all.pt (torch_old, 110089 bytes, 12 tensors)

fc1.weight f4 [100, 85]
00000000: ceab 343e dcd6 783e 5e5c 383e 9b99 b43d
00000010: d9a4 9d3d 0b58 573e 6557 a3bd ce95 67be
00000020: 12d2 5cbe 3f35 8abd 1a66 0fbc 148c 8fbd
00000030: 0279 30bd 5cc2 ebbc 685f a8bb 0c05 18bc
00000040: 2dfd 93bd e2b0 29be f705 d13c d3d6 42be
00000050: f70d 1f3d cd17 21bd 9b2f ec3c 5669 803e
00000060: 229e a43d c0dd 7dbc 63d8 1abd fe11 bf3a
00000070: c6bf 5b3d e134 24bc 7cd4 41bc 9a69 153b
00000080: d5f7 95bd dcad 863d fbde bbbd a243 d9bd
00000090: dc96 ad3d b3c9 3ebe f8bb fcbc 89ae 2bbe
000000a0: 3738 10bd 9e2d 5abd 49d5 76bc 5cc1 bbbc
000000b0: d1e4 e7bd 8ace e0bd 30ad bbbc 4001 9ebd
000000c0: 3c65 02be 4e1c d13c 7596 f63c 07d0 543d
000000d0: c279 e2bd 0af2 6ebc 756b 9cbc 29d7 03bc
000000e0: e90a 69bc bd32 b0ba 17f9 05bc 4a33 3a3d
000000f0: ef2c 15be 15cc 20bd 7d02 c03d fd55 a73d
00000100: 919f 013e 4b87 62bd e84e af3b 1492 cb3d
00000110: b4b6 8bbc fad5 173d c26b aa3d 9ee4 033d
00000120: 6e51 3e3e cd3b 003e d224 7abc 8e9b f6bc
00000130: fa62 923d f840 cd3d 52a5 eabd 351b bfbd
00000140: 77f0 303c 22ae f1bd 7520 0f3e dd90 133e
00000150: 7dd8 f4bc b0a7 a33b 1ad9 f93d 5c3b 1f3d
00000160: 45d0 313e 6c7b 9a3d 8b05 72bd dc44 4abe
00000170: a668 8dbd 8f06 14be 6d31 bdbd 3b31 f3bb
00000180: 3110 33be e217 d23d fb90 c03d f164 2dbb
00000190: 4cae 43bb 349c e93d 7145 c23d 8b04 833d
000001a0: 2670 0ebd b3ae 073e 1fc2 ccbc f874 5f3e
000001b0: 3dc5 0b3d 94ba 49bc 95be 02bd d1bb 8abd
000001c0: d0b8 57bd bb42 f93c ba45 0cbc 7767 95bc
000001d0: 9c80 cbbd 2d15 30be a813 1e3e 629d ff3d
000001e0: 2944 bb3d 4219 303d 162b c1bd 7d48 d33d
000001f0: b0c4 8bbb b39d b03c e552 d93d 7e48 e73a
00000200: d000 493b 3c7d 0abd 375d 223d 4c99 0c3c
00000210: 73a9 fbbc d08c f13c 6327 a3bc 82bf 8b3c
00000220: af10 13bc 0d84 8bbd 0202 a8bc 724a 2e3d
00000230: 1a09 60bb 3aad d9bb 96d9 b3bc 6f07 d13c
00000240: 49d0 e53d aecf 39bc fcce 863c 4426 91bd
00000250: 137d 0abe 47e1 0bbe 7ecd 4d3c ded3 d23a
00000260: fcce f5bd fc36 fdba 63d5 a6bc f37a 9e3d
00000270: 2899 023d a952 fa3b 8175 023d 4edb cd3c
00000280: de91 313d a980 483c 23cb c23c 4054 5c3e
00000290: 8e5a bd3d dfb6 8c3d e2dc 053e 3a05 91bd
000002a0: 98c0 2b3e 4947 363d 8b65 39bd 4d0e 8bbc
000002b0: d3a2 8b3d d2b9 163e 493c 1a3d 02d8 29bc
000002c0: 3804 873d 6f7f 903c 3999 90bc d424 72bd
000002d0: 1cf7 1cbc f386 6a3d 3f3f a93d 2f91 813d
000002e0: 9885 4dba fa29 29bb fd31 cb3c 14ed 43bd
000002f0: ea1b 32bd 556b aebd e326 eb3d 2635 553e
00000300: fae9 60bd 9dfe 943c 8d53 8abc ad3a 82bd
00000310: 4306 f8bd 56e6 5bbd f78a 7b3d d9e0 e3bb
00000320: 4fe4 abbc 3446 3ebe 3e72 c1bc b423 103e
00000330: 90c1 223e 41b2 da3d 3a95 433d 62d4 9a3d
00000340: 0267 3cbc 93f9 243c f9d8 523d ee0c 0d3e
00000350: 1c35 753c d177 b53c 0c51 9b3b c4b1 fcbd
00000360: bdec 7e3d c8b9 9e3d e56c 013e 5324 723d
00000370: 44ca 5ebc be87 943d df4e c73b 8711 82ba
00000380: 91fa 703d c815 4f3b e05b 6a3a b597 32be
00000390: d0ec 3c3d 8f35 713d 761e 173e ec06 b7bc
000003a0: 3330 0abe 77b3 c7bd fcf0 2cbe 31b6 183c
000003b0: 59ee d2bb 7107 faba 540a 353e 3377 853d
000003c0: 1238 e13d 61d1 a2bc f225 a93c 67cb 253d
000003d0: 80da d13c 1db6 483d 15d3 aebb 7196 893c
000003e0: 1fc4 0f3e 938b 813d 9703 1c3d 5219 1f3d
000003f0: 1da9 0abe 2836 ea3d 3793 10bd f146 893e
0.17643663 0.24300712 0.18003985 0.088183604 0.07697458 0.2102968 -0.079756536 -0.2261574
-0.2156451 -0.06748437 -0.00875237 -0.0700914 -0.043084152 -0.028779201 -0.0051383264 -0.009278547
-0.07226024 -0.16571382 0.02551554 -0.19027261 0.038831677 -0.03932934 0.028831294 0.25080365
0.08037974 -0.015494764 -0.03780402 0.0014577506 0.053649686 -0.010022373 -0.011830445 0.002279854
-0.07322661 0.0657613 -0.091733895 -0.10608603 0.0847604 -0.1863163 -0.03085135 -0.16765799
-0.03520986 -0.05326616 -0.0150655 -0.02291935 -0.1132294 -0.10976894 -0.02290973 -0.07715082
-0.1273393 0.025526192 0.03010104 0.051956203 -0.1105838 -0.014584074 -0.019094208 -0.008046904
-0.014223793 -0.0013442856 -0.008177063 0.04545907 -0.14567922 -0.039257128 0.093754746 0.08170698
0.12658526 -0.055304807 0.0053499825 0.099399716 -0.017054893 0.0370693 0.083213344 0.03220045
0.1858575 0.12522812 -0.015267568 -0.030103471 0.071477845 0.100221574 -0.114573136 -0.09331361
0.010799519 -0.11800791 0.13977225 0.1441073 -0.029888386 0.004994355 0.12199612 0.03887497
0.17364605 0.07543072 -0.059087317 -0.1975283 -0.06904726 -0.14455627 -0.09237943 -0.00742164
-0.17486645 0.102584615 0.09402653 -0.002645787 -0.0029858528 0.114067465 0.09485901 0.06397351
-0.03477492 0.13250236 -0.024994908 0.21821964 0.034123648 -0.01231255 -0.031920034 -0.067741044
-0.052666485 0.030427327 -0.008561546 -0.018237812 -0.0993664 -0.17195578 0.15437186 0.1248119
0.0914386 0.042992838 -0.09432046 0.103165604 -0.0042653903 0.021559572 0.10611514 0.0017645506
0.003067065 -0.03381084 0.039639678 0.008581471 -0.030720448 0.02948609 -0.019916242 0.017059091
-0.008976146 -0.06812296 -0.02050877 0.042551465 -0.0034185112 -0.0066429647 -0.021954339 0.02551624
0.11221368 -0.011341019 0.01645612 -0.07087377 -0.13524275 -0.13660155 0.0125612 0.001608487
-0.1200237 -0.0019318755 -0.020365423 0.077382945 0.031884342 0.0076392484 0.03185034 0.025128987
0.043352 0.012237706 0.023778504 0.21516514 0.092457876 0.068708174 0.13072541 -0.07081075
0.16772687 0.044501577 -0.045262855 -0.016974593 0.06818166 0.14719322 0.03765515 -0.010366442
0.065926015 0.01763889 -0.017651187 -0.059117153 -0.0095804 0.057257604 0.08264016 0.0632652
-0.00078400364 -0.0025812373 0.02480411 -0.047833517 -0.043483652 -0.08516566 0.114820264 0.20821056
-0.054910637 0.018187815 -0.016885543 -0.06358848 -0.12110569 -0.053686462 0.061411824 -0.006954294
-0.02098289 -0.18581468 -0.023614045 0.1407612 0.1589415 0.106785305 0.047749735 0.0756004
-0.011499168 0.010069269 0.051476452 0.13774464 0.014966276 0.02215186 0.004739886 -0.123385936
0.06223749 0.07750279 0.12639196 0.059116673 -0.013598029 0.07252453 0.0060824 -0.0009923436
0.05883271 0.0031598676 0.0008940082 -0.17440684 0.04612428 0.058888968 0.14757714 -0.022342168
-0.13494949 -0.09751027 -0.16888803 0.009320782 -0.0064371047 -0.0019075704 0.17679721 0.06516876
0.10997023 -0.01987523 0.020647977 0.040477183 0.025616884 0.0490018 -0.0053352215 0.016795369
0.14039658 0.0632545 0.03808936 0.038842507 -0.13541074 0.11436111 -0.035296645 0.26811936

fc1.bias f4 [100]
00000000: b37b b6bd 6901 463c c062 083d 0dcb 0d3d
00000010: 876a 5cbc cc83 49bd 1a1d 3abd 8112 88bc
00000020: e722 813d e8cd 013c 41d2 b43c 3383 c53d
00000030: 0282 cdbb b3c6 3fbe 52c6 083d 5928 18bd
00000040: bbda 09bd b85e fb3c 3b21 aebc 74d6 92bd
00000050: ac48 cc3c 52d6 023c 796c e2bd fb06 b1bc
00000060: 94fb 33ba d49f c5bb f4e0 853b 58cf aabb
00000070: 2a22 1abe b8ed 83bc 03db 553d aafd d5bd
00000080: 3baa 083e 68f7 f2ba d41c c1bd 02ed 403d
00000090: 9882 03bd d3c5 323e 9c03 ae3d 035e 44bd
000000a0: 98f8 33bc c0b4 0dbe 35e2 903d 07db 10bc
000000b0: 490d 943d 325d 073e 0acb a8bd ee3d 733d
000000c0: 6239 11b9 49da 03be cddf 13bd 3320 45bd
000000d0: 4811 883d 9701 c93d 7b24 eabc b9b6 02bd
000000e0: 190c 353c fb88 fcbd f49d c5bd f7d6 bfbc
000000f0: b8a0 34be ed1b 253e a8be 46bd 55b1 163e
00000100: 603d 2c3e b3a3 1cbe b89c 243e 65cd 1abe
00000110: 9f3f ce3d 8666 743d fad1 61bd 7df2 f63c
00000120: 97e5 0ebe dd5b 1dbd 07d7 b73d 9943 97bd
00000130: 1bc0 91bb 0322 83bd 2286 5e3d 0a08 4cbc
00000140: 6bb3 cbbc d34c 71bc f24e 12be 82a7 bb3c
00000150: 1515 d03c 77e5 2f3d 850f d83d efa1 133d
00000160: 200d 0abd 3221 5f3d 24b2 9dbc 7bea 933c
00000170: f02d 3fbc 2a23 0bbe c8ea 17bc fd77 60bb
00000180: 5313 9d3d 8f22 83bc 12f6 893d 4da9 54bd
-0.089103125 0.012085297 0.0332973 0.034617472 -0.0134531325 -0.049197957 -0.04543791 -0.016610386
0.06305485 0.007922627 0.022072913 0.09644165 -0.0062716017 -0.18728141 0.033392258 -0.037147854
-0.033655863 0.030684814 -0.02125608 -0.0716981 0.024936996 0.007985668 -0.11055846 -0.021609774
-0.0006865796 -0.006031016 0.0040856544 -0.0052127056 -0.15052095 -0.016104564 0.05221082 -0.10448773
0.13346188 -0.0018536868 -0.09429327 0.04710103 -0.032106966 0.17458276 0.08496782 -0.04794122
-0.010984562 -0.13838482 0.070743956 -0.008841283 0.072290964 0.13219145 -0.08241852 0.059385233
-0.00013849654 -0.12876238 -0.036102105 -0.04812641 0.06643921 0.09814756 -0.028581848 -0.03191254
0.011050248 -0.123308145 -0.09649268 -0.023417933 -0.17639434 0.16123934 -0.048521668 0.14716084
0.16820288 -0.15296821 0.16075408 -0.15117414 0.100707285 0.059668086 -0.05513189 0.030144924
-0.13954769 -0.038417686 0.0897656 -0.0738594 -0.0044479496 -0.064029716 0.054327138 -0.012453089
-0.024865827 -0.014727789 -0.14287928 0.022907022 0.025400678 0.042943444 0.10549835 0.036043104
-0.033703923 0.054475017 -0.019249983 0.018056145 -0.011668667 -0.13587633 -0.009272285 -0.0034251206
0.076697014 -0.01600769 0.06736387 -0.05191927

fc2.weight f4 [4, 100]
00000000: 9a81 a7be 9c19 94bd 9f7a 483d a0b0 a7be
00000010: b049 9d3e 7760 42be d25d 03b9 3992 82bb
00000020: ed89 66be b75c 01bc 02a5 073e c151 103c
00000030: 0fe9 97be e9f2 19be 8ee1 813d 876d 25be
00000040: d370 aabe 9b79 6d3d caad 853c 4f9f 69be
00000050: d773 4d3d f605 2bbe 90eb adbb 88fb 7bbe
00000060: 90ff 84ba cdbb aabd 2a04 5b3c fe64 97ba
00000070: 30af 97be 381c 12ba 454d 983d be88 d03d
00000080: 407d 50bd e399 eebc d854 093e af24 ffbd
00000090: f203 413e aa25 1c3e 7fbf 16be f14e ccbd
000000a0: 58bd 0a3d 9ab1 98be be3e ec3d 1d19 55be
000000b0: ac85 2abe 6e79 873e 6526 7cbd 728d 693e
000000c0: 4378 fabd 71e6 05be a36e 9bbd 9f61 d0bc
000000d0: 0070 88be 68c6 0d3e ad36 b3bd fa91 a63d
000000e0: 260f 163e 624e 4abe bcab 153e d1aa 92bc
000000f0: 4a3e 2ebd e6d9 713e 6eb1 db3d 57e4 5c3e
00000100: 3a37 e0bd e845 0ebe 3f5b 6f3e 472d 343e
00000110: 7130 7e3e be8e 0dbe aa52 57be cc08 6f3e
00000120: 5e75 8a3e d851 533d 8baf 983d e26c 64bd
00000130: d33a 06bc 0f76 ea3d f4ca acbd f9d7 ffbb
00000140: 130c 6fbe caf7 313e 2c4e 22be 3809 1a3e
00000150: d4ec 543e 4b34 16be 92c4 f23d f8cf c7bd
00000160: 647f 46be eb88 063d edd3 85be bf63 063d
00000170: 5d4e b03b 284e 99bd 685e 32be 32a0 c13b
00000180: 4228 d73d 102d 89be 667e 27be 9859 e03d
00000190: 3147 613e 2390 6abe 0dd7 84be ddef 213e
000001a0: 98bb 933d 9d05 0c3e c248 89b9 af25 3abc
000001b0: 4494 c1bd f94b d03c e7de 9dbd cdbf 4dbe
000001c0: d118 1f3e 0b1b 613e bc93 57be e54c 8c3d
000001d0: 4807 433e 6a68 3e3e 4435 bfbc 9315 093e
000001e0: 36eb 0bbe 1211 cd3c 3897 98be 6f90 6c3e
000001f0: a32a ff38 97db 183e a3db 39bc 4e2c d9bb
00000200: 57f6 1d3e 1206 9638 210e ca3d 8233 79bd
00000210: 5544 b3bd 1948 ecbd a0b0 d83d 354f 1bbe
00000220: 4626 103e 9792 c1bd 6627 a8bd 72e2 38bd
00000230: aa50 653e a73d 943e f6ba 17be d266 4fbe
00000240: 5e90 dfbd c291 8c3c 1f1c 093e 4a3f 77bd
00000250: 5da7 eb3d 4a8b 8b3e c3df 38be 941d 2c3c
00000260: 87c6 08be 6adc c8bd 0785 2c3e a7b1 b1bd
00000270: 3619 ec3d 8c99 a1be bd4a 8f3e 5e48 4bbd
00000280: 565d b93d c4db 47be 0c51 d43d 12db 10be
00000290: 9025 3dbd 18e9 a53d 77f4 33be e54a 773e
000002a0: deb7 193e 247a 31be f3e0 a03d 2aa7 e6bc
000002b0: 5eea 343e e8b4 f3ba acd1 b73b 1827 2f3d
000002c0: 1af7 0f3c 4cf2 c63d 3ffc 02be 2ce8 8cbc
000002d0: ebdc 24bd 9d48 82be 6c39 353e a777 7d3d
000002e0: 3da1 9cbe 64e1 7fbd e2ea 39bc 0b69 47bd
000002f0: 1bd1 3cbe 82c5 c63b e4ea 11be dae7 803c
00000300: c9df e03a 1b88 6e3e 705a 33be 89e6 11bb
00000310: 4465 49be 1b16 693e 6097 873e cc9c 763e
00000320: 36de 8dbe 39ae 183e 3fad 213e ff20 643e
00000330: 1e15 aebe 328f 02be e281 5cba f46a 00bc
00000340: e93f 563d c1a8 4dbe 0016 2a3e 2802 313e
00000350: 4057 113e bada 3cbe 8ca3 4bbd 5252 06bd
00000360: 20f1 0c3e 1f51 36bc 11cd 08bd 076d 45be
00000370: 2e27 4ebe 35a7 4c3e e4c3 663e 11f8 22be
00000380: eb35 5c3a 98d1 19be b068 40ba 3b35 b83b
00000390: d488 0cbe e93e d738 e3b7 15be f060 4abe
000003a0: d7d4 df3d 5d05 5f3e 550e 2fbe 572d b7bd
000003b0: 7c34 9cbd 5db3 493e cd56 3b3e 3d25 773d
000003c0: b513 b3be fc8c 6cbe ac9f 233e cb28 e33c
000003d0: 5c92 293e 8d77 87bd def4 64be 45ef 323d
000003e0: 248b 903d eed5 983b 7595 d8bd e525 64be
000003f0: d989 5a3e 360a 133e 8d02 69be 8b5b 29be
-0.32716066 -0.07231447 0.048945066 -0.32751942 0.30720282 -0.18982111 -0.00012528084 -0.0039847163
-0.22513552 -0.00789564 0.13246539 0.008808554 -0.29669997 -0.15034069 0.06341849 -0.16155063
-0.33289203 0.0579773 0.01631822 -0.22814678 0.0501593 -0.16701493 -0.0053076223 -0.2460767
-0.0010146964 -0.083366014 0.013367692 -0.0011550484 -0.29625845 -0.0005573663 0.07436613 0.101823315
-0.050900698 -0.029126113 0.13411272 -0.12458169 0.18849161 0.15248743 -0.14721487 -0.099759944
0.03387198 -0.29823 0.115354046 -0.20810361 -0.16652554 0.2645983 -0.061560053 0.22807863
-0.12229969 -0.13076188 -0.07589462 -0.025437174 -0.2664795 0.13845217 -0.08750663 0.081333116
0.14654216 -0.19756463 0.14616293 -0.017903717 -0.042539872 0.23618278 0.107272014 0.2157148
-0.10948034 -0.13893855 0.23374651 0.17595397 0.24823166 -0.13823983 -0.21027628 0.233432
0.2704267 0.051591724 0.07455357 -0.0557679 -0.008192736 0.11448299 -0.08437148 -0.0078077284
-0.2334445 0.1737968 -0.15850133 0.15042579 0.20793468 -0.14668386 0.11853899 -0.09756464
-0.19384533 0.03284542 -0.2613825 0.03280997 0.0053804354 -0.0748561 -0.17418826 0.0059089893
0.105057254 -0.26792192 -0.16356811 0.10954589 0.21999814 -0.22906546 -0.2594532 0.15814157
0.07213515 0.13674016 -0.00026184885 -0.0113615235 -0.094521075 0.025426852 -0.07708531 -0.20092697
0.1553681 0.21982972 -0.2105245 0.06850604 0.19045746 0.18594518 -0.023340829 0.13387136
-0.13663945 0.025032554 -0.2980287 0.23101972 0.00012167289 0.14927517 -0.011343869 -0.006627596
0.15426002 7.153688e-05 0.09865976 -0.060840137 -0.08753268 -0.11537189 0.105805635 -0.15166934
0.140771 -0.09451788 -0.0821064 -0.04513783 0.22394052 0.28953287 -0.14817414 -0.20254067
-0.10916208 0.017159346 0.13389634 -0.06036309 0.115065314 0.27254707 -0.18054108 0.010505099
-0.13356982 -0.09807666 0.16847621 -0.086764626 0.11528246 -0.3156246 0.27986708 -0.04962956
0.090510055 -0.19517428 0.10367021 -0.14146069 -0.0461784 0.081011 -0.17573725 0.24149664
0.15011546 -0.17331749 0.07855406 -0.028155882 0.17667529 -0.0018593343 0.0056097116 0.042761892
0.008786941 0.09714183 -0.12791537 -0.017200552 -0.040249746 -0.25446025 0.17697686 0.061881687
-0.30591765 -0.06247081 -0.011347504 -0.04868416 -0.18439142 0.0060660252 -0.1424976 0.015735555
0.0017156537 0.23294108 -0.17514968 -0.0022262654 -0.19667536 0.22762339 0.26482677 0.24083251
-0.27708596 0.1491021 0.15788744 0.22278212 -0.34000486 -0.12749937 -0.0008411688 -0.007838
0.052307043 -0.20083906 0.16609955 0.17285979 0.1419344 -0.18442813 -0.049716517 -0.03279335
0.13763857 -0.011127739 -0.03339869 -0.19279872 -0.20132133 0.1998566 0.22535664 -0.15914942
0.00084003684 -0.1502136 -0.00073398184 0.00562158 -0.13724071 0.00010263717 -0.14620928 -0.19763541
0.10929268 0.2177939 -0.17095311 -0.08944195 -0.07627198 0.19697328 0.1829483 0.060338248
-0.34975973 -0.23100656 0.15978879 0.027729413 0.16559738 -0.066145994 -0.22359034 0.043685216
0.07057789 0.0046641743 -0.10575382 -0.2228008 0.21341647 0.14359364 -0.2275488 -0.16538827

fc2.bias f4 [4]
00000000: bfb2 933d 3e39 44bd 984b bb3d a5d6 92be
0.072118275 -0.047906153 0.09145278 -0.28679386

exp_avg f4 [100, 85]
00000000: 18a1 8dba c660 8fba 2a77 aaba 95b4 2bb9
00000010: 9855 9e37 ba4b a9ba 74e3 cd3a b121 f53a
00000020: 5d00 d33a e66e 6d38 6b8a a135 f99f e63a
00000030: 8aa4 3638 86e5 1738 10fe 6eb5 8f3a 04b5
00000040: 00e9 b43a 9677 1d3b 90fc bfb7 e2fa d23a
00000050: 1a9f 00ba e2da 4b38 168b edb8 2bbe 59ba
00000060: 202f 8d39 2290 2839 86a0 2139 1adc 5737
00000070: 8ecb 8839 bcf1 0d37 cf16 8437 442e 993a
00000080: 79d9 a03a a0fc ad38 b13d e038 c2e2 473a
00000090: e4a9 c739 3deb 333b 5332 a23a 6d54 3039
000000a0: 682b 6b37 a3bd a53a 3ea1 0237 1370 5f37
000000b0: 32bc ba3a 8e00 8d3a c246 28b8 8e1c 5338
000000c0: a059 9f3a f943 0139 a28e d73a f05f 4b3a
000000d0: 7a77 1a39 06d5 0a37 4e73 413a e2fd ed36
000000e0: 12e6 5037 a875 9d3a 2a10 783a 346e a1b7
000000f0: 1d29 5a38 12a1 753a ac3d 9039 67bb 1c3a
00000100: 4d3c 033a f232 4a38 743c 8535 32af f439
00000110: f6e4 543a 261a 8ab9 247e d539 b2b7 69ba
00000120: 695f 2aba 67a0 ea39 92c4 3137 4616 9e37
00000130: 2040 5bb7 bc40 6cb8 5678 c73a 63fd 5b3a
00000140: b81d 473a 4716 973a 8b9c 20b8 1738 c3b8
00000150: 62ed 323a c805 8838 6d55 c5ba 8aa9 55ba
00000160: e768 1bb9 a5ab b1b7 e857 7fba 7caa 6c38
00000170: 787a 0a3a aa98 8639 b069 7fb5 ee12 1536
00000180: 0a14 7139 d998 16b8 e690 47b8 def9 43b4
00000190: 64c6 c234 278e 31ba 96af b0ba f108 2fba
000001a0: 2ac8 343a ea00 cfb9 7822 5738 ea23 e2ba
000001b0: a446 3538 798b 9bba eee6 a3b8 0764 2d39
000001c0: c263 8b36 ba6b 9238 846f 3eb6 4ff8 b1b6
000001d0: dd0a ee39 5011 103a 837a 0cb9 3e3c 84b8
000001e0: 3cd6 beb9 a0f9 0cb9 0aec e1b8 426e a4b9
000001f0: 76ef 1ab9 a14a eab6 6374 abb9 e004 65b5
00000200: 5b28 07b6 0434 35ba 84bf de39 8423 08b9
00000210: 0d82 df37 2a26 85ba bce3 c6b8 cfc9 0bba
00000220: fffb 7cb9 08c6 5636 821f 81b6 a926 22b9
00000230: 7810 3cb6 528e 65b6 a602 3539 2020 2bba
00000240: f8eb 19b9 14ef bab7 26b9 ef38 55eb 59ba
00000250: 28b8 96ba 3208 74ba 1e8e 6cb8 b8f6 7db5
00000260: c4f3 70ba e0ac 43b8 b0ff 71b7 3aa7 4039
00000270: 7076 8b37 9651 64b8 5e31 1039 fd41 27b7
00000280: f9c9 c8b7 6878 0c37 5f34 6c37 dae7 91ba
00000290: 374b b738 1acd 0339 520b bfb9 78b3 cab9
000002a0: 9b26 4cb9 b6ef d238 00ed 7637 32b0 a7ba
000002b0: 2c54 6dba a28c 36b9 6e20 64b7 c46d 85ba
000002c0: cce9 ccb9 d05f 56b8 038f bcb9 d403 3438
000002d0: 4a5c 0236 8d3f 90b9 2a6e beb8 7f9b cdb8
000002e0: a8df 6836 3d76 5536 af01 d7ba 8621 1ebb
000002f0: 0051 d339 7c9e 85ba 8058 4cba a85b 4ab8
00000300: 7c12 60ba 61d7 27ba b0b2 e1ba 5bfb 92ba
00000310: 5402 a5b7 2847 a2b7 2867 75ba 1035 05b7
00000320: 8486 a3b7 5e38 d9b9 0295 3139 dca7 c6b9
00000330: 1b6f 98b8 0ab9 9cba 1757 a8ba 0261 2abb
00000340: 8b69 0cbb ec66 02ba 96f7 1db8 ec07 06bb
00000350: dc13 25b7 08be b0b7 f315 ecba d676 98b9
00000360: 8373 3eb9 b3a3 b2b8 10a0 02bb d30a 77ba
00000370: 3949 34bb 5960 c7ba bb57 50b9 594e eab7
00000380: 80bd c9ba dadc 14b7 75ba a0b7 a0a6 6aba
00000390: d57c d0ba 3f0e 08ba 48d2 acb8 8452 45ba
000003a0: 0296 1f39 6f24 04ba b6e7 46b9 bb3d 16b9
000003b0: 157d dbb5 aa23 3ab8 ee43 86ba e063 47b8
000003c0: 019e 32ba 66fe 243a 48e3 393a ec89 44ba
000003d0: f8e4 49b7 5259 d4b7 cf2b 9b38 12e3 2039
000003e0: 143b a0ba c895 00ba aad9 2a3a 231e 68ba
000003f0: 30fb b4b7 4fe0 63b9 5696 d2b9 a363 8eba
-0.0010805456 -0.0010938875 -0.0013005484 -0.00016375103 1.8874925e-05 -0.0012916245 0.0015708045 0.0018702057
0.0016098131 5.6608485e-05 1.203572e-06 0.0017595283 4.354542e-05 3.6214966e-05 -8.903162e-07 -4.9259046e-07
0.001380235 0.0024027578 -2.2886583e-05 0.0016096497 -0.00049065205 4.8602822e-05 -0.000113269474 -0.00083062303
0.00026928727 0.00016075422 0.00015413956 1.2866245e-05 0.00026091601 8.460538e-06 1.5746247e-05 0.0011686762
0.0012271843 8.296338e-05 0.00010692643 0.0007625037 0.00038082816 0.0027453445 0.0012374617 0.00016816119
1.4017198e-05 0.0012645017 7.786146e-06 1.331793e-05 0.001424676 0.0010757612 -4.012022e-05 5.0332914e-05
0.0012157448 0.0001232772 0.0016445706 0.0007758131 0.00014731093 8.275039e-06 0.00073795475 7.0927063e-06
1.24513335e-05 0.0012013214 0.0009462858 -1.9244013e-05 5.201354e-05 0.00093700096 0.0002751177 0.0005978853
0.0005006239 4.8208e-05 9.926866e-07 0.00046669837 0.0008121276 -0.00026340893 0.00040720508 -0.00089156174
-0.00064992026 0.00044751467 1.059579e-05 1.884544e-05 -1.30683475e-05 -5.6327073e-05 0.0015218358 0.00083919446
0.0007595676 0.0011527025 -3.8292765e-05 -9.308772e-05 0.0006825534 6.486062e-05 -0.0015055366 -0.00081505685
-0.00014821031 -2.1179972e-05 -0.0009740577 5.642556e-05 0.00052825315 0.00025672215 -9.51487e-07 2.2213749e-06
0.00022991016 -3.5905137e-05 -4.7580244e-05 -1.8251691e-07 3.6279664e-07 -0.00067731965 -0.0013480063 -0.00066770526
0.0006896282 -0.00039482798 5.1292096e-05 -0.0017253135 4.3219552e-05 -0.0011867128 -7.81546e-05 0.00016535829
4.154136e-06 6.981888e-05 -2.8377117e-06 -5.303918e-06 0.0004540299 0.0005495744 -0.0001339708 -6.3054715e-05
-0.0003639924 -0.00013444433 -0.00010772802 -0.00031362666 -0.0001477579 -6.9824314e-06 -0.00032702376 -8.531624e-07
-2.0140058e-06 -0.0006912353 0.0004248583 -0.00012983201 2.6644231e-05 -0.0010158469 -9.4837946e-05 -0.0005332501
-0.00024126469 3.2003754e-06 -3.8481676e-06 -0.00015463926 -2.802377e-06 -3.42065e-06 0.00017262492 -0.00065279193
-0.00014679122 -2.2284257e-05 0.00011430895 -0.000831296 -0.0011498975 -0.00093090825 -5.639914e-05 -9.460887e-07
-0.00091915973 -4.6652625e-05 -1.4424251e-05 0.00018372844 1.6625243e-05 -5.443542e-05 0.00013751301 -9.96934e-06
-2.3935909e-05 8.3726845e-06 1.407889e-05 -0.0011131719 8.74013e-05 0.0001256954 -0.00036438793 -0.00038662157
-0.00019469338 0.0001005823 1.47179235e-05 -0.0012793599 -0.0009053375 -0.00017409262 -1.359741e-05 -0.0010179807
-0.00039084104 -5.111081e-05 -0.00035964706 4.291891e-05 1.9425229e-06 -0.0002751317 -9.080426e-05 -9.804125e-05
3.470088e-06 3.1808297e-06 -0.00164037 -0.0024128868 0.00040305406 -0.0010194327 -0.000779517 -4.8245915e-05
-0.0008547676 -0.00064026384 -0.0017219391 -0.0011213826 -1.9670617e-05 -1.934504e-05 -0.000936138 -7.939772e-06
-1.9493753e-05 -0.00041431462 0.00016935545 -0.00037890568 -7.26862e-05 -0.0011957001 -0.0012843338 -0.0025997763
-0.0021425213 -0.0004974443 -3.76623e-05 -0.00204515 -9.83939e-06 -2.1069325e-05 -0.0018011912 -0.0002908024
-0.00018162843 -8.518193e-05 -0.001993183 -0.0009423915 -0.0027509464 -0.0015211209 -0.00019869108 -2.7931457e-05
-0.0015391558 -8.872908e-06 -1.9160312e-05 -0.00089512207 -0.0015906343 -0.0005190111 -8.240767e-05 -0.00075272494
0.00015219304 -0.00050408294 -0.0001896907 -0.00014328111 -1.6353175e-06 -4.437907e-05 -0.0010243633 -4.7538313e-05
-0.00068137055 0.0006294012 0.00070910575 -0.00074973586 -1.20338445e-05 -2.5313962e-05 7.399136e-05 0.0001534338
-0.0012224638 -0.00049051316 0.000651742 -0.00088545884 -2.157464e-05 -0.00021731968 -0.0004016633 -0.0010863434

exp_avg_sq f4 [100, 85]
00000000: 68cd 4335 0505 c835 5e78 a635 859b aa32
00000010: 8e50 8c2f 4f9f a835 f08c 7f34 af1c bc34
00000020: b2b9 8934 25cb 9330 4234 3e2f 13b6 9934
00000030: ec7e d930 1428 f730 b788 dd2d e30e 762e
00000040: 3e07 1935 9ed6 7835 f6aa c733 92cb a534
00000050: 630b 7034 5d65 ab31 4ebf ba34 0045 2f34
00000060: 765c 9b35 878c d034 12dc 9532 3669 502f
00000070: d899 d634 6897 e62d 819e 812f fe61 fc34
00000080: 717e fe34 bdb7 0f33 6d5b be30 1d3a b434
00000090: b235 0d34 4548 e535 8fc5 3635 d56c b832
000000a0: 8d89 5a30 592a 3d35 628e 312e a632 602f
000000b0: dc22 f334 bac6 2035 90a9 0933 eef3 0030
000000c0: 27ef bc34 3297 2234 891a 9b35 41fe 0535
000000d0: 5ee6 8432 5599 f12e bc4e 0935 c1e9 852e
000000e0: f201 c02e e9e2 0835 234d d134 71ae 0b33
000000f0: e2bd 1a30 22cd b834 d5a9 8635 9980 a835
00000100: 5766 9335 bd28 1931 bb74 2e2f cc8d 9435
00000110: a8df 4c35 1b14 cb34 8567 4f35 43cc 1e34
00000120: 349f d133 ec93 4e35 b3ba 292e 6430 622f
00000130: f634 4930 517e 3b31 dd14 fb34 7df0 b434
00000140: af30 e133 20e6 dd34 305b 7b34 3693 0831
00000150: 64f8 d933 334d 5834 d7dd f134 61f8 8f34
00000160: f349 0c32 f925 6d30 0429 9934 f64f 2234
00000170: 34e6 8e34 ece1 4734 37cb e22f cc07 8c2f
00000180: 704c 4434 ac22 4330 6c73 8b30 5a61 382f
00000190: ef52 5b2d 3e18 c534 9676 d534 b523 0934
000001a0: 2324 4434 dfba 5333 21cf 1131 6e0e af34
000001b0: dc3c 3733 2e96 2135 5299 5034 1037 3732
000001c0: 012e ba2e e835 5f34 4875 372f 3fe5 0e2f
000001d0: 053e c534 e3c4 a834 30c1 a232 73c0 8630
000001e0: 1c85 3834 721d 5633 9e05 3035 97a6 8334
000001f0: 05e0 2a32 68db d52e 937c 8834 39da 6c2f
00000200: 4251 2f2f 7e42 9734 0637 bb34 e76c b032
00000210: 0092 a82f d0b2 5534 e652 7f33 06f7 0935
00000220: 9caa 6434 9e77 e331 357f 482e 7768 6b34
00000230: 6528 c52e 5f10 3a2f 79e5 bc34 a12b 5b34
00000240: b023 ba32 6ae1 0330 19fa 6034 8770 f034
00000250: a353 1d35 2e8c 0835 55ab f530 6d22 2d2e
00000260: 1beb 0835 3dff cc34 fa34 3634 7f1f c734
00000270: 74a3 3133 d6fe 0833 688b c834 4692 c32e
00000280: a095 592f 6540 a92f cc84 9030 9341 f134
00000290: 06a1 7934 b979 2734 dc6c ae34 db57 d433
000002a0: ff58 3f31 0e9a 8433 5c5f fe34 9e7f 5a35
000002b0: 89cf 2335 ad99 e431 8a34 c52f ba8b 2535
000002c0: 2886 a634 0062 df34 1241 b734 d747 7530
000002d0: 42b9 822e 43c2 b534 a5a7 8830 0328 9030
000002e0: 8b0e 7a2f 36c8 1e2f 1cb7 3035 be23 4a35
000002f0: 088e 7234 c1f7 8534 0020 0d34 f5d4 0a32
00000300: cb86 e534 3899 ee33 f91c 9335 bf08 e834
00000310: efa7 a532 96e7 892f fa8b ef34 5ab3 272e
00000320: aa6a 532f 69b4 2f35 e380 4335 dfd9 3933
00000330: 7b3e 7a30 42c3 9034 b0f1 1234 24d4 b135
00000340: 9305 1835 68e7 c632 21ab 792f a426 1935
00000350: f1b1 132e 2ce9 032f 0719 f434 200f 2f35
00000360: d9e4 1a33 a989 7d30 0ea7 da34 b615 1e34
00000370: 04dd 9635 5323 0035 0091 8032 dab0 582f
00000380: e104 0435 1117 7f2e 16b3 132f 3c50 ea34
00000390: 7bd8 cb34 b758 5033 d7a4 5230 3871 a134
000003a0: f4d0 7b35 35a4 9d35 d74c 8b35 b299 4e31
000003b0: 6c1a 712e 4b54 9035 8d2f 3135 8e07 ac34
000003c0: 1ce6 3635 e09b c333 6003 9633 cee7 3a35
000003d0: 830a 1b2f 7aff 912f 00e6 3630 4c07 2431
000003e0: 704c 2f35 b763 b234 31c8 7634 21b3 0035
000003f0: a030 6e34 d934 8a31 c272 fa33 9aa4 0135
7.2942066e-07 1.4902622e-06 1.2402995e-06 1.9861327e-08 2.552309e-10 1.256334e-06 2.3799998e-07 3.50386e-07
2.565335e-07 1.0753395e-09 1.7298965e-10 2.8630947e-07 1.5824901e-09 1.7983006e-09 2.5185505e-11 5.5947146e-11
5.700748e-07 9.269951e-07 9.297757e-08 3.0881762e-07 2.2355884e-07 4.9882787e-09 3.4784392e-07 1.6323247e-07
1.157531e-06 3.8845266e-07 1.744596e-08 1.8954868e-10 3.9972542e-07 2.621521e-11 2.3577587e-10 4.7009956e-07
4.7403185e-07 3.346189e-08 1.3850304e-09 3.3569896e-07 1.3151183e-07 1.7082863e-06 6.808777e-07 2.146991e-08
7.950341e-10 7.046961e-07 4.0371602e-11 2.0390675e-10 4.528764e-07 5.989383e-07 3.2052014e-08 4.6912774e-10
3.5191735e-07 1.514243e-07 1.1556123e-06 4.991635e-07 1.5471581e-08 1.09866484e-10 5.115105e-07 6.089663e-11
8.731495e-11 5.0994146e-07 3.8985408e-07 3.2522113e-08 5.6294713e-10 3.4421925e-07 1.0033206e-06 1.2554402e-06
1.0982138e-06 2.2287587e-09 1.5866679e-10 1.1068128e-06 7.6321385e-07 3.7826325e-07 7.726415e-07 1.4789207e-07
9.76128e-08 7.6956235e-07 3.8591973e-11 2.0571772e-10 7.3198636e-10 2.7283884e-09 4.6767573e-07 3.370259e-07
1.04862345e-07 4.1331896e-07 2.340937e-07 1.9874284e-09 1.0150032e-07 2.0144653e-07 4.5051158e-07 2.6816545e-07
8.165887e-09 8.627406e-10 2.8528314e-07 1.5116515e-07 2.6617056e-07 1.8615509e-07 4.1253553e-10 2.5471392e-10
1.828173e-07 7.098986e-10 1.0146386e-09 1.6769289e-10 1.2467124e-11 3.6711748e-07 3.9760624e-07 1.277211e-07
1.8267069e-07 4.9297224e-08 2.1218016e-09 3.260679e-07 4.266336e-08 6.0195714e-07 1.9427287e-07 1.0664522e-08
8.466473e-11 2.0788104e-07 1.668542e-10 1.299627e-10 3.6739235e-07 3.1435692e-07 1.8947134e-08 9.804481e-10
1.718476e-07 4.9852538e-08 6.5573283e-07 2.4521862e-07 9.9462385e-09 9.725093e-11 2.5422614e-07 2.1541603e-10
1.5945026e-10 2.817432e-07 3.48715e-07 2.053862e-08 3.066276e-10 1.9902222e-07 5.944721e-08 5.1395944e-07
2.1296222e-07 6.6201684e-09 4.5587718e-11 2.1924085e-07 8.965698e-11 1.6922418e-10 3.5184692e-07 2.0411836e-07
2.1669479e-08 4.7977855e-10 2.095261e-07 4.4785358e-07 5.8608765e-07 5.0867936e-07 1.7874792e-09 3.9366222e-11
5.100607e-07 3.818367e-07 1.6969344e-07 3.7089555e-07 4.1359684e-08 3.189674e-08 3.7354334e-07 8.893557e-11
1.9789193e-10 3.0786676e-10 1.0515122e-09 4.493746e-07 2.3248512e-07 1.559737e-07 3.248923e-07 9.888e-08
2.7844747e-09 6.1747514e-08 4.738057e-07 8.1397036e-07 6.1024235e-07 6.6531443e-09 3.5871422e-10 6.167062e-07
3.101752e-07 4.160829e-07 3.413375e-07 8.923257e-10 5.944624e-11 3.385522e-07 9.94295e-10 1.0488751e-09
2.2742534e-10 1.4441146e-10 6.583157e-07 7.5302876e-07 2.2589677e-07 2.4953445e-07 1.314329e-07 8.081078e-09
4.275265e-07 1.1110609e-07 1.0960786e-06 4.321973e-07 1.9284895e-08 2.5084707e-10 4.4619065e-07 3.81307e-11
1.9228233e-10 6.545511e-07 7.2830716e-07 4.327182e-08 9.103826e-10 2.696416e-07 1.3685235e-07 1.3249269e-06
5.6632524e-07 2.3155465e-08 2.2707215e-10 5.705317e-07 3.3581974e-11 1.199722e-10 4.5466751e-07 6.521459e-07
3.6064055e-08 9.223649e-10 4.0727213e-07 1.4722795e-07 1.1240195e-06 4.773512e-07 1.49671e-08 1.9707916e-10
4.918093e-07 5.8000774e-11 1.3433196e-10 4.3644275e-07 3.7969207e-07 4.850946e-08 7.6631806e-10 3.0070964e-07
9.3808853e-07 1.1745202e-06 1.037867e-06 3.006431e-09 5.4820523e-11 1.0753369e-06 6.6006834e-07 3.2042993e-07
6.8135137e-07 9.1087486e-08 6.985533e-08 6.962772e-07 1.4100902e-10 2.6556873e-10 6.6538064e-10 2.3869289e-09
6.530381e-07 3.3227636e-07 2.2983365e-07 4.794438e-07 2.2183167e-07 4.0223367e-09 1.16624065e-07 4.829577e-07

exp_avg f4 [100]
00000000: 8592 2f3b 8963 9fba 8ae5 49bb 7866 ab3a
00000010: aed1 cf3a a5b2 6a3a 8486 55b8 61fa 1537
00000020: 40a5 823a 04bf b03a 10e8 59ba 56f6 80ba
00000030: 8562 1c3a b6ac 0f3b 045a 7c3a 9166 ad3a
00000040: 76b0 b439 3eb6 d5b9 8a8a 4db9 94de 10b9
00000050: 2970 28ba 8ab6 213a e44f 18b9 b075 0ab9
00000060: 4b06 5f34 86e5 db39 47bb 56b8 d128 dfb6
00000070: 6ee4 4e3b fe38 97b7 a8c0 683a 304f 853a
00000080: c759 c6ba 3016 043a 38b4 c53a 60f0 dd3a
00000090: efc2 7839 23ee a1bb 07a9 8d3a 7ee8 723a
000000a0: 46f0 f13a e6c6 6c3a 82d6 34bb 6a03 cd39
000000b0: d0e4 45b9 ff2d eaba 0e1f 183b 21e5 04b9
000000c0: 2772 80b9 8a8a d7b9 c36c 4a3a 9179 d93a
000000d0: eddf b93a c617 7eba ff00 2a3b 7c92 de3a
000000e0: 79bb 91ba 6cec 36ba aeb8 7a3a 3015 ccb7
000000f0: f837 9039 0055 0fb6 273f 6e3b 1b2a ffba
00000100: 11d7 56ba f372 073b e342 a2b9 fa5d ba3a
00000110: 2f94 aaba 0985 4fba 3644 403b 0401 2bbb
00000120: ebf7 283a 4ae3 33b9 20ec 93b9 5cc0 9eb8
00000130: fab7 2f37 0b25 953a b591 1eba 0564 9b38
00000140: 8fc9 043b 379f 593a cb44 173b 6877 3b3a
00000150: cfa9 b6ba a54a 60ba f441 27ba a8d7 693a
00000160: 4731 903a 5e5b 7238 4452 053a 6cd1 8eb9
00000170: aa1c 36b7 4e7b fab8 627b ac39 cebb 20b6
00000180: 0c8c 69ba f063 ffba 39c4 b53a 0ae9 b4ba
0.0026790213 -0.0012160401 -0.0030806982 0.0013076803 0.0015855336 0.0008953012 -5.0908435e-05 8.939388e-06
0.0009967461 0.0013484661 -0.0008312473 -0.0009839039 0.0005965608 0.0021923012 0.00096264505 0.001322942
0.0003446375 -0.00040762307 -0.00019601933 -0.00013815827 -0.00064254046 0.0006168863 -0.00014525611 -0.00013204548
2.0770783e-07 0.00041941943 -5.119599e-05 -6.6506695e-06 0.003156926 -1.8027142e-05 0.00088788057 0.0010170694
-0.0015132957 0.00050387066 0.0015083617 0.0016932599 0.00023723741 -0.004941718 0.001080782 0.00092662114
0.0018458448 0.0009032324 -0.0027593677 0.0003910319 -0.00018872623 -0.0017866491 0.002321187 -0.00012673858
-0.00024499113 -0.00041111215 0.0007721895 0.0016592016 0.0014181115 -0.00096928736 0.0025940535 0.0016980912
-0.0011118493 -0.00069779786 0.00095642626 -2.4328561e-05 0.0002750752 -2.1358137e-06 0.003635356 -0.0019467504
-0.00081954995 0.002066788 -0.00030948882 0.0014218681 -0.0013014133 -0.0007916247 0.0029337532 -0.0026093135
0.0006445634 -0.00017155442 -0.00028213952 -7.569857e-05 1.0473648e-05 0.0011378838 -0.0006048934 7.409606e-05
0.002026174 0.0008301618 0.0023081775 0.0007151277 -0.0013936105 -0.0008556045 -0.0006380372 0.000892038
0.0011001014 5.778239e-05 0.0005085806 -0.00027240382 -1.0854719e-05 -0.00011943896 0.00032898324 -2.3951175e-06
-0.0008909113 -0.001948474 0.0013867683 -0.0013802361

exp_avg_sq f4 [100]
00000000: e0aa 2536 a9eb a135 5e29 1836 de79 3236
00000010: c7b2 3c36 a348 c435 8372 8131 3ba6 642f
00000020: 3cd6 a935 0999 dc35 6b98 4535 39f1 4c35
00000030: 6d34 f935 4112 9b35 e3b3 0b36 596c 7735
00000040: da7b 5135 6855 9d35 9663 3932 5c9c f935
00000050: c758 8e35 f84c f034 96ee 1735 1927 0c36
00000060: 97ec 552f 2b70 2034 1f95 fe2f 4a09 2930
00000070: 2de7 dc35 7fb4 0e31 1291 7335 85af 5b35
00000080: a80f f034 6c24 9335 fdd8 5335 e39f b935
00000090: ca9a 0e36 9f79 2c36 2ea1 5c35 7b1a 4b35
000000a0: f1d0 1736 bd97 7035 73c9 5136 e0ed 8a35
000000b0: b0b2 9a35 7603 1336 f50b e835 f0eb ee35
000000c0: 6ffe f233 114b 2036 d656 c435 f34e d135
000000d0: 2e04 1f36 5003 6a35 a373 2f36 91a4 d535
000000e0: 94c9 a034 31e2 a335 c2e6 1a36 6080 d832
000000f0: c37e 0e36 918c 3336 ab6a 1b36 0142 9036
00000100: 7e23 6135 0027 af35 25b9 3836 62d5 a235
00000110: 36b0 9935 5a71 2035 0587 ca35 16ef f235
00000120: 1d92 9c35 b279 2c32 1efa 0234 1993 8433
00000130: d4d8 5e30 7ef1 5935 807f 8f35 1309 1031
00000140: 8a5a e535 fc41 bd35 a687 0336 fb07 1536
00000150: b5d6 3836 ed97 ba35 b443 0836 cb3a b534
00000160: 925c 0335 0dee 5232 504a f235 0eb8 3c32
00000170: a07c 1330 14db 8835 9895 4236 0fc1 2d2e
00000180: f6db b335 90a6 f035 02b6 9a35 9269 b435
2.4686378e-06 1.2064021e-06 2.2673844e-06 2.6595003e-06 2.8118245e-06 1.4624278e-06 3.7674126e-09 2.0795536e-10
1.2653832e-06 1.6435816e-06 7.3610016e-07 7.634695e-07 1.8567204e-06 1.1553713e-06 2.0817322e-06 9.2172337e-07
7.8038795e-07 1.1722268e-06 1.07910605e-08 1.8597452e-06 1.0605662e-06 4.4759486e-07 5.659907e-07 2.0884384e-06
1.9456291e-10 1.4941968e-07 4.6308288e-10 6.149504e-10 1.6458558e-06 2.076632e-09 9.073566e-07 8.183927e-07
4.4714875e-07 1.0962954e-06 7.8919385e-07 1.3830107e-06 2.1249748e-06 2.570079e-06 8.2190934e-07 7.566193e-07
2.2622373e-06 8.9627775e-07 3.1260686e-06 1.0351032e-06 1.1525899e-06 2.1906721e-06 1.7288827e-06 1.7801049e-06
1.1315284e-07 2.3885552e-06 1.462841e-06 1.5594691e-06 2.369528e-06 8.7176613e-07 2.6144342e-06 1.5917632e-06
2.994899e-07 1.2210277e-06 2.3082107e-06 2.5204088e-08 2.1233434e-06 2.67549e-06 2.3158889e-06 4.2992183e-06
8.387068e-07 1.3049867e-06 2.7525905e-06 1.2132043e-06 1.1450672e-06 5.9769593e-07 1.5089469e-06 1.8099988e-06
1.166543e-06 1.0039388e-08 1.2198186e-07 6.173486e-08 8.107126e-10 8.1190217e-07 1.0691438e-06 2.0959916e-09
1.708818e-06 1.4100801e-06 1.959948e-06 2.2207375e-06 2.7543113e-06 1.3902296e-06 2.0304988e-06 3.3756655e-07
4.893601e-07 1.2277735e-08 1.8052033e-06 1.0984889e-08 5.365539e-10 1.019655e-06 2.8995328e-06 3.9507116e-11
1.3400556e-06 1.792987e-06 1.1526865e-06 1.344177e-06

exp_avg f4 [4, 100]
00000000: 6c5f d23b 979b a3ba dd2e 00bb 64bb 043c
00000010: 3eed d9bb 4f67 a53b 9d39 c9b3 ba8a 64b7
00000020: a3ce 323a 4f48 42bb fc14 0cbb 7d58 b23a
00000030: be9c d33b b60c 873b 0cf4 48bb 12b3 b43b
00000040: 5b37 df3b 46a6 883a d3a8 83b9 0b58 7c3b
00000050: fa65 16bb 210e 033b b5ff 8ab9 75fb 923b
00000060: 9110 24b5 0229 6b3a 644f 56b8 87dd 5cb6
00000070: 5ec2 a23b 265e 28b6 7e08 f3ba 8492 1fbb
00000080: 8eef cb39 88d6 c3ba 9588 73bb fe33 1b39
00000090: aab2 76ba ced2 dbba 4e6a 3f3a a89e 7c3a
000000a0: 8a64 adba a381 a93b e8fc 5eb9 f8f1 193b
000000b0: fe18 173a 4b53 fcbb e7bf ae3a d0db 6ebb
000000c0: 98b8 e73a 3860 153b a69e 093a f060 2138
000000d0: 8822 853b a0dd 58bb 0841 943a 3e0f 68ba
000000e0: 362b 67bb 7f18 003b e952 3fb9 5075 9fb7
000000f0: fd0a 67ba 120e 04ba 12f9 69bb 0ffb 6bba
00000100: a704 c5b9 1c32 c939 9e21 ffba 44c6 bebb
00000110: 9a27 04bc aa83 e63a 3f89 0e3b ad1d bcbb
00000120: 36f9 e5bb ae9c 88b9 d7aa 4eba bdab 72b8
00000130: 2c6a 5c38 ab12 20bb f8aa e639 2d60 beb7
00000140: d883 4c3b 2201 c3bb e86a 703b a1ca 40bb
00000150: 9daf ecbb 7676 bd3a 2967 16ba 6dce 3a3a
00000160: fe7b e93a 5394 1c38 b5a4 c73b 07e9 45ba
00000170: 03f0 6135 3a40 103b 60bd 98ba 894c ab36
00000180: c637 edba 228c d83b 836a 8c3b cabf 273a
00000190: 9991 f7bb 7cbf 953b ba81 8e3b 6204 1cbb
000001a0: cccc caba 6e09 faba eefc 7335 46f4 0c37
000001b0: c7d0 52ba 6a07 fc3a fbec 103b dc20 a13b
000001c0: 3b99 1fbb 81ae efbb 3e60 3c3b 72c3 e6ba
000001d0: 9a77 a8bb 9631 86bb 9cd4 f639 a262 99bb
000001e0: e1bd be3a ac53 5ab8 6f87 853b 320a 9cbb
000001f0: d362 0135 4c80 64bb dac2 8e38 30ff 08b7
00000200: 105c 60bb 3828 ddb2 9d25 0f39 9254 193b
00000210: cc07 d8b8 5653 4b3b cb60 6c3a cc41 223b
00000220: 0412 1b3a deb2 1139 5a94 d13a 9a7f a13a
00000230: e51a ffba 2801 dcbb ab51 a73a 6266 b53b
00000240: 77dd b53a cc37 edb8 7f74 25bb 48a2 c6b9
00000250: e526 bbba 3ca9 cbbb 0cee 883b cc4d 913a
00000260: 3277 243b accf ce3a 961f 30ba c2e6 d23a
00000270: ba8e ccba 195e 8a3b 9af3 bebb 8816 53b8
00000280: cc33 8f3a b451 8c3a 00d7 c736 3603 c0ba
00000290: d3a7 803a b0e7 e63a da1e 0b3b be7b 36bb
000002a0: 4836 eeba ce64 e13a d9a9 5fba ff2a 92ba
000002b0: c905 c4ba ff0b 0238 991b 0dba 8959 4438
000002c0: 888b 8eb8 aa1f 973a 08ca 463b 4616 1e37
000002d0: 34ab 5b39 25e7 853b 8417 0cbb 75a9 8d3a
000002e0: 6e26 9a3b fade 1c3b a558 72bb 9772 ff3a
000002f0: 5499 a23b 8e48 d636 2af0 a63b 2fe7 ac39
00000300: 1689 42b5 3ed1 c0bb 62f6 213b ad6f 6eb5
00000310: cc67 753b 0ede d8bb 1cc4 b7bb 562b b7bb
00000320: 049e 4d3b 1cf0 41bb 9412 9939 a4d1 acbb
00000330: e202 143c df80 44ba 5776 e4b4 16dc 5737
00000340: a091 d13a 0f00 293b f342 73bb 46ca b7bb
00000350: 9f3e 13bb 459b 453b 70da 523a 77f7 96ba
00000360: 46a4 9abb 9d5b 1dbb 75e3 213a d1e1 653b
00000370: b53e 383b 703d 70bb 6b6f d4bb 319a b73a
00000380: f903 2435 fe31 653b eed8 cb38 259b 0a37
00000390: ad0f e03a bcd9 7034 8f2e 92ba 39b9 6b3b
000003a0: 0e51 a2bb 1a63 7bbb b5a1 9a3b 5ed7 81b9
000003b0: f0ea b3ba c964 14bb 7ae8 06bb c26b 153b
000003c0: a2a6 d13b 2279 0c3b 68d5 85bb 31de 27ba
000003d0: dda3 43bb 6855 aa3a 6fe1 b53b edd0 4bb8
000003e0: 964c 36ba f6b5 92ba b813 783a 196d 773b
000003f0: 5334 97bb d6fc d0ba ea08 163b 857c af3a
0.0064200666 -0.0012482282 -0.0019559183 0.008101318 -0.006650596 0.0050477157 -9.370272e-08 -1.3622159e-05
0.00068209524 -0.002964515 -0.0021374812 0.0013606694 0.006457894 0.0041213883 -0.0030663041 0.005514511
0.006812019 0.001042553 -0.0002511205 0.0038504626 -0.0022948966 0.0019997435 -0.00026511928 0.0044855424
-6.111887e-07 0.0008970649 -5.1095514e-05 -3.29115e-06 0.004967018 -2.5088752e-06 -0.001854196 -0.0024348805
0.0003889766 -0.0014941255 -0.0037160267 0.0001480132 -0.00094107783 -0.0016771199 0.00073019124 0.0009636679
-0.0013228816 0.0051729246 -0.00021265785 0.0023490172 0.0005763917 -0.007700359 0.0013332338 -0.0036446936
0.0017678915 0.0022792947 0.0005249776 3.847567e-05 0.0040629543 -0.0033091083 0.0011310885 -0.0008852369
-0.0035273558 0.001954585 -0.00018246066 -1.9008905e-05 -0.0008813588 -0.0005037497 -0.0035701436 -0.0009001949
-0.00037578234 0.00038375042 -0.0019464975 -0.005821975 -0.008066082 0.0017586846 0.0021749286 -0.0057408423
-0.0070182336 -0.00026056677 -0.00078837335 -5.785724e-05 5.2550968e-05 -0.002442519 0.000439964 -2.269455e-05
0.0031206515 -0.005951063 0.0036684815 -0.0029417651 -0.007223083 0.001445486 -0.0005737418 0.0007126097
0.0017813442 3.7331436e-05 0.0060926327 -0.00075496774 8.4168295e-07 0.0022010938 -0.0011653118 5.105107e-06
-0.0018098287 0.006608502 0.004285158 0.0006399123 -0.0075551984 0.004569946 0.0043489607 -0.0023806323
-0.0015472411 -0.0019076297 9.0892615e-07 8.401525e-06 -0.00080419745 0.0019228284 0.0022113908 0.004917247
-0.0024352807 -0.0073145037 0.0028743888 -0.0017605855 -0.0051412107 -0.0040952666 0.00047079183 -0.0046809474
0.0014552438 -5.2053176e-05 0.004074983 -0.0047619576 4.8200053e-07 -0.003486651 6.8073816e-05 -8.165647e-06
-0.003423456 -2.5746075e-08 0.00013651555 0.0023396355 -0.00010301135 0.0031025014 0.0009017109 0.0024758456
0.00059154653 0.00013894911 0.0015989647 0.0012321353 -0.0019462971 -0.006714005 0.0012765428 0.0055358866
0.0013875206 -0.000113114336 -0.002524644 -0.00037886412 -0.0014278559 -0.0062152427 0.004178768 0.0011085807
0.002509546 0.0015778444 -0.0006718574 0.00160905 -0.0015606501 0.004222643 -0.0058273794 -5.0327304e-05
0.0010925471 0.0010705502 5.9556914e-06 -0.0014649394 0.000981564 0.0017616656 0.0021228106 -0.0027844752
-0.0018174136 0.001719618 -0.0008532084 -0.001115173 -0.0014955337 3.1005588e-05 -0.00053828355 4.6813428e-05
-6.7970774e-05 0.0011529822 0.0030332822 9.42272e-06 0.00020949246 0.0040863925 -0.002137632 0.0010807948
0.004704288 0.0023936615 -0.0036979106 0.0019489106 0.004962126 6.3861435e-06 0.0050945478 0.00032978642
-7.247012e-07 -0.0058843186 0.0024713506 -8.882442e-07 0.00374459 -0.006618268 -0.005608095 -0.005589883
0.0031374702 -0.002959258 0.00029196276 -0.0052740145 0.00903389 -0.000749601 -4.2554413e-07 1.2866241e-05
0.0015988834 0.0025787388 -0.0037118762 -0.0056088297 -0.0022467745 0.0030152362 0.0008043414 -0.0011517842
-0.00471929 -0.0024010905 0.00061755563 0.0035077224 0.0028113548 -0.0036657713 -0.0064830086 0.0014007745
6.110054e-07 0.0034972425 9.7202006e-05 8.261563e-06 0.0017094515 2.2430953e-07 -0.0011152792 0.0035968556
-0.00495351 -0.003835863 0.004718984 -0.00024765258 -0.0013726633 -0.002264308 -0.0020585344 0.0022799824
0.006398038 0.0021434505 -0.004084278 -0.00064036535 -0.0029852309 0.0012995424 0.0055505554 -4.859355e-05
-0.0006954161 -0.0011193145 0.00094633875 0.0037754236 -0.004614392 -0.0015944492 0.0022893497 0.001338855

exp_avg_sq f4 [4, 100]
00000000: 5d29 8836 0c36 ba35 06bf 9635 7cfb b536
00000010: 6766 9136 2d78 d436 00bf 4a2e 35b7 2330
00000020: a2a3 4336 4b63 3b36 b2c3 b435 45a0 d135
00000030: e38a fa35 7218 1636 ca61 a335 ded1 f036
00000040: 4f46 1936 16fc 0a36 78e3 5f33 721d b835
00000050: c814 1836 44ad 0234 a47f 7f34 4630 7136
00000060: 9dfb 002f 0dbb 6133 98f0 1330 a453 662f
00000070: c22b 1436 ff10 922f 6915 8336 4f26 0336
00000080: 4944 bf34 c338 7435 dbe1 0336 076c 2735
00000090: f74b 7336 327a d235 5690 bd35 60d4 f135
000000a0: 6cdb c234 0cb4 9735 5cfc b236 454d 4835
000000b0: 196d f635 1a51 ec36 f867 ae35 8348 ed36
000000c0: 7586 bf33 172c fd34 b0f1 2f36 75a8 e634
000000d0: 19d0 6136 189b ad36 fd4a 3c36 8273 1136
000000e0: d118 ae34 9984 4434 7c99 4b35 67a9 4732
000000f0: e6ad e435 39ee cb36 755a 3b36 1b33 b636
00000100: 0f21 0436 a39c 4836 0c50 6136 3bdf ef35
00000110: d81c 1f36 15f8 3734 6946 d536 6366 e236
00000120: 1944 2336 85a8 3831 10f9 f334 31c9 0033
00000130: ec58 932f 772f 0536 182d 8d36 5048 7b31
00000140: 0ed8 8236 eb43 3336 5d22 8036 f6c0 0c36
00000150: 92d4 5236 83bb e535 e2da ae36 a89e 1336
00000160: e328 be34 4187 5431 8912 8636 b01e a433
00000170: 2ff2 522e 86c1 8b35 5549 0a36 9965 622e
00000180: 61e0 b935 ef7f 8d36 dcca ff35 62d6 0d36
00000190: 90f1 6e36 bf7b 4e36 999b 1e36 de80 2136
000001a0: e9ac 8135 baaa 5536 adbe 6c2f ff4b a92f
000001b0: ceeb 8335 d396 8d36 b7d6 c335 3e4e 0a36
000001c0: d13f 0835 248c c836 c34c df35 4aa7 d136
000001d0: f851 0136 590c cc36 4895 7633 d219 f535
000001e0: 49ae 1436 fbaf 8033 b18f 9635 2236 ae36
000001f0: a67f 122e 3052 bb34 30ed be2f 550a 8630
00000200: 5f42 af35 53d3 152d f521 c436 4ebc 0936
00000210: 1584 5634 1099 8a35 224e 5436 5dd1 2035
00000220: 863a 2636 c79e 9c35 9bf1 a035 fd83 3936
00000230: c917 3435 9070 0436 ddb2 2e36 a849 d535
00000240: 8d30 2c36 14de 5f35 a9ff f035 16e9 2036
00000250: b395 7733 3880 8636 835e 0c36 242c 5935
00000260: e611 ed35 cc4d 8936 17ce 6a36 63dc 3e36
00000270: d2de c133 e2e0 8f35 35d9 3b36 4ade 8134
00000280: f16f 1836 78b2 3236 685c dc35 90d1 5a36
00000290: 4626 fd35 0e27 7f36 9d60 0236 da8b 0836
000002a0: a9a6 aa34 b9a4 0734 e98b 8d36 0fb4 1b36
000002b0: baba 9935 4775 ea30 45ed 9c34 4736 c131
000002c0: be3f f22f f8ae 4a36 e9c0 a636 f339 4331
000002d0: 18e6 bd35 1d76 bf35 d4dc a736 c034 fd35
000002e0: 8f67 ec35 d91c ae35 cea3 3c36 9211 4336
000002f0: 671f 8b35 241c 7532 5158 da35 501b 8d33
00000300: 40cc 382f abad ab36 ac9d 2a36 c7ef c62e
00000310: c5ae 2836 70b1 d936 b79f ae36 fe54 a636
00000320: ddcf 4c35 c9ab 6a36 adf2 9f35 1a63 4336
00000330: 1064 a236 db31 0636 8c85 2b2f 98f4 7e30
00000340: 1905 b735 8a90 dc36 9a11 1136 5221 3f36
00000350: d5a2 be34 2264 7136 6ddf c635 1263 b936
00000360: 968a 9b35 69b2 bf35 9422 6c33 ce9a c535
00000370: b789 1836 ce04 e834 cd40 4236 11a5 d635
00000380: d874 052f 2b62 be34 0442 cc30 cd5a f62f
00000390: abc4 7135 883d 0b2e cf45 5536 c134 2536
000003a0: 13c3 9d35 2187 2436 6289 4636 7128 0d35
000003b0: 5cc4 e635 33cd a135 937b f935 700b c335
000003c0: 3cdd 2636 181c a034 12ac a636 1c5b 3934
000003d0: 9f3b be36 42a5 7e35 dcda 8a36 b79d 2536
000003e0: 573c f032 5919 5935 4d59 8f35 7c68 df35
000003f0: 6b91 3b36 cf44 b436 147e 2f36 48da 1c36
4.057931e-06 1.387381e-06 1.1231466e-06 5.423497e-06 4.333258e-06 6.3320826e-06 4.6099125e-11 5.955941e-10
2.9152511e-06 2.7922968e-06 1.3468e-06 1.5618358e-06 1.8666873e-06 2.236597e-06 1.2172907e-06 7.176989e-06
2.2839702e-06 2.0710336e-06 5.2128115e-08 1.3717638e-06 2.2661861e-06 1.2170227e-07 2.3795161e-07 3.5939897e-06
1.1730923e-10 5.2557017e-08 5.382019e-10 2.0948093e-10 2.207919e-06 2.6569322e-10 3.9065967e-06 1.954282e-06
3.5626206e-07 9.097968e-07 1.9651986e-06 6.236955e-07 3.625404e-06 1.5681783e-06 1.4123605e-06 1.8017708e-06
3.6294966e-07 1.1302777e-06 5.334192e-06 7.461825e-07 1.836018e-06 7.0427895e-06 1.2994269e-06 7.071592e-06
8.918588e-08 4.7157002e-07 2.6217713e-06 4.2963407e-07 3.3648741e-06 5.173857e-06 2.8057832e-06 2.1673918e-06
3.2428082e-07 1.8302161e-07 7.584674e-07 1.1621842e-08 1.7037935e-06 6.077604e-06 2.7917824e-06 5.429972e-06
1.9688775e-06 2.9893497e-06 3.3574206e-06 1.7871856e-06 2.3709636e-06 1.7133455e-07 6.3560915e-06 6.7472442e-06
2.432853e-06 2.6871316e-09 4.5443494e-07 2.9985305e-08 2.6802327e-10 1.9846173e-06 4.207377e-06 3.6566412e-09
3.899454e-06 2.6712612e-06 3.8186977e-06 2.0973944e-06 3.141617e-06 1.7116403e-06 5.2110854e-06 2.1997057e-06
3.5420007e-07 3.0926943e-09 3.995669e-06 7.642427e-08 4.7963574e-11 1.041263e-06 2.0606287e-06 5.1476687e-11
1.3848877e-06 4.217021e-06 1.905802e-06 2.1135425e-06 3.5605372e-06 3.0768422e-06 2.3634404e-06 2.406588e-06
9.661572e-07 3.183885e-06 2.1531817e-10 3.079492e-10 9.828889e-07 4.2196857e-06 1.4591122e-06 2.0609145e-06
5.0756813e-07 5.976779e-06 1.6637135e-06 6.2481604e-06 1.927021e-06 6.081111e-06 5.741211e-08 1.8261437e-06
2.2155166e-06 5.992475e-08 1.1217691e-06 5.191906e-06 3.330993e-11 3.4891264e-07 3.472933e-10 9.75272e-10
1.3057833e-06 8.516593e-12 5.8452083e-06 2.0524199e-06 1.9978354e-07 1.0326348e-06 3.163594e-06 5.990931e-07
2.4769993e-06 1.1669116e-06 1.1991245e-06 2.7643975e-06 6.708984e-07 1.9735053e-06 2.6032133e-06 1.5891173e-06
2.5658258e-06 8.339714e-07 1.79558e-06 2.3977532e-06 5.764532e-08 4.008438e-06 2.0916639e-06 8.090303e-07
1.7663085e-06 4.091975e-06 3.4988677e-06 2.8440488e-06 9.0277936e-08 1.071978e-06 2.7991603e-06 2.418986e-07
2.2714923e-06 2.662795e-06 1.6418171e-06 3.2606513e-06 1.8861108e-06 3.8020694e-06 1.9427746e-06 2.0346984e-06
3.178623e-07 1.263278e-07 4.218415e-06 2.3201608e-06 1.1453733e-06 1.7059073e-09 2.92299e-07 5.62321e-09
4.4064835e-10 3.020219e-06 4.969643e-06 2.8409175e-09 1.4148563e-06 1.4264984e-06 5.0026956e-06 1.8865321e-06
1.761351e-06 1.2972406e-06 2.810953e-06 2.9067492e-06 1.0365446e-06 1.4267275e-08 1.6267969e-06 6.570792e-08
1.6807267e-10 5.1164147e-06 2.5423751e-06 9.0465906e-11 2.513568e-06 6.4877604e-06 5.2041974e-06 4.95708e-06
7.6298403e-07 3.496871e-06 1.1917051e-06 2.911495e-06 4.839625e-06 1.9996576e-06 1.5599805e-10 9.275225e-10
1.3636046e-06 6.5733375e-06 2.161693e-06 2.8480613e-06 3.5508734e-07 3.5970083e-06 1.4817175e-06 5.524963e-06
1.1588734e-06 1.4282533e-06 5.497948e-08 1.4722698e-06 2.2729926e-06 4.3216863e-07 2.8945972e-06 1.5992283e-06
1.2137791e-10 3.5461684e-07 1.4861716e-09 4.4811657e-10 9.0065686e-07 3.165959e-11 3.1780107e-06 2.4617623e-06
1.1754186e-06 2.451656e-06 2.9584266e-06 5.2585443e-07 1.7193483e-06 1.2055156e-06 1.858791e-06 1.4531961e-06
2.4864703e-06 2.9822763e-07 4.967217e-06 1.7262613e-07 5.669382e-06 9.4862855e-07 4.138199e-06 2.4678718e-06
2.7967117e-08 8.0875685e-07 1.068032e-06 1.6645204e-06 2.7949816e-06 5.3724284e-06 2.615042e-06 2.3372868e-06

exp_avg f4 [4]
00000000: 63cc 37bb 9207 2f3b f683 b5bb ed3e b43b
-0.0028045408 0.0026707393 -0.0055394126 0.0055006654

exp_avg_sq f4 [4]
00000000: 658c 4b36 0682 a336 bbc2 e836 8e15 cb36
3.0331078e-06 4.8729153e-06 6.9368084e-06 6.0523807e-06
